model/model.pth (torch, 17609 bytes, 4 tensors)

linear1.weight f4 [256, 11]
00000000: 5f77 6a3c db26 17be fab4 11be fe6e 903e
00000010: 5995 703d 7ade 72be b93e e9bd 1458 0abe
00000020: 0827 2ebe b048 a53d 5854 17be 76a9 6fbe
00000030: 5621 063e 01d9 383e 2537 293e 97ce a03d
00000040: 2f4f 69be 75c5 d4bd 63cb f5bd 82c3 2bbd
00000050: 11d3 7abd 4b6b 9cbc 40b2 77bd 77df 2e3d
00000060: 3f03 0dbe 85e7 9fbd de30 c13d 2a66 8ebe
00000070: 8b6f 14be bb4a 57be 2d93 13bc 6a56 473e
00000080: 68dc 3fbe f9f2 0abe 907b 263e 69e1 263e
00000090: 8268 dc3d c8c0 23be 6a8a 87be 86f6 e5bd
000000a0: 7a6c 7cbe 0885 71bc f6b5 1c3e b6cf 84be
000000b0: 376f bebe 1973 833e 6d63 0abe 3d96 c7bd
000000c0: ac06 5c3e f04e 7c3e 6e6c aabe 6b3f 233e
000000d0: 1b67 07bd b67c 043c 10f9 67be b7e9 eebd
000000e0: 95e6 85be 956a debd d971 8cbc 00cd 96be
000000f0: 07b1 33be 699d 37be 46c5 dc3c b0b7 33be
00000100: 5b0a 163e 3a3c 2d3e 14ce ca3d d9b5 81be
00000110: bae9 88bc 8565 c5bd 2fcc 51bd 91a0 b13e
00000120: 6d3c 56be ac27 1cbe ee7a 643e e808 f2bd
00000130: 09c2 d43d 7738 293e c2bf 7abe 5407 30be
00000140: 4d4d 85bc 1cd6 873e 4677 21be ed3f 2abe
00000150: 012a 87bd 644d 8f3e 6b16 6c3e f329 5cbe
00000160: 9511 91be ebdb 8e3e 5414 3abe 625b 213e
00000170: 8607 06be 4b10 963e b384 19bd 0f4d c6bd
00000180: 6c8c 54be 7002 cb3c 5bf2 63be 40e2 803d
00000190: 0bfc db3c 1f4d 7a3e 8818 80bc 8045 95be
000001a0: deb8 22bd 0ea7 1f3e e4fe 4b3e bdfa 8ebe
000001b0: b5f4 5fbe 19c0 833e 6400 f63d 02de b1bd
000001c0: 96b0 d73d cd83 103e 8d59 573e 6714 b53e
000001d0: b9b3 433e e3c0 b7bd b797 da3d 6c0b 383e
000001e0: 9b7c 983e 936d 8bbe f90b 463e 81d1 9bbe
000001f0: 3dc1 ed3c 3edd b53c 20a5 82be c80f c5bd
00000200: 215c debd 3618 873e b921 433e f0cf a9be
00000210: f304 5cbe c552 8abe 2d4e 99be df85 fc3c
00000220: ffa0 2bbe d506 bc3e 7bd1 7d3e 11f4 153e
00000230: 6257 8dbe fafa d03d 3273 d8bd be33 0f3d
00000240: bf74 493e 3561 3d3e 9306 c6bd 5865 4d3d
00000250: 04ec 75bd d49f 153e 0917 863d 2fe2 403e
00000260: b68c 61be 5252 8dbe 05ee dd3c 0151 8bbe
00000270: 949d d5bd 5169 0abe e0b6 ca3d f674 e13d
00000280: 2661 0abd daa5 483e 05ea bf3d 3e1f ab3d
00000290: 91b5 b93d f77d 8ebe 03bc 9e3e 4733 99be
000002a0: 8655 053e 268d d6bd 61c3 8dbe 7917 233e
000002b0: 5b81 973e 172d 1e3d 2103 1abe 4601 e43d
000002c0: 75d7 98bd 15bf c1bd 9fe7 70be d4b9 583e
000002d0: 21f2 12be 692e 503e 9f17 843d 3187 963d
000002e0: 51da 5dbe b096 b7bb a076 aa3d 8d47 9fbb
000002f0: 839a 053e adcf cd3d f94a 9dbd 2f85 a0bc
00000300: 0344 233e 576d a13e b08f 933e 46a5 57bc
00000310: bd27 8f3e 20ff 833e 8723 3ebd 50dc 8f3d
00000320: 844e a03d 88a4 153e 049e 64bd 53e6 1f3e
00000330: ee54 19bd 057f 46be e654 253d b9bd 9b3e
00000340: 1e8b 50be 75ca 81bc f1ae 77be 7c88 033c
00000350: 4ecd 91be 31b2 bc3d d147 ad3d dce4 9ebe
00000360: 54d2 97be 774a 993e b325 023e cf07 a5bc
00000370: faeb 683e f8ff 5a3e 0aaa 9f3d 912e 24bd
00000380: 5dff 81be 1e5d 2c3e 9d88 013c d710 7ebe
00000390: 71c5 cc3c bd8c 4f3e a1f6 93bd c5bc f5bc
000003a0: 9333 bcbd 12d3 b13d 3671 28be 5ae9 673e
000003b0: 78ff 0fbe 02ba 16be 0b38 4ebe edd7 233e
000003c0: e0f7 32be 7a87 9b3d 8d6a 1d3e 52df 5c3e
000003d0: 6ee3 e33c 5f66 c73d cbeb 553e 6c30 0d3e
000003e0: 9c7c 87be d819 12bd 10ed 923d 5c6d 353e
000003f0: 6784 903e b2dc 61be d0d2 313e b40e 86be
0.014310687 -0.14760916 -0.14229193 0.2820968 0.05873618 -0.2371768 -0.113889165 -0.13510162
-0.17007077 0.08070505 -0.14778268 -0.23404488 0.13098654 0.1805153 0.16524942 0.07851904
-0.22784112 -0.103892244 -0.120016836 -0.041934498 -0.061236445 -0.01909413 -0.060472727 0.04269358
-0.1377077 -0.07807831 0.09433149 -0.2781232 -0.14495675 -0.21024601 -0.009007257 0.19466558
-0.18736422 -0.13569249 0.16258073 0.16296925 0.10762121 -0.15991509 -0.2647279 -0.11228661
-0.24650756 -0.01474119 0.15303788 -0.2593972 -0.37194225 0.2567375 -0.1351449 -0.097454526
0.2148692 0.24639487 -0.3328585 0.15942161 -0.033057313 0.008086374 -0.22653604 -0.11665671
-0.26152483 -0.10860173 -0.01714413 -0.29453278 -0.17548 -0.17931141 0.026949536 -0.1755054
0.14652388 0.16917506 0.099025875 -0.2533405 -0.016713012 -0.09638504 -0.051220115 0.34692815
-0.20921488 -0.15249509 0.22312519 -0.11818105 0.10388572 0.16525446 -0.24487212 -0.17190295
-0.016272211 0.2653054 -0.15768155 -0.16625948 -0.065998085 0.27988732 0.23055427 -0.21500377
-0.28333727 0.2790216 -0.18171817 0.15757516 -0.13088807 0.29309306 -0.037480067 -0.096826665
-0.20756692 0.024781436 -0.2226042 0.06293154 0.026853582 0.24443482 -0.015636697 -0.29154587
-0.039727084 0.1559107 0.19921452 -0.27925673 -0.21870692 0.25732496 0.12011793 -0.08684923
0.10531728 0.14112778 0.21030255 0.35367128 0.19111528 -0.08972337 0.106734686 0.17973107
0.29782566 -0.27232036 0.19340505 -0.30433276 0.029022807 0.022200223 -0.25516605 -0.09622151
-0.10857416 0.2638566 0.19055833 -0.33166456 -0.21486263 -0.27016273 -0.29942456 0.030825553
-0.16760634 0.36723962 0.24786942 0.14643885 -0.2760573 0.1020412 -0.10568847 0.034961455
0.19673441 0.18494113 -0.09669223 0.050145477 -0.060039535 0.14611751 0.06547362 0.18836282
-0.22026333 -0.27601868 0.027091036 -0.2721024 -0.10430446 -0.13516738 0.09898162 0.11008637
-0.033784054 0.19594517 0.093708076 0.08355568 0.09067834 -0.2783048 0.31002817 -0.29921934
0.13020906 -0.10476141 -0.27688125 0.15926923 0.29590878 0.03861722 -0.15040256 0.111330554
-0.0746297 -0.09460274 -0.23525856 0.21164638 -0.14350177 0.20330204 0.06449818 0.073500045
-0.21665312 -0.00560268 0.08323407 -0.0048608244 0.13047223 0.10049377 -0.076803155 -0.019594757
0.15943913 0.31528732 0.28820562 -0.013161963 0.27960005 0.25780582 -0.0464206 0.07024443
0.07827476 0.14613545 -0.055814758 0.15615205 -0.03743451 -0.19384392 0.04036417 0.30418184
-0.20365569 -0.01584361 -0.24187829 0.008028146 -0.28476948 0.09213675 0.084609635 -0.3103398
-0.29652655 0.29939625 0.12709694 -0.020145325 0.22746268 0.21386707 0.07796104 -0.04008347
-0.2539014 0.16832396 0.007906106 -0.24811111 0.024996491 0.20268531 -0.07224775 -0.029997239
-0.091895245 0.086828366 -0.16449437 0.2264761 -0.14062297 -0.14719394 -0.20138566 0.16000338
-0.1747737 0.075941995 0.15372677 0.21569565 0.027818408 0.097363226 0.20890729 0.13788003
-0.26462257 -0.035669178 0.07174122 0.17717499 0.28226015 -0.22056845 0.17365575 -0.26183093

linear1.bias f4 [256]
00000000: d728 7ebe 2931 5ebe d5a5 33be cae1 92be
00000010: c865 87ba 1d4c a23d 4818 fe3d de42 d3bd
00000020: 929d be3b 2e5d 0d3e 9fe6 dbbd b41e 1ebe
00000030: bbe6 fbbc 25a3 9b3e 3ef1 e63d cd17 013e
00000040: 0b59 7bbe 6173 963e 8fc2 70bd ff5b f4bc
00000050: 555d 4cbe 9d74 d0bc ade5 7fbe 7381 81be
00000060: 3c09 65be eca5 ddbc fbf0 3d3e 38ed c23d
00000070: eef6 693d ac38 263e 6b48 7e3e 5996 d0bd
00000080: d55e d93d f169 23bd 76d0 853e 9dee a7bd
00000090: ee0b 8e3d 48f2 853d d61a 0a3e 1960 a23e
000000a0: d03a 603e 55fd 483e b342 b63d 42d8 813b
000000b0: 17f9 d53d 978c 89be 101a 7cbe 3afb d53d
000000c0: c3fd 76be b8e2 fbbd f65e 9c3e 77df 94be
000000d0: fa54 7dbd 8fb4 f7bb 1607 d43d 9be3 8d3e
000000e0: 67b7 753e d339 80bd 1489 b9bd 77c6 4f3e
000000f0: 86d4 ab3e 3e31 52be f689 c33e 2670 72be
00000100: 0429 a83d 7274 6e3d 72d3 8bbe 24f8 bd3b
00000110: 432b c73c 65a1 5a3e 6b59 023e 3b99 813e
00000120: 43f1 17be e030 a0bc a0a2 33be f051 7ebe
00000130: 82c0 29be 43fb 8fbe dbba 35bb b982 783e
00000140: 1b4d c93c df39 f8bd 7bfe 1cbe f76a f93b
00000150: e216 4ebe f9a8 31be 9413 db3d d3ef 86be
00000160: f052 ba3e a39e b03e 1cd6 a93d f4b4 423e
00000170: 5f1d cbbd e6c5 6b3e 7e4b 873e 150d 903e
00000180: 739f 6c3e a730 dd3d 0f4b 8b3e 1a25 823d
00000190: 7215 b83e 1f28 0e3e 6f6c 9abe 2f07 fabd
000001a0: 73e3 b53e cbeb f73c 8e92 cdbd 3e62 fbbb
000001b0: e2f4 56be 2f6e 913d 1386 5ebe aae9 833d
000001c0: 1de8 b63c ccc0 bc3e 03cd 093d c856 743e
000001d0: 35c3 78bd 04ba 2e3e 8f98 48bd 6678 883e
000001e0: cb0c 93bd 19cb 36be 6894 96bc fc60 1f3e
000001f0: d7dc 483e 95e2 94bc d014 5c3d 6164 fcbd
00000200: 9b2e 803e a105 583e 4960 1cbe dca2 96be
00000210: ed4b 04be a930 093e 0292 593d 8de4 9b3e
00000220: d38c af3e 528a a03e 9ca6 56be cebb d43d
00000230: 926a 10be f49d 913c f63a 9ebe 7094 c33e
00000240: 6723 d83a 59e4 833e 9700 7abe db34 7cbd
00000250: 649b d6bc 31cc b6bd 2141 a0be 347b d43d
00000260: 4697 10be c30b 5abd e725 b43d 64ad 85be
00000270: b741 87bd 962a 2ebe fafe 873e 920f b03e
00000280: 7c45 0ebd 779c 8d3e d7b0 0c3e e53f 023d
00000290: e354 24be 87d9 5dbe 4d53 20bd dd63 5cbe
000002a0: fae7 40bd 06ba 94bd ed48 f73d 44a9 1d3e
000002b0: 833b 93be 5ab1 803d 59b4 91be 7e3e a23c
000002c0: c3e3 60be 2f73 a13d fc31 673e 4c60 4b3e
000002d0: bf77 14be ad7b 84bd ee96 1f3e 3877 9c3e
000002e0: 13f5 8c3d 7f94 893e 7759 7dbc 07d7 403e
000002f0: 2de5 c93e 8e6e 12be 0c9c 5a3e 3576 963e
00000300: 3c34 59be 6c0e c63e c8f8 a0bd 6ec8 afbc
00000310: cd0f 093e 1965 2a3e 2374 86be 1bde 323d
00000320: a209 a1be 4866 fabd 72fc 913d f1d1 433e
00000330: 05af 3fbe b9c7 81bd 8e31 a43e 8750 9f3e
00000340: 735f 80be b061 6abe 2dd3 2d3e 08ac 333e
00000350: 6270 a9be ed64 89bc e073 903e 9a4e 793d
00000360: 41ec 78bd 131d 21be a1bc 41be fcdd 69be
00000370: 8c89 8f3e f1ff 313e 89c3 17bd 47ce b33d
00000380: 2aaf b23e fc48 a3bd 8c6a a83d f434 403d
00000390: 3b5e b83d 7158 03be d59c 4f3e 0628 983e
000003a0: 34ce c53d 5865 40be 94bf 753e 3e26 a83d
000003b0: 78f6 273e 4d9b db3d 866a 89bd a2aa 663e
000003c0: ca6c 85be d893 81be a23c 0c3e fc4f ae3e
000003d0: e066 ce3d 290d bb3d 096c bf3e 201c 6e3e
000003e0: 8f92 f83c 4462 b03e f634 93be 8ae4 8dbe
000003f0: ed1a 3e3d d2c0 733e ca70 cebd a382 27be
-0.24820267 -0.2169844 -0.17543729 -0.28687888 -0.0010330016 0.07924674 0.12406975 -0.10315488
0.0058171237 0.13805076 -0.10737347 -0.154414 -0.03074967 0.30397907 0.11276482 0.12606736
-0.24545686 0.29384902 -0.058779296 -0.029829023 -0.19957478 -0.02544623 -0.24989958 -0.25294074
-0.22366804 -0.027056657 0.18548958 0.09517902 0.057120256 0.16232556 0.24832313 -0.101849265
0.10613791 -0.039895955 0.26135606 -0.08199809 0.06935869 0.06540352 0.134868 0.31713942
0.21897435 0.19627889 0.088994406 0.0039625475 0.10447901 -0.26865074 -0.24619317 0.10448308
-0.2412024 -0.122991025 0.305412 -0.2907674 -0.061848618 -0.007559366 0.10352914 0.27712712
0.23995744 -0.06261029 -0.09059349 0.20290552 0.3356058 -0.20526597 0.38191193 -0.23675594
0.08210948 0.05821652 -0.27309757 0.005797403 0.024312621 0.2135063 0.12729423 0.25312218
-0.14838128 -0.019554555 -0.17542505 -0.24835944 -0.16577342 -0.28121385 -0.0027729783 0.24268617
0.0245729 -0.12120413 -0.15331452 0.007611628 -0.20125917 -0.17349614 0.106970936 -0.26354846
0.363914 0.3449603 0.08292791 0.1901434 -0.099177115 0.23024711 0.26424783 0.2813498
0.231077 0.10800295 0.27205703 0.06354733 0.3595386 0.13882492 -0.30160853 -0.122084014
0.35525092 0.030263802 -0.10037719 -0.0076716235 -0.20991853 0.07101094 -0.21730833 0.06441052
0.022327477 0.36865842 0.03364278 0.2386123 -0.06073304 0.17063147 -0.048973616 0.26654357
-0.071801744 -0.17850913 -0.018381312 0.1556434 0.19615494 -0.018174449 0.053730786 -0.12323833
0.25035557 0.21095897 -0.15271105 -0.29421127 -0.12919588 0.13397469 0.05311776 0.30447808
0.34287128 0.3135553 -0.20961994 0.103873834 -0.14103153 0.017775513 -0.3090436 0.38199186
0.0016490043 0.25760153 -0.24414288 -0.061573844 -0.026197143 -0.08925665 -0.3129969 0.10375062
-0.14120206 -0.053233873 0.08796292 -0.2610885 -0.06604331 -0.17008433 0.2656172 0.3438688
-0.034734234 0.27658436 0.13739334 0.031799216 -0.16048007 -0.21665011 -0.03914194 -0.2152247
-0.04709623 -0.07262044 0.12074456 0.15396601 -0.2875634 0.06283827 -0.28457907 0.01980519
-0.21961884 0.07883298 0.22577661 0.19860953 -0.14498805 -0.06468902 0.15584919 0.30559707
0.06882682 0.26871106 -0.015463225 0.18832026 0.3943266 -0.14299986 0.2134859 0.2938706
-0.21211332 0.38682878 -0.07859951 -0.021457877 0.13384934 0.16640128 -0.2626048 0.043668848
-0.31452662 -0.1222654 0.07128228 0.19123055 -0.18719108 -0.06336922 0.32069057 0.31116125
-0.25072822 -0.22888827 0.16975088 0.17546093 -0.33093554 -0.016771758 0.28213406 0.060865976
-0.060772184 -0.15733747 -0.18919612 -0.22838587 0.28034627 0.1738279 -0.03705171 0.08779579
0.34899265 -0.07972905 0.08223447 0.0469255 0.09002348 -0.12826706 0.2027467 0.29718035
0.09658471 -0.1878866 0.23998863 0.08210419 0.16402614 0.10722981 -0.06709771 0.22526029
-0.26059562 -0.25308108 0.13695005 0.34045398 0.100782156 0.091333695 0.37387112 0.23252916
0.030343322 0.3444997 -0.28751343 -0.27713424 0.046412397 0.23804024 -0.100801066 -0.16358428

linear2.weight f4 [3, 256]
00000000: 6c53 2ebd 1749 81bd 79dc 983d 991c 9dbb
00000010: 6616 bd3c cc8a 6a3d 914f bbbd 997b 6cbd
00000020: 2209 73bc ef73 963b eaa2 d9bd b5aa 663d
00000030: c657 153c 7b54 35bc aa5c a5bc 2586 c53d
00000040: ead0 b43a 5f61 c6bd 9887 e1bb da29 b3ba
00000050: 5877 28bd c7b3 2c3d c03a 80bc 6f98 9a3c
00000060: b803 15bc a937 56bd f17b 863c 9570 cabd
00000070: e949 a4bc 650a 6e3c 818f cdbb eafa 10bb
00000080: 6696 62bc 3bb3 c1bd 67a8 48bd 05f8 76bd
00000090: bfaf aabd 1fde 96bd f52d 93ba 16e5 823b
000000a0: 6def 82bd 0fca e0bd d44d 85bc e634 033b
000000b0: dc47 06be 880d 093c 4fa5 0d3d 7078 a9bd
000000c0: 10f1 0fbc 704d a8bd 81e3 c7bd f1a5 343c
000000d0: 115e c0bd f3d1 af3b da81 283c 124a fbbd
000000e0: 40a2 84bd 0f65 24bc 3443 1cbd 0f37 1fbd
000000f0: 0db0 8cbd 21d9 89bd 24f1 bdbd 9604 77bd
00000100: bc1d 8b3a 7c4f 8abd fc0c 8c3c 035b 82bb
00000110: 2659 7d3c 8189 07bd b5b0 37bb 19eb 753b
00000120: 2bc4 8dbc 3729 87bc 158f ccbd d03b a6bb
00000130: 75e8 a83b c8b1 a4ba b0a0 16bc 9054 d8bd
00000140: 8912 353b 688c 63bd 1221 a2bd 6f06 0b3d
00000150: 062d 083e e752 a6bd 40d4 08bd 1a7b 72bd
00000160: 292d d4bd ce8a b5bc 3314 8bbd 05ca 73bc
00000170: a14d 33bb 78c9 843c ec7b a0bd e002 99bd
00000180: 5ec0 41bd 7740 7bbc d40f afbd 305a 983b
00000190: 9df3 cabd 92f8 f7bd 7f19 3a3d 1775 babc
000001a0: 2a29 cebd 2237 c9bd be64 6a3b f239 c9bc
000001b0: 0659 8abd cff2 64bd 5631 69bd 77c5 65bd
000001c0: ff58 b5bd cf40 a9bd 2e20 33bd 5df1 4ebd
000001d0: 859b 7e3d e078 cebd 7c30 c5bd 72f7 0bbd
000001e0: b5b9 debd e920 a0bd 9cde c8bd 90ec f7bd
000001f0: 99c1 dbbb 01bd b1bc ea84 dfbc d0fe 7dbd
00000200: d770 aebd d62c d4bd 2f36 febb c067 fcbb
00000210: 1f72 6dbd 78ec c9bc b7a8 58bd 4f94 7abd
00000220: c6cb c2bd fc51 d2bd 1136 c9bd 4b69 26bd
00000230: df38 18be 486f d0bd 34b7 89bb b786 9cbd
00000240: 0944 b5bd ad2c bbbd 12a2 293d 80ff 2bbd
00000250: 03cf cdbd dfb2 ffbc 3f59 9ebb 8632 39bd
00000260: e5d1 04bc be4c 243d f16a 9dbd 0a1a 19bd
00000270: 8faf b8bc 6ef5 c6bd ae49 4fbd cce0 f2bd
00000280: 6f77 13be 3d45 1bbd 377f 04be c960 c2ba
00000290: 03f5 5abd 3a8b 56bd d20d 8abd eb28 0ebb
000002a0: 722e 80bd a419 aebd 63e0 a2bd 2873 a33d
000002b0: 4076 62bd ff64 e8bc 1b45 8f3d b2cd 0cbd
000002c0: 2014 70bd eb77 733c 9859 c6bd 6e11 f2bd
000002d0: 8b7c 3fbc 33ad 3b3d e99e bdbd b115 cabd
000002e0: 00eb 8d3c f938 81bd 7b70 b43c 8d0d 04bd
000002f0: b10a 96bd 4905 79bd 3942 c3bd 11cf 94bd
00000300: 4054 ca3c a180 d5bd f409 e33c 6be5 57bd
00000310: 3d4b 13be aee4 c03b f37b 013d d461 c6bb
00000320: 643e b0bc 9608 5b3d b4f4 b0bc 0e2b dfbb
00000330: 36e3 07bd f5ba 8f3b 4a99 e3bd e66f 22bd
00000340: 3a6f 7bbd 7e66 293d 680d c8bd b567 febc
00000350: dd95 0f3d c538 33bd 1dfc 96bd 25ca 2f3c
00000360: d1e0 eabc 6cd1 01bd 6505 e3bd 67a4 80bd
00000370: c840 09be cb12 eabd 1921 1d3d deef adbd
00000380: 854f 84bd 607d 213d c067 3ebc 29a8 3fbb
00000390: 8529 babb 10ce bfbb 2b31 6d3d 98c4 f1bd
000003a0: 07e8 9cbd f8ae b3bd 2067 b9bd b064 72b9
000003b0: 327a 0fbd dc9f 29bd beea 4dbc b2d0 11be
000003c0: 8439 ba3d 48c6 61bd f00b e5bb 3427 c0bd
000003d0: eaf9 f33c 04f1 36bd 24e0 fbbc 1e1b a9bd
000003e0: 52e4 a93c 0c7e c2bd f4f7 82bc dc84 b73d
000003f0: 6867 c9bc 267d 773d aa0c 87bc 2533 b4bd
-0.042560026 -0.06312769 0.07463927 -0.004794669 0.02308197 0.057261273 -0.091460355 -0.05773506
-0.01483372 0.004591457 -0.106267765 0.056315143 0.009115165 -0.011067505 -0.020185787 0.09644727
0.0013795171 -0.09686541 -0.006882619 -0.0013669089 -0.04112944 0.042163637 -0.015653014 0.018871514
-0.009095125 -0.052299175 0.016416522 -0.098847546 -0.020054774 0.014528845 -0.0062732105 -0.0022122213
-0.013829803 -0.094580136 -0.048988726 -0.060295124 -0.08334302 -0.07366585 -0.0011228906 0.0039945943
-0.06393323 -0.109760396 -0.016272463 0.0020020544 -0.1311335 0.0083650425 0.03458148 -0.08274925
-0.008785501 -0.08217895 -0.0976019 0.011025892 -0.09392942 0.005365604 0.010284865 -0.12269987
-0.06476259 -0.01003386 -0.038150027 -0.038870867 -0.068695165 -0.06730867 -0.092745095 -0.060307108
0.001061372 -0.06753442 0.017096035 -0.0039781346 0.015463149 -0.03309012 -0.002802891 0.0037524162
-0.017305454 -0.016499145 -0.09988228 -0.005073048 0.005154664 -0.001256519 -0.009193584 -0.10563004
0.0027629456 -0.055553824 -0.07916464 0.033941682 0.13298425 -0.08121281 -0.033405542 -0.05919943
-0.10360176 -0.022160914 -0.06790962 -0.014879708 -0.0027359503 0.016209349 -0.07836136 -0.074712515
-0.047302596 -0.015335194 -0.08547941 0.004649423 -0.09909747 -0.12107958 0.04543447 -0.02276091
-0.10066445 -0.09824969 0.0035765613 -0.024563763 -0.06755261 -0.055895623 -0.056931816 -0.05609652
-0.08854865 -0.082643144 -0.04373186 -0.05052315 0.062160034 -0.10081649 -0.09628388 -0.03417153
-0.108752646 -0.07818777 -0.09808084 -0.121056676 -0.0067064282 -0.02169657 -0.027285058 -0.062010586
-0.08517616 -0.10360114 -0.007757924 -0.0077027977 -0.057970162 -0.02464889 -0.052895274 -0.061176594
-0.09511523 -0.102695435 -0.098247655 -0.04062776 -0.14865445 -0.10177475 -0.0042027477 -0.07642882
-0.08850867 -0.091393806 0.041414328 -0.04199171 -0.1004925 -0.031213222 -0.0048324163 -0.0452142
-0.008106683 0.04011225 -0.07686413 -0.03737835 -0.02254465 -0.09714781 -0.050607376 -0.11859283
-0.14401029 -0.037907828 -0.12939154 -0.001482987 -0.053456318 -0.05237887 -0.06740917 -0.002169187
-0.06258859 -0.08500984 -0.079529546 0.07980949 -0.055288553 -0.028368471 0.06995603 -0.034375854
-0.058612943 0.014860134 -0.096850574 -0.11819731 -0.011687408 0.045819473 -0.09258825 -0.098674186
0.01732397 -0.06309695 0.022026291 -0.032239486 -0.07326258 -0.060796056 -0.09534115 -0.07266057
0.024698377 -0.10424925 0.027714707 -0.052709024 -0.1438417 0.0058866357 0.031612348 -0.0060541425
-0.021514125 0.053474985 -0.021601059 -0.0068105524 -0.03317567 0.0043863007 -0.11113222 -0.039657496
-0.06138537 0.04135751 -0.09768182 -0.03105531 0.03505503 -0.04375531 -0.073723055 0.010729347
-0.028671654 -0.03169386 -0.11085013 -0.06281357 -0.13403618 -0.11429366 0.038361643 -0.08493017
-0.0646048 0.039426208 -0.011621416 -0.0029244518 -0.005681219 -0.005853422 0.05790822 -0.118050754
-0.07661443 -0.08773607 -0.09052873 -0.00023116427 -0.035028644 -0.04141222 -0.012568174 -0.14239767
0.090930015 -0.055120736 -0.0069899485 -0.093824774 0.029782254 -0.044663444 -0.030746527 -0.08257125
0.020738754 -0.09496698 -0.015987374 0.08960888 -0.02458544 0.060422085 -0.01648553 -0.087988175

linear2.bias f4 [3]
00000000: e8a5 3cbd 59cc f13a a947 debd
-0.046056658 0.0018447741 -0.10853512
