model/model.pth (torch, 17609 bytes, 4 tensors)

linear1.weight f4 [256, 11]
000000 18 cd 04 bd f3 eb 51 3c 1d c2 07 be e5 6f 01 bb
       -0.032422155 0.012812602 -0.13257642 -0.0019750532
000010 75 cd 92 bd 89 88 b2 bd 88 e2 9d be 5c 41 de 3e
       -0.07168094 -0.08717448 -0.30836892 0.4340924
000020 89 11 ce 3e 59 b9 66 3e 72 0f b0 3e c6 79 41 3d
       0.40247753 0.22531642 0.34386784 0.047235273
000030 e7 e8 4f be b1 de 26 be fa 94 2d bf 8c f2 98 3e
       -0.20303689 -0.16295888 -0.67805445 0.2987255
000040 20 c3 8d bd 2d 74 2e 3d e8 c0 fd be 07 03 e4 3e
       -0.06921983 0.042591263 -0.49561238 0.4453356
000050 86 b0 11 bf 3a 96 88 be 95 74 c5 3e ac e8 d3 be
       -0.5690998 -0.26677114 0.38565508 -0.41388452
000060 41 30 c0 3e d8 26 a0 3e 4b a8 65 3d 87 79 31 be
       0.37536815 0.31279635 0.0560687 -0.17331515
000070 60 eb 75 bd 13 58 07 be ef 5e 27 3e 2b 7e 28 3e
       -0.060038924 -0.13217191 0.16344808 0.1645438
000080 2c fb 97 3e 79 a1 d7 3c 2b 73 bf 3e 5a 6d 21 3e
       0.29683816 0.026322113 0.37392554 0.1576437
000090 5c f7 68 be 40 bb 64 be 4e ff 7c be 8e 8c c8 bc
       -0.2275061 -0.22337055 -0.24706766 -0.024481084
0000a0 1d ec 80 3e 76 a7 7b 3e bb 85 d9 3e eb 0c 4d bd
       0.2518014 0.245756 0.4248484 -0.050061148
0000b0 79 ab 48 bc 81 33 2a 3d eb 95 63 bd b8 29 b2 3e
       -0.0122479135 0.041553024 -0.055562895 0.34797454
0000c0 7f ab 84 be 70 9d 9d 3d d1 63 a3 be c6 3f 94 be
       -0.2591209 0.076960444 -0.3191209 -0.28954905
0000d0 a8 75 69 3e 4c 26 19 be 1c 5f a6 3e 54 16 a4 be
       0.22798789 -0.14956015 0.32494438 -0.32048285
0000e0 33 72 83 3e f0 19 bf 3e 81 51 1c be fa c1 a7 be
       0.25673065 0.37324476 -0.15265466 -0.3276518
0000f0 96 2f bf bb 4d e7 68 bc 5b c2 a4 bd 0c 68 a0 bd
       -0.00583453 -0.014215303 -0.08044883 -0.07832345
000100 73 fc ec bd e8 39 96 3e 8e 3f 89 be 1a db 80 be
       -0.11571588 0.29341054 -0.268063 -0.2516716
000110 3e b8 d1 bc 28 c6 88 be 9d 34 9a be 3e bf 24 3e
       -0.025600549 -0.2671368 -0.30118266 0.16088578
000120 56 b7 67 be 1d 24 00 3e 2b 56 84 bd b9 9e bc bd
       -0.22628531 0.12513776 -0.06461748 -0.092099614
000130 95 4b e2 3c cc 3d 9c be 89 f7 c2 bb b5 e8 43 be
       0.027623931 -0.30515897 -0.0059499186 -0.1913174
000140 8c 7a 7b be 18 3d e3 3d 0b 20 34 3e 4f d1 76 be
       -0.24558467 0.11095637 0.17590348 -0.24103282
000150 74 48 5b 3e ed c9 35 be 11 a4 35 be 93 01 94 be
       0.21414357 -0.1775281 -0.17738368 -0.2890745
000160 cb ce 53 be 9e 8f cd bc cf 79 74 be 6d d7 00 3f
       -0.20684354 -0.025092896 -0.23874591 0.50328714
000170 31 f0 60 be 86 2c ff bd 99 e1 59 3e fc 06 df be
       -0.21966626 -0.12459664 0.21277465 -0.43560016
000180 30 37 07 bf 1b 94 7a 3e 11 bd 83 be 59 35 98 3e
       -0.52818584 0.2447056 -0.25730184 0.297282
000190 34 8e 80 bd 5c 2a b7 3e 62 11 b3 be c6 19 12 be
       -0.06277123 0.35774505 -0.349742 -0.14267644
0001a0 67 40 97 be a6 d0 8b bb 0c c8 fe 3e 29 99 8b 3e
       -0.29541323 -0.004266816 0.49762 0.2726529
0001b0 cc 90 cb 3e 23 4e 4e 3c 59 b9 28 3e 51 b3 17 bf
       0.3975891 0.012591871 0.16476955 -0.5925799
0001c0 a2 7e 76 3e a1 f4 ff 3d b8 b6 1f be c0 e5 49 be
       0.24071744 0.12497831 -0.15597045 -0.19716549
0001d0 49 8d 5d be bb de e8 3d ba ee 7a 3e 34 bc 6b 3e
       -0.21635927 0.113706075 0.2450513 0.23021013
0001e0 15 9b 53 be 81 36 ef 3e e3 ec b5 be aa e4 ef b9
       -0.20664628 0.4672127 -0.35532293 -0.00045756
0001f0 98 d1 87 bc 99 98 b8 3e 13 a5 85 be bb 2f 0d be
       -0.016579434 0.36053923 -0.26102504 -0.13787739
000200 5a d8 8c 3d 4b 28 b2 be 1b 5e b6 3e b4 01 0e 3e
       0.06877203 -0.34796366 0.35618672 0.13867837
000210 95 31 4b 3d f4 f8 78 3e 35 d2 48 bd b2 12 d0 be
       0.049607832 0.24313718 -0.049028594 -0.40639263
000220 c9 e7 09 3d e0 ab 24 bc 31 10 35 3d 6c a8 84 3e
       0.033668313 -0.010050744 0.044204894 0.25909746
000230 e3 1c 07 be ca 92 cc 3e 28 69 1e be bf 28 c1 bd
       -0.13194613 0.3995574 -0.15469801 -0.094316
000240 6e 3e a9 3d d7 58 90 be 36 f8 54 be ad df a5 3d
       0.08263861 -0.2819278 -0.2079781 0.080993034
000250 76 11 dd 3d 6a 6d 29 be 47 67 75 3e d8 b9 35 be
       0.10794346 -0.16545644 0.23965178 -0.17746675
000260 2a 4d a5 bc 52 39 04 be 44 9c c2 3e 97 ba 94 bd
       -0.020178396 -0.12912491 0.38009846 -0.07262152
000270 8a 83 f9 bd ee 1e 20 be a5 fd 91 3d b0 c9 2b be
       -0.12183292 -0.15636799 0.07128457 -0.16776156
000280 b0 7f e0 be 4d a7 84 3e 3e 69 c9 3d c8 e7 9f 3e
       -0.43847418 0.2590889 0.098345265 0.31231523
000290 77 f5 c4 3e 32 c5 b9 bd d7 75 da 3c bb c6 0e be
       0.38468525 -0.09070815 0.026667519 -0.13942997
0002a0 76 a2 8e 3d fc 9a b6 3d 29 82 5c be 48 39 e2 bd
       0.06964581 0.0891628 -0.21534027 -0.11046082
0002b0 30 2a 0c bd b4 ae 80 bc 48 35 34 be 6e 44 64 be
       -0.03421992 -0.015708305 -0.1759845 -0.22291729
0002c0 fe 94 7d bb fc 2c a6 3e 71 38 e2 3d 11 d9 7c be
       -0.0038693543 0.32456195 0.110459216 -0.2469218
0002d0 1d 66 24 3e 28 8f 42 3e 67 03 ae be 0e d7 04 3f
       0.16054578 0.18999922 -0.3398697 0.5189065
0002e0 2c 20 1f bd 12 47 6a 3c bb 51 18 3f 3d b8 48 3e
       -0.03884904 0.014299171 0.5949971 0.19601531
0002f0 39 74 d6 be ad d6 72 3e eb 0c 67 be f6 a7 84 bd
       -0.41885546 0.23714705 -0.22563522 -0.064773485
000300 3e 7a c6 bd a9 86 45 be 5c c5 00 3e 6e 4d bd 3d
       -0.096912846 -0.1928965 0.12575287 0.09243284
000310 84 90 18 3e ca 6f 11 3e 79 0c 08 3e 7c 2e 03 be
       0.14898878 0.142028 0.13286008 -0.12810701
000320 fb 58 08 3f 72 c6 f2 3d 84 14 54 be 1f 1c c4 3e
       0.53260773 0.11854257 -0.20710951 0.38302705
000330 1c b1 d9 be 80 6d 0f bf 10 2b 45 bd 34 9f f9 3d
       -0.42517936 -0.5602646 -0.04813677 0.12188569
000340 3d 0b 58 be 43 68 32 be d1 8d 1a be 8b 7c ba 3d
       -0.21098037 -0.17422585 -0.15093161 0.09105786
000350 2d 75 29 be 52 2b 2d be dc 2d 6c be 56 62 ad bd
       -0.16548605 -0.16911057 -0.23064369 -0.08466022
000360 f0 8b 98 be ae 17 2e 3e 29 b0 b1 bd d1 2b 89 be
       -0.29794264 0.1700122 -0.08676178 -0.26791242
000370 7d f7 e0 3e 2f e1 c9 3e 53 97 10 bf e0 9b d0 bd
       0.4393882 0.39429614 -0.564809 -0.10185981
000380 53 55 c8 bc bd b4 ac bd 9d 14 15 3e 3d ec 7a 3e
       -0.024454748 -0.084329106 0.14558645 0.2450418
000390 f3 fe 58 3d 44 8a 70 3e e5 35 f7 bd d0 6c 1a be
       0.052977514 0.23490244 -0.120708264 -0.15080571
0003a0 3f 85 b6 3e ee 84 f7 3d 3b a8 c6 be 79 1e 3b 3d
       0.35648534 0.12085901 -0.38800225 0.045683358
0003b0 86 70 f2 bd 6d b7 21 3e e3 03 c7 3e 3d 86 e6 bd
       -0.118378684 0.15792628 0.38870153 -0.11256073
0003c0 8b b5 23 3e b8 81 2d be 3e 5c 18 be 33 d0 78 3d
       0.15987222 -0.16944015 -0.14878938 0.06074543
0003d0 a1 c9 74 be 98 07 dc bd 43 7f 0f 3e e3 ec 86 3d
       -0.2390504 -0.10743636 0.1401339 0.06588151
0003e0 d2 23 33 be 51 fe 0c 3b 05 f7 2e 3d b6 68 c3 bd
       -0.17494133 0.002151389 0.042716045 -0.095414564
0003f0 8b 8c 31 3c 23 4b 58 3e de 38 8c ba b8 8d 62 3d
       0.010836731 0.21122412 -0.00106981 0.055310935

linear1.bias f4 [256]
000000 3c ef 57 be 70 3a 22 3e 90 23 84 be 5a c9 87 be
       -0.21087354 0.15842605 -0.25808382 -0.26520807
000010 a5 fc bb bd a0 7c 1f 3d 63 e5 d2 be 7c 44 26 bd
       -0.091790475 0.03893721 -0.41190633 -0.040592656
000020 29 af 1e be 42 69 20 be 25 a6 3f be fb 7d c3 bd
       -0.15496506 -0.15665153 -0.18715723 -0.09545513
000030 b3 6e 6e be c4 8e 02 be b7 62 e1 bd 49 71 e4 bd
       -0.23284416 -0.12749773 -0.110051565 -0.1115442
000040 c1 f3 99 be 3c 63 f5 bc 84 bb d7 3d c0 e5 51 be
       -0.30068782 -0.029954545 0.10533813 -0.20497799
000050 b8 0a 83 be a2 24 fb bd 90 6f 85 be 03 0c b3 be
       -0.25594115 -0.122628465 -0.26061678 -0.34970102
000060 b7 fc 23 3e af 78 62 3c 12 b4 2c be f4 93 00 be
       0.16014372 0.0138227185 -0.16865566 -0.1255644
000070 ff d5 19 be 73 c8 3f be 6c 80 12 3e 6c 5f b7 3e
       -0.1502304 -0.18728809 0.14306802 0.3581499
000080 16 d7 34 be 9c d5 23 3d d4 2d 05 be 03 73 8c be
       -0.17660174 0.039998636 -0.13005763 -0.27431497
000090 de e1 39 be e0 5e 1a 3f c8 38 84 3e 05 70 49 3b
       -0.18152568 0.6030102 0.2582457 0.0030736935
0000a0 44 1c 31 3f 3e e9 56 be e3 9b f0 be 8c 5e 56 be
       0.69183755 -0.20987412 -0.46993932 -0.20934504
0000b0 89 88 81 3c 9b 26 bb 3d 97 f2 8a be ae 76 0c 3e
       0.015812175 0.09138223 -0.27138206 0.13717148
0000c0 ee 5c 1d bd 13 02 51 3e 6d 8f 98 be f4 3f 98 be
       -0.038418703 0.20410948 -0.29796925 -0.29736292
0000d0 f8 ef 70 be 05 5d a2 bd 72 74 80 bd 5a ae 24 3d
       -0.23529041 -0.07927898 -0.0627221 0.040205337
0000e0 57 c8 82 be 8d a4 28 3e 0e 1c 62 be aa 4a 27 bd
       -0.25543472 0.16469021 -0.22081015 -0.04084269
0000f0 0d be 9f bd 1f e6 1f 3f 03 f9 af be b6 24 fe bd
       -0.07799921 0.6246051 -0.34369668 -0.12409346
000100 58 09 e4 be 6f ab 52 be ec ca 48 be ca 39 f2 bd
       -0.4453838 -0.20573209 -0.19608659 -0.11827429
000110 93 f3 21 be 0c 4d 3f be 89 50 92 3d 32 fc 05 3d
       -0.15815572 -0.18681735 0.07144267 0.032711215
000120 f6 a7 50 bd 79 59 9a be 40 80 ea bd 8d 00 3f bb
       -0.05094143 -0.30146387 -0.11450243 -0.0029144615
000130 4a ad c5 bd 40 31 5b be e9 51 25 3f aa 97 51 be
       -0.09652193 -0.21405506 0.6457811 -0.20468011
000140 ca e4 84 bd f5 e7 f1 bd 9a 76 67 be e7 e5 c1 3e
       -0.064889506 -0.118118204 -0.22603837 0.37870714
000150 31 2d 48 bc c3 87 a4 bd f6 08 79 3e d2 e1 a6 bd
       -0.012217806 -0.08033707 0.24319825 -0.081485406
000160 e1 d8 dc bd 47 4f 51 be 7e 66 13 be 54 59 a4 3e
       -0.10783554 -0.20440398 -0.14394566 0.32099402
000170 6f 64 c5 be ae 04 f0 3e eb 01 dd bd eb 06 b3 3c
       -0.38553187 0.4687857 -0.107913814 0.021853885
000180 83 2a d4 3e f6 85 96 be c7 5e b2 3d 62 8f 13 be
       0.41438684 -0.2939908 0.087094836 -0.14410165
000190 c5 2d c9 bd 0b f4 4e bd 3b 79 4d 3e 31 5e fd bd
       -0.09823183 -0.050525706 0.20065777 -0.12371481
0001a0 cf 5f 4e be 4e 32 75 be a6 e8 15 be 4f 4f ab be
       -0.20153736 -0.23944971 -0.1463953 -0.33458945
0001b0 94 17 5b 3e 9e c8 16 3f f1 95 14 3d c9 47 13 be
       0.21395713 0.5889987 0.036275808 -0.14382853
0001c0 06 5c 92 bd 54 fe 57 be 37 01 ce bb 26 07 03 be
       -0.07146458 -0.21093112 -0.006286766 -0.12795696
0001d0 b2 d6 23 3e 40 25 88 be 74 75 09 3d 6a 29 59 be
       0.15999869 -0.2659092 0.033559278 -0.21207204
0001e0 fd 24 4b 3e d4 2d e9 3d a3 b8 6d bd c0 8a f1 bc
       0.19838329 0.11385694 -0.05803741 -0.029485106
0001f0 21 f2 90 3d c4 5b d9 be 89 d1 cf bd ab 0b 86 3d
       0.070774324 -0.42452824 -0.101473875 0.06545194
000200 4f 12 c3 bd 7b c2 0f 3f 6a 13 6f be 84 5d bb 3d
       -0.095249765 0.5615613 -0.2334725 0.09148696
000210 41 7b 65 bd a3 fd f6 3e 63 db 9e 3d ba f2 55 be
       -0.056025747 0.48240384 0.077566884 -0.20893374
000220 34 b5 69 be e7 a5 58 be 5b 5d a4 bd bf e9 a2 bd
       -0.2282303 -0.21157037 -0.08025619 -0.0795474
000230 b2 15 22 be 1b 8b 66 be c0 d2 f2 3e f7 3b 87 be
       -0.15828589 -0.22514002 0.47426414 -0.26412937
000240 da 99 f7 bc 74 c7 25 be 1e fb 31 bd 19 cc c5 bd
       -0.03022473 -0.16189367 -0.043452375 -0.09658069
000250 e3 44 4f bd 0a 82 16 be 92 d9 08 be 05 9b ed bd
       -0.050602805 -0.14698043 -0.13364246 -0.11601833
000260 bd c2 eb bd a3 79 6a 3d 3f 2a 94 be aa 61 94 bb
       -0.11511753 0.057244908 -0.2893848 -0.004528244
000270 1f ea 14 3e 1b 2d 01 be 5e ed 73 3e c9 8e 8b 3e
       0.14542435 -0.12614863 0.23821017 0.27257374
000280 81 33 27 be 3e 98 e1 bc cf a9 57 3e 3d 02 03 3e
       -0.16328241 -0.027538415 0.2106087 0.12793823
000290 e2 0a 2d 3c d7 3d 93 be 96 77 6e be 57 6e a2 be
       0.010561677 -0.28758118 -0.23287806 -0.31724808
0002a0 c1 48 8f be e4 02 b3 3e be ac 2a be 1f 34 a7 bd
       -0.27985194 0.34963143 -0.16667458 -0.08164238
0002b0 0e fa 60 3e 99 15 cf 3e 15 9f e8 be 36 4c 73 be
       0.21970388 0.40446165 -0.4543387 -0.23759541
0002c0 08 8a 68 bc cb 9f cf 3e 8e 90 25 bd 79 12 31 3e
       -0.014193065 0.405516 -0.04042106 0.17292203
0002d0 b6 ae 98 bd 6b c1 b4 be fc e0 79 be e0 d1 71 be
       -0.074551985 -0.35303816 -0.24402231 -0.23615217
0002e0 ac 0b 50 be 31 7b b1 bd fd 26 cc be 03 04 35 be
       -0.20316952 -0.08666075 -0.39873496 -0.17677312
0002f0 3f 97 8b 3e e9 94 51 be fa 31 6f be 73 04 8d 3d
       0.2726383 -0.20466961 -0.23358908 0.06885614
000300 8d ba 00 3e f7 b7 e4 3d 9e bc 8a bd 66 da b4 be
       0.12571163 0.11167901 -0.06774257 -0.35322875
000310 60 da cc be 6a 4e a7 be a4 5a df be dc b9 83 be
       -0.40010357 -0.32677013 -0.4362384 -0.25727737
000320 f8 ac 47 be 2e d2 80 be be d9 74 bd 34 5c e4 3d
       -0.19499576 -0.25160354 -0.059777968 0.11150399
000330 34 86 68 3d 45 16 2f bd 81 47 9d be ed d4 7d bd
       0.05676861 -0.042745847 -0.30718616 -0.06197064
000340 1b 15 56 3e 0b cd 96 3e ab 92 b8 be aa 60 4c be
       0.20906489 0.2945331 -0.360494 -0.1995875
000350 6b e6 42 be 41 78 3a 3d 72 a2 ab 3d e1 b5 7d be
       -0.1903321 0.04552484 0.08380593 -0.24776413
000360 4e fb df bd 0a 0b b0 bc 94 ff 86 be cb 66 4c be
       -0.109366044 -0.021489639 -0.26366866 -0.19961087
000370 62 b3 36 be f1 29 b5 3e 15 1e 87 3e 1f a9 ac be
       -0.17841867 0.3538356 0.26390138 -0.3372278
000380 d8 9d 5e be 65 9f 87 be 70 43 b8 3d 28 da 7d be
       -0.217399 -0.26488796 0.08997238 -0.24790251
000390 72 35 43 bd 4b 51 4a be ec 44 93 bd b2 e4 cb bd
       -0.04765839 -0.19757573 -0.0719088 -0.099557295
0003a0 d1 80 09 be ca ba f0 bc 86 b7 17 be a9 99 67 be
       -0.13428046 -0.029385943 -0.14816102 -0.2261721
0003b0 ad ff 84 bc 58 12 c3 bd 57 39 b9 3e 05 88 2e be
       -0.016235197 -0.09524983 0.3617656 -0.17044075
0003c0 e1 e4 b6 be 4d 56 c5 be 0b d1 dd bd ac 4e bc bd
       -0.35721496 -0.38542405 -0.108308874 -0.09194693
0003d0 64 1b 2b bd b8 a5 9d 3d 3d 60 8a bd 98 00 fb be
       -0.04177417 0.07697624 -0.06756637 -0.4902389
0003e0 08 02 80 be 30 2e 99 3e 33 a9 3a be c6 d0 e9 bc
       -0.2500155 0.2991805 -0.18228607 -0.028541934
0003f0 22 7f ac bd ed f0 a7 be 02 51 15 be c5 61 c1 3d
       -0.08422686 -0.32801 -0.14581683 0.09442476

linear2.weight f4 [3, 256]
000000 63 d0 de bd 7a 2e 8b 3e 8f ab 95 be 9a b5 02 be
       -0.1087959 0.27183896 -0.2923245 -0.12764588
000010 a8 73 0c bf e8 d1 c6 3c 69 e8 43 3d 57 b1 a6 be
       -0.5486398 0.024270013 0.047829065 -0.32557175
000020 49 99 2b be 9b 3c 7e be 5f f1 c7 3a 30 91 d0 be
       -0.16757692 -0.24827807 0.0015254429 -0.4073577
000030 51 44 88 bd 4a 57 12 be 50 30 a9 be 65 89 36 bd
       -0.06653655 -0.1429111 -0.33044672 -0.044564623
000040 92 51 c1 be ac ab 9a 39 8e 66 2d 3e 76 6b af bb
       -0.37757546 0.00029501074 0.16933653 -0.0053533865
000050 3f a8 e4 bd de 49 3a be 00 e9 ae 3b 48 eb dc bb
       -0.11164903 -0.1819224 0.0053378344 -0.006741915
000060 d5 d6 7b 3e 70 93 04 3e 6c 11 58 be 49 2e 4a bf
       0.2459367 0.12946868 -0.21100396 -0.78976876
000070 a3 c6 ae be e0 6e 6a be 54 1f 7f 3e 73 a5 35 3e
       -0.34135923 -0.22893858 0.24914294 0.17738895
000080 c4 e2 32 be d8 d1 5d 3d 7c 1c 37 be 1d 06 ae be
       -0.17469317 0.0541552 -0.1788196 -0.3398904
000090 37 2a b3 3e 3f d5 54 3e 73 30 ae 3e df 1f 1e 3f
       0.34993145 0.20784472 0.3402134 0.6176738
0000a0 82 29 1a 3e b7 74 c5 bc 6d 8d 4c be 66 03 4e bd
       0.15054896 -0.024103506 -0.19975825 -0.05029621
0000b0 de 4b 20 bd 04 b0 59 bf 38 76 14 be c3 8d 29 3e
       -0.039134853 -0.85034204 -0.14498222 0.16557984
0000c0 ac 64 c6 be e2 c0 6e 3e 19 3b ba bd 0e 88 5a be
       -0.38748682 0.23315766 -0.09093303 -0.21340963
0000d0 93 c8 ad be 73 ee 2f 3e 52 95 8d be 09 fe a4 be
       -0.33942088 0.17180805 -0.27652985 -0.32225063
0000e0 a0 80 dc bd e6 af 7e 3e b2 7a 53 be 0b c7 d0 bc
       -0.10766721 0.24871787 -0.20652273 -0.025485536
0000f0 3e d1 75 3e 53 61 be 3e 4c a4 ae be dd d1 e1 be
       0.24005601 0.37183627 -0.34109724 -0.44105425
000100 30 fe de bd b3 53 5d be b7 84 05 3c ec 4f 2f be
       -0.10888326 -0.2161396 0.0081493175 -0.17120332
000110 e6 bb 9b be 0a d0 9a bc 7a fb 64 be 9e cd 04 bf
       -0.30416793 -0.018898029 -0.22361556 -0.51876247
000120 cd 60 3f 3e 9a 28 23 bf f3 3c 74 be ac 9e 32 bf
       0.1868927 -0.6373383 -0.23851375 -0.69773364
000130 4c b9 b9 be b4 88 ff bb 38 22 88 3e 1e 5b 48 be
       -0.36274183 -0.0077982787 0.26588607 -0.19566008
000140 5a fc 49 be ff 97 f3 bc 80 b8 47 3d 4d 09 92 3e
       -0.1972517 -0.029735563 0.048759937 0.2852272
000150 c8 d9 17 bc fa da 32 3b 33 18 ec 3e a9 92 15 bf
       -0.009268232 0.0027291165 0.46112213 -0.5842691
000160 8f cc 8b bd fa 14 3e be d8 c8 4b 3d 9d 32 5f 3e
       -0.06826126 -0.1856269 0.049752086 0.21796651
000170 8a 3a 67 bd 80 29 d4 3e 35 99 91 be c1 1c a8 bc
       -0.05645231 0.41437912 -0.284372 -0.020521523
000180 3f 9d ab 3e bb d7 b2 be 0d a0 90 be f6 a9 2b bb
       0.33518407 -0.34930214 -0.2824711 -0.0026193834
000190 2f 66 b8 be a9 33 54 3e 13 e2 14 3e 25 a8 1d bd
       -0.3601546 0.20722832 0.14539365 -0.038490433
0001a0 77 ff a5 bb f9 4b 95 be 84 e8 cf 3c 9e 31 96 be
       -0.005065854 -0.29159525 0.025379427 -0.2933473
0001b0 ea 45 4e 3e 34 9c 70 3e 98 b8 40 3d 2b c8 5a 3e
       0.20143858 0.23497087 0.047051042 0.2136542
0001c0 53 84 90 3c 2c 31 4e be a3 05 87 3e 04 52 34 3e
       0.017641222 -0.20135945 0.26371488 0.17609411
0001d0 6d 8d c7 3c 16 e8 94 be 0c f1 0f 3d bf 60 0c 3e
       0.02435943 -0.29083318 0.03514199 0.1370878
0001e0 26 5e e6 3d 49 90 1b 3e f0 36 e1 3e 53 f0 0d 3e
       0.11248426 0.15191759 0.43987226 0.13861208
0001f0 66 48 2b 3e 8f c3 d9 bd 86 bf 8f 3e 03 68 ca 3e
       0.16726837 -0.10633003 0.28075808 0.3953248
000200 1e 97 ff 3c 19 c7 5b 3e 67 e1 e5 3d 34 60 f6 3e
       0.031199988 0.21462668 0.11224633 0.48120272
000210 ce a4 c5 be 2c cf b7 3e 1e 0f 0a 3f 87 67 20 be
       -0.38602298 0.35900247 0.53929317 -0.15664493
000220 23 e3 4c bd 42 75 a2 bd d4 a8 ef 3e 3c 73 bf 3e
       -0.050021302 -0.079325214 0.46808493 0.37392604
000230 bb b3 85 bd d0 55 c9 3e 6f b6 a6 3e fd 4f 00 be
       -0.065284215 0.39323282 0.3256106 -0.12530513
000240 a9 db 9a 3d 7e 13 c0 3d b8 af a5 be 77 d8 8c be
       0.07561428 0.09378718 -0.32360625 -0.275089
000250 ff 2b df bc 57 43 df 3b bf 3a dd be 2b 95 1a bf
       -0.027242659 0.0068134475 -0.43208882 -0.6038386
000260 56 b4 43 3d 8e 73 24 3f 6b ba 65 be 1c bc 7e bd
       0.047779404 0.6423882 -0.22434394 -0.062191114
000270 48 0d a1 3e 51 e2 d6 3c 93 fb 20 3d fe 9d 48 3e
       0.31455445 0.026230963 0.03930242 0.19591519
000280 06 a0 12 bf b7 20 43 bc f9 d2 60 3e 07 64 8a bd
       -0.57275426 -0.011909655 0.2195548 -0.0675736
000290 ed d7 2e 3e 3f 30 36 be a7 87 dc be 51 41 49 bd
       0.17074557 -0.17791842 -0.43072245 -0.049134556
0002a0 bf cd 28 3e 49 87 d4 3e 7a 61 ee bb c8 e9 ef be
       0.16484736 0.41509464 -0.0072748037 -0.46858048
0002b0 3f 08 a2 3e 59 a2 96 3e e4 b6 27 3e 67 93 af be
       0.31646916 0.29420736 0.16378361 -0.34292147
0002c0 16 54 01 bd cb e8 df 3d 4c 23 4f bd 11 cc 44 3d
       -0.03157433 0.109330736 -0.05057077 0.048046175
0002d0 b2 7f b8 3d ae 63 5f 3d 64 7c 3f be 30 89 a5 be
       0.09008731 0.05453842 -0.18699795 -0.32331228
0002e0 39 51 a8 bc 82 a9 c5 be bd aa 44 bb 69 ab fe bd
       -0.020546542 -0.38605887 -0.0030008995 -0.12435038
0002f0 81 e3 3f 3e 83 65 18 ba 08 16 85 be 86 f4 fe 3e
       0.1873913 -0.0005813466 -0.2599337 0.49795932
000300 fb ed 94 3d 9c cd 29 3e b9 64 63 3d 14 25 28 be
       0.07271954 0.1658234 0.05551598 -0.16420394
000310 83 11 5f be ea c2 6a 3c 2d 6b e8 bd 2f f6 bd be
       -0.21784024 0.014328698 -0.11348567 -0.37101886
000320 9a 23 bf bc b8 ee 66 be a0 a1 25 3e 3c fe 1a 3f
       -0.023332406 -0.22552001 0.16174936 0.6054418
000330 2d 18 ab be 0c 7b c6 3c a6 87 2b 3c 9a 8a a9 3e
       -0.33416882 0.024228595 0.010469353 0.33113557
000340 40 51 29 bf 91 a9 ce 3e d7 a7 2d be 1e 81 ef bd
       -0.661396 0.40363744 -0.16958557 -0.11694549
000350 01 a8 66 bd 5b f1 a5 3c dc b5 a1 3d e3 7a 98 bd
       -0.056312565 0.020256689 0.07896015 -0.07445314
000360 77 b4 3e bc ef d9 95 be 36 39 47 bd 0a 62 1d be
       -0.011639706 -0.29267833 -0.048638545 -0.1536943
000370 bf a3 ab bd 77 5a 4c 3e c6 16 b5 3e 2a aa fd bc
       -0.083808415 0.19956385 0.35368937 -0.03096493
000380 0b dc 6b be 62 e4 24 3c 65 20 47 3e c1 d7 c3 bd
       -0.23033158 0.010064216 0.19445951 -0.09562636
000390 b3 bc 5a bd 57 96 2d bd 24 87 58 3e bd 1c 05 bc
       -0.053402614 -0.042379703 0.21145302 -0.0081245275
0003a0 22 b8 07 be 6b 57 3a 3e 12 bc 11 3d b7 4d 71 3e
       -0.13253835 0.1819741 0.03557975 0.23564802
0003b0 ac b9 9d 3d 8c d7 51 be 78 17 d7 3e 57 72 c5 bc
       0.0770143 -0.20492381 0.42010093 -0.024102373
0003c0 45 0e a5 bd 92 f4 3a be 1b 08 5b bd 4d 86 22 3e
       -0.08059362 -0.18257359 -0.053474527 0.15871544
0003d0 9b a3 d9 be cf 0d c5 3e 4a 73 ae be 63 3d 8e be
       -0.42507634 0.38487098 -0.34072334 -0.2778121
0003e0 73 0f db be dc 6e 74 3e a3 0a c6 bd 88 91 5c bc
       -0.42785224 0.23870414 -0.096699975 -0.013462432
0003f0 e2 53 9a be 49 84 b3 be d0 be e5 3b 37 35 71 3e
       -0.30142123 -0.35061863 0.007011272 0.23555456

linear2.bias f4 [3]
000000 61 db 3b 3e 78 a0 4c 3e 12 b4 0d 3e
       0.18345405 0.19983089 0.13838223
