Snake/model/model.pth (torch, 17609 bytes, 4 tensors)

linear1.weight f4 [256, 11]
000000 1e f5 8d be 74 92 09 3e bc 82 7d be 46 3f 92 3d
       -0.27726072 0.13434774 -0.24756902 0.07140975
000010 bd 6d 8c 3e ce 71 c9 3d 73 03 4e 3e 2e d0 42 be
       0.27427474 0.0983616 0.20118503 -0.19024727
000020 ef 69 3d be cf db 88 be ff 35 a2 3d 91 f1 9e 3d
       -0.18497442 -0.267302 0.07920455 0.07760919
000030 60 83 82 bb 54 40 3e 3e 9a 40 93 be d4 6b 3f 3e
       -0.0039829463 0.18579227 -0.28760225 0.18693477
000040 0c 77 b3 3d e1 af a8 bb 29 54 79 3e 83 67 36 3d
       0.08762941 -0.0051479195 0.24348511 0.04453231
000050 2c 29 86 bd f7 a9 e3 3d 5d 1a 38 3e 31 32 3e be
       -0.06550822 0.111164026 0.17978807 -0.18573834
000060 31 df 68 3e 66 b4 8c be 3e 8a 90 3d 8a 42 7d 3d
       0.22741391 -0.27481383 0.070576176 0.061831035
000070 6f 6e 85 be a8 c7 10 be 75 24 fc 3c 5e 94 58 be
       -0.26060817 -0.14138663 0.030779103 -0.21150348
000080 d5 e3 57 3e d7 7e 46 be bd ea d7 3d 44 d7 93 3e
       0.21083005 -0.19384323 0.1054282 0.28875172
000090 6f e7 92 3c 31 92 0f 3e 85 b8 45 bb f6 2a 9a be
       0.017932622 0.14020611 -0.0030169797 -0.30110902
0000a0 66 e6 e4 bd b5 fd 1f be 81 fe 6e be 49 c2 67 be
       -0.111767575 -0.15624125 -0.23339273 -0.22632708
0000b0 60 26 86 be 1b 27 39 be 90 e9 2b 3d 8c f6 ef bd
       -0.26201153 -0.18081324 0.04197079 -0.11716947
0000c0 4b c2 0c be 44 47 4f 3d ce e0 1c 3e f8 50 6e be
       -0.13745992 0.050605074 0.15320131 -0.23273075
0000d0 f6 d6 94 3d 34 ad 2d 3b b6 ea d1 3c 6a e1 93 bd
       0.07267563 0.0026500942 0.025624614 -0.07220729
0000e0 d4 1d 93 3e 15 5b 52 be b7 b7 83 3e aa 3f 4b 3e
       0.28733695 -0.20542558 0.257261 0.19848505
0000f0 79 6d 96 be b8 9a 1d 3e d9 b9 0f 3e a3 6a 36 3e
       -0.29380396 0.15391052 0.14035739 0.17814116
000100 10 4a 08 3e 16 f9 6a be 6e 78 03 bd 04 75 99 3e
       0.13309503 -0.22946581 -0.032097273 0.29972088
000110 0c 42 93 3e 10 d4 09 3d 9e 29 ce bd 28 c1 91 be
       0.28761327 0.033649504 -0.100665316 -0.2846768
000120 a1 89 06 3e 21 a5 1d 3e 42 72 7e be 9e a3 50 3c
       0.13138439 0.15395023 -0.24848273 0.012734322
000130 4e a7 73 bd 47 e5 6e be 04 6c 5b bd 0a 78 02 bd
       -0.059485726 -0.2332965 -0.05356981 -0.03185276
000140 4e fa 58 3d 60 15 91 be 57 d5 29 bd d0 f7 85 bc
       0.052973084 -0.2833662 -0.041463222 -0.016353518
000150 c0 9e 85 3e ce 2d 95 be 5c 96 7e bd 0a dd 57 bd
       0.2609768 -0.2913651 -0.062155113 -0.052701034
000160 6a c1 9d be 7b 27 a2 3d a5 0a 5e 3c 88 07 11 be
       -0.30811626 0.079176866 0.013552343 -0.14163029
000170 bc be 45 3d a3 c4 29 3e 36 e7 f1 3d be e2 4b 3e
       0.0482776 0.16578917 0.11811678 0.19910714
000180 8d 77 72 3e 34 88 0b 3d 9e 79 95 be 40 36 df bd
       0.23678418 0.03406544 -0.2919435 -0.10899019
000190 5f 51 83 3e ac 07 92 3e fc e1 5e bd 60 d5 d3 3d
       0.2564802 0.28521478 -0.054414734 0.103434324
0001a0 df 7b 0f bc 06 0a 92 3e a3 0c 79 3e 23 a1 d1 3d
       -0.0087575605 0.28523272 0.24321227 0.102358125
0001b0 34 4a 13 be 7b 98 3f 3e ea 2f d9 bd ac 68 77 be
       -0.14383775 0.1871051 -0.10604842 -0.24161023
0001c0 1b 6c 78 3e 34 9c 6c 3e 67 5e fb 3d 2a 55 40 bd
       0.24259989 0.23106462 0.12273865 -0.04695622
0001d0 0b cf 62 3e 6f 92 5f 3e 36 04 28 bc 54 57 69 be
       0.22149293 0.21833204 -0.01025491 -0.2278722
0001e0 65 34 6f be 55 f9 47 3e a1 2b 91 3c 8b cb 4f 3c
       -0.2335983 0.19528706 0.017721 0.012682806
0001f0 8d 3d 0e 3b 0d 17 3b 3d 8b fd 1b 3e ce 75 0c be
       0.0021704168 0.04567628 0.15233438 -0.13716814
000200 11 3f bf 3d a1 22 38 be 60 e8 a1 3d 49 08 2d 3e
       0.09338201 -0.1798196 0.0790565 0.16897692
000210 34 a4 97 3e 45 d4 73 3e e0 bd 8e 3e 98 14 59 3d
       0.29617465 0.23811443 0.27879238 0.052998155
000220 fd fa aa 3a 68 e0 8d 3e a3 54 7c bd 9d 64 84 be
       0.0013044771 0.2771027 -0.061604153 -0.25858012
000230 df 36 69 be 94 b8 3e 3e 46 c0 8c 3e 6b 1c 69 3e
       -0.22774838 0.18625098 0.27490443 0.22764747
000240 a4 ec 1b 3e db 2a f4 bd a8 6c 24 be 23 a2 96 3e
       0.1522699 -0.119222365 -0.16057074 0.29420575
000250 8e 51 39 bd 0b 33 86 be a3 5e a3 3e cd 4d 3b be
       -0.045243792 -0.26210818 0.3190814 -0.18291397
000260 01 77 91 be 23 b8 80 3e df ca f6 bd cc 6b 1f 3e
       -0.28411105 0.25140485 -0.12050413 0.15568465
000270 11 52 3d be 1d df 87 be c2 f0 ee bc 5a 36 a0 3d
       -0.18488337 -0.2653741 -0.029167537 0.07822867
000280 b5 8c 1e 3e ab b3 84 be 46 b8 90 3d 44 4a cf bd
       0.15483363 -0.25918326 0.07066397 -0.10121587
000290 0a f3 17 3e fe 5e 9c 3e 9c 86 9c 3d a1 c8 eb 3d
       0.14838806 0.30541223 0.07642862 0.11512876
0002a0 fe fe 31 be 76 fe bc bd 7f c0 2b be ad 5f 45 3e
       -0.17382428 -0.09228222 -0.1677265 0.19274779
0002b0 24 d8 2d 3e fd 4f 36 3e 38 e4 17 be d1 4b 51 3d
       0.16976982 0.1780395 -0.14833152 0.051097695
0002c0 23 44 c7 bc d8 86 c6 3d 27 86 48 bd 54 ff 82 be
       -0.024324482 0.09693688 -0.048956063 -0.25585425
0002d0 fa 1c e2 3c a4 d3 1f 3e cf 83 99 3e 73 ce fe bd
       0.027601708 0.15608078 0.29983374 -0.12441721
0002e0 a2 1d 08 3d 9b a4 00 be c4 82 9c bd 20 f7 fd 3c
       0.033231385 -0.12562792 -0.07642129 0.031001627
0002f0 9d 77 30 3e db 78 c8 bd 61 8e 18 be 65 77 74 3d
       0.17233129 -0.09788676 -0.14898063 0.059684176
000300 6d 41 2c 3e cc dd 9f bc 44 5a 74 3c 3e ba a8 3e
       0.16821833 -0.01951494 0.014914099 0.32954592
000310 e8 57 62 be ba 15 59 be f2 37 30 be fd 71 e4 bd
       -0.22103846 -0.21199694 -0.17208841 -0.11154554
000320 98 fc 2c 3e 8f b7 a0 bb 01 23 8f 3e fa 2f 11 3e
       0.16893232 -0.0049046944 0.27956393 0.14178458
000330 24 99 e7 bd 9c 80 f3 bd a7 31 ba 3d 3f e5 50 be
       -0.11308506 -0.11889765 0.09091502 -0.2039995
000340 34 1e 91 be bd 2c 48 be 19 ac 2a be 7b a7 43 be
       -0.28343356 -0.19548316 -0.16667213 -0.19106857
000350 1b fc 1a be f7 4f 81 3e f6 d5 85 be b5 a4 75 3e
       -0.15135233 0.2525632 -0.26139802 0.23988612
000360 f0 99 7f 3e 14 a4 1e 3e e7 8c 43 be 7e 4e 99 bd
       0.24961066 0.15492278 -0.19096719 -0.07485674
000370 6c 73 96 be a5 5d 67 3c 9b de b4 3d d5 8f 10 be
       -0.29384935 0.014121448 0.08831521 -0.14117368
000380 78 05 80 be c4 88 7d be e8 c6 e0 bd 76 50 51 3e
       -0.25004172 -0.24759203 -0.10975438 0.2044085
000390 b3 1f 40 be a1 3c fc 3d 79 97 90 3d 9c 7f 2f 3e
       -0.18762092 0.123162515 0.07060141 0.17138523
0003a0 a0 f1 8d 3e f0 6e 58 3e 2e ce 93 be aa d4 c5 bc
       0.27723408 0.2113607 -0.2886824 -0.024149258
0003b0 92 7c a7 3d e6 9c 83 3e 91 a7 b7 3d 7b 0b 86 3e
       0.08178057 0.25705642 0.08967508 0.26180634
0003c0 0f ca 0b 3d 71 0b 91 be cc c4 60 be 14 9a 8d be
       0.034128245 -0.28329042 -0.21950072 -0.27656615
0003d0 a9 7e 22 bc 5c 0f 3a 3e 57 6f 1d 3e e8 50 5c 3d
       -0.009917893 0.18169922 0.15374504 0.053788096
0003e0 29 b9 80 3e 8b 4f 91 3e 22 db 4d be 5e 0e 90 3e
       0.25141266 0.28381 -0.20103124 0.2813596
0003f0 89 ba 13 3e a3 8a 96 be 2e b6 7f 3e 91 2c 25 3e
       0.14426626 -0.29402646 0.2497184 0.16130282

linear1.bias f4 [256]
000000 1a cf 35 be c1 24 2c be d6 f4 ab 3d e5 75 59 3d
       -0.17754784 -0.16810896 0.08396308 0.05309095
000010 b9 97 0d 3e fc bd 25 be cd f5 8d be 24 fe 98 bb
       0.13827409 -0.16185755 -0.27726594 -0.004668968
000020 37 da 8a 3d d3 83 45 3e 85 5b 92 3d 34 ff 99 bd
       0.067799024 0.19288568 0.07146362 -0.07519379
000030 4a 5c 8f 3d ac d0 61 bd fd c7 ec 3c d4 0f 89 bd
       0.070000246 -0.055130646 0.028903956 -0.06692472
000040 50 f6 e6 bd 0a a9 50 3e 04 f6 c6 3d 09 34 da 3d
       -0.11277449 0.20376983 0.097148925 0.10654456
000050 6d 80 99 be bf f2 6d bd 26 ff a8 3d f1 31 8a 3e
       -0.29980794 -0.05809283 0.08251791 0.26991227
000060 37 a9 d8 3d b6 51 a1 be d7 1c 42 ba 02 10 86 be
       0.1057915 -0.31507653 -0.000740481 -0.26184088
000070 f6 7e b1 3d b8 13 72 bd 19 dc 0a be 82 13 19 be
       0.08666794 -0.059100837 -0.13560523 -0.14948848
000080 a4 5f 07 be 21 17 22 3d 48 c4 31 3d 93 8e 3c 3d
       -0.13220078 0.03957284 0.04340008 0.046034407
000090 8b 4a 83 be 0c d1 86 be 22 3b 98 3e 30 85 8c bc
       -0.2564281 -0.26331365 0.29732615 -0.017153352
0000a0 6c 5d 52 3e f4 93 83 38 65 4c 8e bd 8f 03 d8 bd
       0.2054345 6.274125e-05 -0.06948165 -0.10547554
0000b0 0d d5 8a 3e 9c 4f d6 3d a0 f6 2f bd e3 61 16 be
       0.2711567 0.10464403 -0.04295981 -0.14685778
0000c0 b0 31 31 be dd 3c 0d be 46 53 9d 3e d8 3c 19 be
       -0.1730411 -0.13792749 0.30727595 -0.14964616
0000d0 50 5d 8b 3d 84 6b 1d bd a0 07 d0 3c 90 b6 00 be
       0.06804907 -0.038432613 0.02539426 -0.12569642
0000e0 08 66 17 3e 00 8c 80 be a0 aa 18 bd d0 0c 6f 3e
       0.14785016 -0.25106812 -0.037272096 0.23344731
0000f0 20 93 74 3e 38 37 52 3e 23 1f 60 3e 13 95 96 3e
       0.23884249 0.20528877 0.21886878 0.2941061
000100 23 c5 90 bd 3b c5 f2 bd 2f df 12 3e f0 85 07 3e
       -0.07068851 -0.11854025 0.1434295 0.13234687
000110 c7 21 a5 3e 36 86 43 be a2 bd 97 3c ec f7 1f be
       0.32252333 -0.19094166 0.018523041 -0.15621918
000120 06 8a 84 be 75 ce a6 3d c1 b5 32 bd 53 f8 16 3d
       -0.25886554 0.08144847 -0.043630365 0.036857914
000130 12 e2 9a 3d 4e dc 2b be 6d 5f 04 3e f0 26 9d be
       0.07562651 -0.16783258 0.12927027 -0.3069377
000140 03 36 23 3e 29 5b 44 bd 06 63 79 3d ba 8b fe 3d
       0.15938573 -0.0479385 0.06088545 0.124289945
000150 16 f9 82 be db d9 91 3e 3c 17 05 bd 2b e0 83 3e
       -0.25580662 0.28486523 -0.03249286 0.25756964
000160 d2 5c 14 be 5d e2 09 bd 63 4d 8f be c4 dc 06 be
       -0.14488533 -0.033663142 -0.2798873 -0.13170153
000170 c6 0a 01 bd f7 7e 75 3e 05 08 a7 bd 57 7e 74 be
       -0.031504415 0.23974214 -0.081558265 -0.2387632
000180 c4 a4 9b 3e 3a ac 96 be c7 5d 6f 3e 0c e1 8d be
       0.30399144 -0.29428273 0.23375617 -0.2771076
000190 3a 37 6e bd 6c 04 61 bd a3 19 29 bc 5a 1c 9a 3e
       -0.058158137 -0.054935858 -0.010321054 0.30099756
0001a0 b6 6a 23 3e ae 1e 84 3e 5a 46 6a 3e f7 05 97 3d
       0.15958676 0.25804657 0.228784 0.073741846
0001b0 0b 8e fe bd 80 4e 82 3d e7 4f 8e be 64 4b 5c 3d
       -0.12429436 0.06362629 -0.27795336 0.053782836
0001c0 a4 7d a0 3e b7 bf 26 3e 6c 31 9e bc 9a d1 29 bc
       0.31345856 0.16284071 -0.019310676 -0.010364914
0001d0 aa 48 55 bd 64 bd 55 3e 48 c0 97 3e af 10 01 be
       -0.05207125 0.20873028 0.29638886 -0.1260402
0001e0 5d 06 33 bd b7 02 7a be 75 23 79 bd 76 9b a7 3e
       -0.04370724 -0.24415098 -0.06082483 0.32735795
0001f0 67 58 31 3e 3e d8 14 3e b9 d6 24 3e 8e e9 a6 3d
       0.17318879 0.14535615 0.16097535 0.08150016
000200 35 d1 91 bd cb 17 9e 3e 38 0c 1d 3e 8e b9 2d 3d
       -0.07119981 0.30877528 0.15336692 0.042413287
000210 54 48 ae 3d 76 86 1b 3e 8f 70 e9 bd b2 b2 62 be
       0.08509889 0.15188012 -0.11398422 -0.2213848
000220 22 35 96 bd 38 56 1d 3d 12 28 57 3e 3e 8b a2 3a
       -0.07334353 0.038412303 0.2101138 0.0012401117
000230 48 4e 20 3e 0d 81 3a be 26 0d 45 3e ad 6e 6f be
       0.15654862 -0.18213291 0.19243297 -0.23382063
000240 5f 39 11 bd 92 6d 95 3e 84 71 39 3e 50 5f 0f 3e
       -0.035455104 0.29185158 0.18109709 0.14001203
000250 03 b5 8d bd ae 94 11 bc 30 dc 16 3d 7e 18 ab 3d
       -0.06919291 -0.008885546 0.03683108 0.08354281
000260 ee f7 0e 3e f8 13 9d bd 81 14 3c be 11 d0 89 be
       0.13961765 -0.07669824 -0.18367197 -0.26916555
000270 37 e9 91 3d 40 cf cc bd 1b 34 74 3e 4a d7 57 be
       0.0712456 -0.10000467 0.23848002 -0.2107822
000280 27 4e 9d be 2d 6d 70 3d f3 88 8f be 57 91 1e 3e
       -0.30723688 0.05869787 -0.2803417 0.1548513
000290 d0 ae 02 3d 76 d2 97 3e 26 1c db bd 38 a5 18 3d
       0.031904995 0.29652756 -0.10698728 0.03726694
0002a0 d8 32 39 be ba 83 a6 3e e2 dc 90 3e 51 cd 11 be
       -0.18085802 0.32522374 0.2829352 -0.14238478
0002b0 49 2b 7c be f0 0f e7 bd cb 58 d7 bd fb 76 3e 3c
       -0.24625887 -0.11282337 -0.10514983 0.011625047
0002c0 df 23 3d be 12 fa 8f bc bc a3 e2 bd 42 23 9f bd
       -0.18470715 -0.017575298 -0.11066386 -0.07770397
0002d0 e1 42 bf 3c df 4f 9a be f5 64 e8 bd 68 b8 44 3e
       0.02334732 -0.30139062 -0.11347381 0.1921097
0002e0 87 9d 50 3e 15 74 85 3c cc 3b ab 3e 2a d8 c2 3d
       0.20372592 0.016290704 0.3344406 0.09513886
0002f0 86 a0 da bd c9 a8 2e be e3 61 40 3e 4f fe 0c 3e
       -0.10675149 -0.17056574 0.18787341 0.13768886
000300 93 82 95 be 6d 5a 33 be a8 61 22 3e 80 7f b1 3b
       -0.29201183 -0.17514963 0.15857565 0.0054168105
000310 73 09 55 be 6f d9 90 bd 12 fa ca 3d 63 d5 1d be
       -0.20804386 -0.07072722 0.099109784 -0.15413432
000320 7f a2 e3 bd 5c c0 17 be 49 1b e6 3d 05 fe 87 be
       -0.11114978 -0.14819473 0.11235673 -0.2656099
000330 83 b7 5e be 6a 4d 4b be f4 9a 13 be 9d ff f8 3d
       -0.21749692 -0.1985375 -0.14414579 0.12158129
000340 78 8b 1c 3e 73 3c d1 bd f5 1d 08 be e7 c0 e2 3c
       0.15287578 -0.10216608 -0.13292678 0.027679874
000350 dd 87 94 bd db 74 af 3d 12 01 6b be b3 b6 05 be
       -0.07252476 0.0856721 -0.22949627 -0.13057975
000360 8a 48 36 be f9 75 0e be aa 69 55 3e 9c e3 45 3c
       -0.17801109 -0.1391219 0.20841089 0.012078192
000370 23 74 87 be 98 0c 5a 3e 55 67 6f 3d d1 68 6b bc
       -0.26455793 0.21293867 0.058448154 -0.014368252
000380 7b f8 b5 3d 8c 66 81 be a4 cd 15 be 93 44 08 be
       0.088852845 -0.2527355 -0.14629227 -0.13307409
000390 5e 2e 39 bd 1e cf 3e bd 12 c5 34 bd d0 26 52 3e
       -0.045210235 -0.04658424 -0.044133253 0.20522618
0003a0 5f 29 91 3e d8 9a 98 be 52 3e 34 be b1 f8 8c 3e
       0.28351876 -0.29805636 -0.17601898 0.27533486
0003b0 74 fb 0f 3e ad f4 64 be bb 1f ad bd dd f1 ba 3d
       0.14060766 -0.22358961 -0.08453318 0.09128163
0003c0 fa f5 15 3e 79 ee 5c bc 18 4f c2 3d fe e7 46 be
       0.14644614 -0.013484591 0.09487742 -0.19424435
0003d0 d2 53 8d 3e 73 39 1b be a6 20 66 3e 19 37 83 3e
       0.27603012 -0.15158634 0.22473392 0.25627974
0003e0 89 d6 18 3d a9 be 3b 3e 42 b7 8e 3c 77 c3 9a 3e
       0.03731397 0.1833445 0.017421369 0.30227253
0003f0 ea a3 98 be a7 55 7c 3e 5f b2 73 3e 45 95 ea 3d
       -0.29812557 0.24642049 0.23798512 0.11454252

linear2.weight f4 [3, 256]
000000 b6 96 61 bc dc e9 a5 3c 36 12 f7 bc 81 a5 86 bd
       -0.013768842 0.020253114 -0.03016005 -0.06574536
000010 f5 5d 2b 3d 1a 5f ec bc 72 ea b7 bc a2 24 a8 3d
       0.04183765 -0.028853942 -0.02245066 0.08210112
000020 3b b1 1a 3d af 20 83 bd af 19 e2 bc b3 cd 0c bc
       0.037766676 -0.06402718 -0.027600138 -0.008593964
000030 c6 3d 8b bd fb bd 5c bd e2 40 7b bc 26 95 7e bd
       -0.06798892 -0.053892117 -0.0153352935 -0.062153958
000040 10 f6 05 3d ed 0a 41 bd 69 a8 32 bb 86 ac 45 bd
       0.032705367 -0.04712956 -0.0027261025 -0.048260234
000050 96 a1 39 bc bf ab de b9 6c 88 2f 3b 06 a9 09 3c
       -0.011330029 -0.000424711 0.0026784195 0.008402115
000060 ad e5 c2 bc 16 77 1f 3d 3e 61 28 bd 7e 9a ac 3d
       -0.023791159 0.03893193 -0.041108362 0.084279045
000070 92 8b 86 3c b8 38 83 bc 18 28 10 3d b9 70 5e 3d
       0.016423974 -0.016018257 0.035194486 0.05430672
000080 77 93 cc bc 19 7c 33 3d bc fb e8 bc 2f 71 91 bd
       -0.02497266 0.04381952 -0.028440349 -0.07101666
000090 74 1d 80 bd da 21 80 bc a9 2f 7e bd 1f 5b d3 39
       -0.06255618 -0.015641142 -0.06205717 0.00040312947
0000a0 19 e2 da bb 0b e6 89 3a fd b3 f8 bb 31 51 61 bc
       -0.006679785 0.0010520829 -0.0075898157 -0.013752268
0000b0 19 0d 84 bd 38 99 92 bd be b0 5f 3d 48 3b 1e 3d
       -0.06447811 -0.071581304 0.054611914 0.038630754
0000c0 51 c8 5f 3d 00 ee 7c 3b aa de a4 bd 2f e7 9d bc
       0.054634396 0.0038594007 -0.08050282 -0.019275276
0000d0 05 44 0e bd 06 75 4b 3d da 7f 12 bc 19 b0 1f 3d
       -0.034732837 0.04967215 -0.008941615 0.0389863
0000e0 56 b5 71 3c 8c 96 18 3d 40 92 56 bc 04 5b 6e 3b
       0.0147527065 0.037252948 -0.013096392 0.0036370168
0000f0 4a a5 7a 3c 35 3b 3c 3c 07 c1 97 bd cd 35 7d bc
       0.015298197 0.011488725 -0.07409864 -0.015454722
000100 15 0a 8d ba 06 fb 00 3d 8b 2d b5 3c e8 bd 0c bc
       -0.0010760451 0.031489395 0.022116443 -0.008590199
000110 0e 26 5c bd bc f1 36 bd b8 4c 99 bd b0 83 86 bd
       -0.05374723 -0.04466413 -0.07485336 -0.06568086
000120 fa ad 05 bb f9 9e 35 bd 45 8e 8f 3c 13 eb 14 3d
       -0.0020397888 -0.04434106 0.017523894 0.036356997
000130 10 a0 ca 3a 8e 2c e8 bc f4 ab 18 3d a9 5e 0d bd
       0.0015459079 -0.028341558 0.037273362 -0.034514103
000140 04 6d 06 3d 0a 13 c9 3c 81 07 8d bd 8c 9a 80 bd
       0.03281881 0.024545211 -0.06886197 -0.062794775
000150 f4 10 5b 3c e9 a0 28 bd ea 5c 97 bd 79 13 c6 bd
       0.013370741 -0.04116908 -0.07390769 -0.09671683
000160 1f 6e 70 bd 83 b8 94 bd 46 44 ab 3c 9f 34 d8 3c
       -0.05869877 -0.07261755 0.020906579 0.02639228
000170 c5 79 92 bd fe 75 8f bb 70 b5 80 3b 64 86 39 bd
       -0.07152132 -0.0043780794 0.003927879 -0.04529418
000180 02 aa 2d 3b 17 ad 43 bd 03 8d 26 3d 7c 4e 6e bd
       0.0026499038 -0.047772493 0.040661823 -0.058180317
000190 af b0 c3 bd ba 27 b3 3b ef a0 1d bd e7 6f 4e 3c
       -0.09555184 0.0054673823 -0.038483556 0.012599922
0001a0 2c 44 2d 3b bb 07 a4 bd ed fb 72 bc 3b e6 c9 bc
       0.0026438339 -0.08009287 -0.014830572 -0.024645915
0001b0 f2 f4 d1 bb 5a 48 92 bc 96 6c fd bc fa 76 92 bd
       -0.0064073736 -0.017856766 -0.030935567 -0.07151599
0001c0 79 a0 c1 3c d3 4a 56 3d c8 85 c0 ba c9 e9 98 bc
       0.02363609 0.05231745 -0.0014688307 -0.018666165
0001d0 08 59 25 bd 6f 49 60 bd ff 10 74 bd 14 04 a6 bd
       -0.04036811 -0.05475753 -0.05958652 -0.081062466
0001e0 4c 36 68 bd c6 f9 e0 3b 92 ce 1c 3c f8 aa 8d 3d
       -0.056692407 0.006865713 0.009570735 0.06917375
0001f0 9b c8 16 bd 09 1d b0 3d b1 a5 14 bd 0b 07 29 3d
       -0.036812406 0.08599288 -0.03629083 0.041266482
000200 30 6a c9 bc 8f 5d bc bc 31 08 d8 bc e9 b0 bd 3c
       -0.024586767 -0.022993831 -0.026371093 0.023155646
000210 50 fa 86 bd 7c 57 fd 3c a5 83 60 bd 0b 9f 4e bd
       -0.06590712 0.030925505 -0.054813046 -0.050444644
000220 a1 d8 ea 3c 7d a6 d0 bb 37 69 b9 3c 42 84 b8 bd
       0.02866775 -0.006367503 0.022633178 -0.09009601
000230 08 3f 49 bd b0 e0 a7 bd 6b 0a 6b bd bc 8a d6 bc
       -0.049132377 -0.081971526 -0.057382982 -0.0261892
000240 ac 01 1c bd 90 5f 30 3b 10 ac d3 bc d2 7c 62 bb
       -0.038087532 0.0026912428 -0.025838882 -0.0034559262
000250 a5 7a e6 bc 8f 84 16 bd 0a 31 eb 3c 21 89 30 bd
       -0.028134653 -0.03674751 0.028709907 -0.043099526
000260 58 52 85 3c b4 d5 32 bd ad 9b 8e bd 1f e1 53 bd
       0.016274616 -0.043660834 -0.069632865 -0.051728364
000270 95 a9 54 bd d4 06 88 bd a3 c2 8a 3d a4 4a 2c 3d
       -0.05191954 -0.06641927 0.06775405 0.04206337
000280 85 1d be 3b 4d 27 3f bd 64 d2 b7 3c 68 e4 2c bd
       0.005801859 -0.04666834 0.02243919 -0.042210013
000290 68 3a ab bc 5f 49 a7 3b 89 78 58 3d 10 5e 71 bd
       -0.020901874 0.005105182 0.052849326 -0.058927596
0002a0 a9 3d 66 3c 05 d9 a3 bd 2b b9 10 bd 0c ac b8 bc
       0.014052787 -0.080003776 -0.03533284 -0.022542976
0002b0 7d 94 e4 3c c0 0e a5 3d ad 32 69 bd c0 55 d3 bc
       0.027902836 0.08059454 -0.056933094 -0.025797725
0002c0 c9 ff ec bc d6 02 00 3c a0 fd d2 3b dd 23 3e bd
       -0.028930562 0.007813176 0.006438926 -0.04642092
0002d0 8e ce 61 3d 26 02 ff bb 96 87 92 bd 77 12 d1 bc
       0.055128627 -0.0077822385 -0.07154767 -0.0255215
0002e0 a2 85 a3 3c 32 dd 68 bd ca 5a 1c bc 37 92 d2 3b
       0.019961182 -0.056851573 -0.00954313 0.0064261216
0002f0 38 21 7d 3c 49 7b e6 bc 71 03 e9 3c 00 93 78 3c
       0.0154498145 -0.028134959 0.028444024 0.015171766
000300 8a 7c 96 bb 36 05 e6 bc af 2a 5d bd aa 73 a9 bd
       -0.004592483 -0.028078657 -0.053995784 -0.08274014
000310 68 92 39 bd 7b 7e 7e 3c 0e 9f 76 bd 97 3b 0d 3d
       -0.04530564 0.015533085 -0.06021028 0.034480657
000320 00 cb 82 3b 31 15 ae bb 34 73 a6 bd 11 c9 94 3d
       0.0039914846 -0.005312585 -0.08127442 0.07264913
000330 eb 33 95 3d 1f d5 d8 3c 1c f6 7d 3c c1 63 58 bd
       0.07285293 0.026468812 0.015500572 -0.052829508
000340 f2 76 27 bd 7f 32 04 3c 4c 4d 3b 3c 16 fe 85 3d
       -0.04088492 0.00806868 0.011432003 0.06542604
000350 d2 40 3c bc 47 44 ab bc 1f a2 74 bb fc e4 80 3c
       -0.011490064 -0.02090658 -0.0037328077 0.015734188
000360 8f 70 18 bd 4d 96 59 bd ae 94 9f bd 40 5d 6b bd
       -0.03721672 -0.053121854 -0.0779203 -0.057461977
000370 f1 39 0d bc 14 8c 2b 3d 02 5a 62 bd 24 ea dc ba
       -0.008619771 0.041881636 -0.05526162 -0.0016854447
000380 70 da eb 3c 00 9b a7 bc b6 46 58 bb ac cc 27 3d
       0.028790683 -0.020459652 -0.0033001131 0.040966675
000390 af 44 1e bd a5 c6 49 bc 19 c4 0d 3d bf ac 0e bb
       -0.03863972 -0.012315427 0.03461084 -0.0021770445
0003a0 b5 86 55 bd db 86 1c 3d 04 51 31 3d 45 ab 7b bd
       -0.05213042 0.038214546 0.043290153 -0.061442632
0003b0 17 67 d0 bc c9 a3 1e bd 32 1e 9d 3c 7c b7 08 3c
       -0.025439782 -0.038730416 0.019179437 0.008344527
0003c0 31 fe 63 bd 66 03 5f bd 12 bb 8e 3c 6f 6b 2a bc
       -0.055662338 -0.0544466 0.017423186 -0.010401591
0003d0 2c 58 61 bd 8e e0 c6 bc b9 33 2c 3d ad 7a dc 3a
       -0.055015728 -0.024276998 0.042041514 0.0016821228
0003e0 f1 50 06 bd 9c ec 3b bc 86 88 13 3d 85 5e fa bc
       -0.032792035 -0.011469986 0.03601887 -0.030562649
0003f0 58 6e 3c 3c d1 d3 b1 3c f7 c4 5f bd 24 5e 1b bc
       0.011500917 0.021707447 -0.0546312 -0.009482894

linear2.bias f4 [3]
000000 38 c9 f1 bb da 57 16 bd c3 64 2f bd
       -0.0073787235 -0.036704876 -0.042820703
