Snake/model/model.pth (torch, 17609 bytes, 4 tensors)

linear1.weight f4 [256, 11]
0	0x3e88547a	0.2662695
1	0xbe8f592e	-0.27997726
2	0x3e7fd00f	0.24981712
3	0x3e83ae9a	0.25719148
4	0x3e83439e	0.25637525
5	0x3e93730f	0.2879872
6	0xbd4a5a85	-0.049402732
7	0xbbfc0d10	-0.007691987
8	0xbe26dc4c	-0.16294974
9	0x3e6477c2	0.22311309
10	0x3e5cca47	0.21561538
11	0x3e8295ff	0.25505063
12	0x3d2a84ad	0.041630436
13	0xbe456d07	-0.19279872
14	0xbe38b835	-0.1803902
15	0xbe9b90b9	-0.30383852
16	0x3e2aa4ed	0.16664477
17	0xbdc68506	-0.09693341
18	0x3d871836	0.06596415
19	0x3e820176	0.2539174
20	0xbe161609	-0.14656843
21	0x3e0fdaba	0.14048281
22	0xbe1d36b9	-0.15352906
23	0x3dea36db	0.11436244
24	0x3cf880d0	0.03033486
25	0xbdc5815c	-0.09643814
26	0x3e496e67	0.19671021
27	0xbe8b4dac	-0.27207696
28	0xbd3fd948	-0.046838075
29	0xbd302123	-0.04300035
30	0x3cb7d0a1	0.02243835
31	0xbda1759b	-0.078837596
32	0xbe3e238c	-0.18568248
33	0x3e4916e8	0.19637644
34	0xbe7344a7	-0.23756658
35	0x3e54c6ea	0.20779005
36	0x3e679f56	0.22619376
37	0x3db4e031	0.088318236
38	0x3df4823f	0.11938905
39	0x3e81ae37	0.25328228
40	0x3de92d44	0.11385587
41	0x3e471430	0.19441295
42	0xbd0ccf81	-0.03437758
43	0xbbe992e0	-0.0071281046
44	0x3e975237	0.29554912
45	0xbe25c3f9	-0.16188039
46	0xbc19d420	-0.009388953
47	0xbe4d6bfe	-0.20060727
48	0xbde4759f	-0.11155247
49	0x3e58d081	0.21173288
50	0x3df1e205	0.11810688
51	0xbdb85ec4	-0.0900245
52	0x3e61efb6	0.22064099
53	0x3e90a587	0.28251287
54	0xbe684290	-0.22681642
55	0xbe53ed30	-0.20695949
56	0xbcd61be2	-0.026136342
57	0x3e77344d	0.24141045
58	0xbe553f60	-0.20824957
59	0x3d2adde1	0.041715506
60	0x3e2054d1	0.15657355
61	0x3d135184	0.03596641
62	0xbe2ec47d	-0.17067142
63	0x3e8f5661	0.2799559
64	0xbc2150d8	-0.009845935
65	0x3ce24bda	0.02762406
66	0x3dde3d71	0.10851563
67	0xbe810852	-0.2520166
68	0xbe483966	-0.19553146
69	0x3dc9931a	0.098425105
70	0xbe838ee8	-0.25694966
71	0x3e5398cd	0.20663758
72	0x3e44a68e	0.1920416
73	0x3e9e4481	0.3091164
74	0xbe41cc37	-0.18925558
75	0xbe5c3f8e	-0.21508619
76	0x3cb5d56d	0.022196496
77	0x3e8a70dd	0.27039233
78	0x3d9bc4a3	0.07605865
79	0x3cef05c0	0.029177547
80	0xbe15b2f7	-0.14619051
81	0xbe13e13f	-0.14441393
82	0xbe4f016e	-0.20215389
83	0x3d80bbd1	0.06285823
84	0xbe65f13c	-0.22455305
85	0x3e4bdc41	0.19908239
86	0xbe23d5f1	-0.15999581
87	0x3e96b520	0.29435062
88	0xbe43bfd8	-0.19116151
89	0x3e405607	0.18782817
90	0x3dde2902	0.10847665
91	0xbc16409f	-0.00917068
92	0x3c80f687	0.015742553
93	0x3e5dc90c	0.21658725
94	0x3d3f055f	0.04663598
95	0x3e3e3278	0.1857394
96	0x3e953a5b	0.29146084
97	0x3e105e6c	0.14098519
98	0xbd929253	-0.071568154
99	0xbe985168	-0.29749608
100	0x3d1cf5fc	0.038320526
101	0x3d83fdea	0.06444915
102	0xbe1d0561	-0.15334083
103	0x3e913f09	0.28368405
104	0x3e2235cd	0.15840836
105	0x3e8704ea	0.26370937
106	0xbd5fb8c6	-0.054619573
107	0xbe21dd24	-0.15807015
108	0xbe13e839	-0.14444055
109	0x3d2415c3	0.040059816
110	0xbbea652e	-0.007153175
111	0x3d6b7935	0.05748864
112	0x3c91dab8	0.017804489
113	0xbe9dc5ed	-0.30815068
114	0x3e18670f	0.14883064
115	0x3e4b0fcc	0.19830245
116	0xbe33fa99	-0.17576064
117	0x3e607392	0.21919087
118	0x3c9abc6b	0.018888673
119	0xbd6301c4	-0.055421606
120	0x3e8bdf45	0.2731878
121	0xbd310b48	-0.04322365
122	0xbe641c6d	-0.22276469
123	0xbe32f6bc	-0.17476934
124	0xbe0b667b	-0.13613312
125	0xbc390087	-0.01129163
126	0x3d9e5cc0	0.077325344
127	0xbe0ca8e8	-0.13736308
128	0x3c8cae89	0.017173069
129	0x3e3d2716	0.18471941
130	0xbe8a7545	-0.27042595
131	0x3e950d9d	0.2911195
132	0x3c8bcbd2	0.017064963
133	0x3e87afc9	0.265013
134	0x3e33a578	0.1754359
135	0x3caa978e	0.02082422
136	0x3e58ccc9	0.2117187
137	0x3dcf9f5a	0.10137816
138	0x3e5ca74e	0.21548197
139	0xbe69f47c	-0.2284717
140	0x3ba64fad	0.005075416
141	0x3e479812	0.19491604
142	0x3d43c3a4	0.047794
143	0xbe779a7a	-0.24180022
144	0x3d9523ba	0.07282205
145	0x3e63738b	0.22212045
146	0xbe4f7338	-0.20258796
147	0x3e7be4ce	0.24599001
148	0x3e1e403e	0.15454194
149	0xbcf878e6	-0.030331086
150	0x3e661118	0.22467458
151	0x3e84fe66	0.2597534
152	0x3d9a5921	0.07536531
153	0xbe7785e9	-0.24172176
154	0xbe7ca5e3	-0.24672656
155	0xbe35dcd4	-0.1776002
156	0x3e1d8c9e	0.15385672
157	0xbe7e67ec	-0.2484433
158	0x3e78771a	0.24264184
159	0x3dc6991c	0.09697172
160	0x3e71e2d1	0.2362168
161	0xbe7cd68b	-0.24691217
162	0xbe0042e6	-0.1252552
163	0x3e05e469	0.13075413
164	0xbe8b6cb8	-0.27231383
165	0x3d6b107f	0.05738878
166	0x3d5fc32b	0.054629486
167	0xbde802b1	-0.11328638
168	0x3d892412	0.06696333
169	0x3c953c17	0.01821713
170	0x3e0fadf9	0.14031209
171	0xbd12a50b	-0.03580193
172	0x3e0a9e04	0.1353684
173	0xbe1a6683	-0.15078168
174	0xbd90dd94	-0.07073513
175	0x3e44aba8	0.19206107
176	0xbcf9647a	-0.030443419
177	0xbe84a0d8	-0.25903964
178	0xbe3b6281	-0.18299295
179	0x3e42b063	0.19012599
180	0xbe5ec1e5	-0.21753652
181	0xbe787b9e	-0.24265906
182	0x3e559f61	0.2086158
183	0x3e9878a3	0.2977954
184	0xbd504c70	-0.050854146
185	0x3e28ebc1	0.16496183
186	0x3dc110fd	0.094270684
187	0xbd05bbdf	-0.03264987
188	0xbdc74381	-0.09729672
189	0x3e8bc4bd	0.27298537
190	0xbe8f9e1d	-0.28050318
191	0xbdb475cc	-0.088115305
192	0x3e8c79b5	0.27436605
193	0x3e8c67af	0.27422854
194	0xbadca5c9	-0.0016834076
195	0x3cef8def	0.029242484
196	0xbd932f18	-0.07186717
197	0xbe04c021	-0.12963916
198	0x3ccaef8b	0.024772426
199	0x3de83140	0.11337519
200	0xbd606de3	-0.054792296
201	0xbdfd8460	-0.12378764
202	0xbe50119b	-0.20319216
203	0x3dd1901a	0.10232563
204	0x3e1f50dc	0.15558189
205	0x3e8a2a98	0.2698562
206	0xbd92aee4	-0.07162264
207	0xbe0c6cf1	-0.13713433
208	0x3e5249dd	0.20535989
209	0xbe579f7c	-0.21056932
210	0xbdb5fa10	-0.08885586
211	0xbe80c5c9	-0.25150898
212	0xbe1e6d85	-0.15471466
213	0xbe77cbd0	-0.24198842
214	0xbb3e90fd	-0.002907812
215	0xbc8dcb49	-0.017308848
216	0xbd276a81	-0.040873054
217	0xbe54204c	-0.20715445
218	0xbd12e26d	-0.035860468
219	0xbe52b67a	-0.20577422
220	0x3e7351a6	0.23761615
221	0x3d890839	0.066910215
222	0xbe84c1a2	-0.2592898
223	0x3de6e929	0.112749405
224	0xbe34db62	-0.17661813
225	0xbdec8c65	-0.11550216
226	0x3e032ac8	0.12809289
227	0xbe6a4933	-0.22879486
228	0xbe281521	-0.1641431
229	0x3e7be9a3	0.24600844
230	0xbe5a49d1	-0.21317221
231	0xbc7962e0	-0.015221328
232	0x3e168bec	0.14701813
233	0x3e8009ac	0.2500738
234	0xbe3797fd	-0.17929073
235	0xbe8d8331	-0.27639154
236	0x3e97361f	0.2953348
237	0xbd2ea4a8	-0.042637497
238	0xbd16a0aa	-0.036774315
239	0x3e1cca16	0.15311465
240	0xbe079ef1	-0.13244225
241	0xbda8e5eb	-0.08246978
242	0x3e0c427c	0.13697237
243	0x3e021452	0.12703064
244	0xbe9534af	-0.29141757
245	0xbe69e202	-0.22840121
246	0xbd8e438b	-0.069464765
247	0xbe90e6f2	-0.28301197
248	0x3e8e4a80	0.27791214
249	0x3e966503	0.2937394
250	0x3d3c8193	0.04602201
251	0x3d85e06b	0.06536945
252	0xbe883597	-0.26603386
253	0x3e69186e	0.22763225
254	0xbd2a6118	-0.041596502
255	0x3baf8e77	0.0053575593

linear1.bias f4 [256]
0	0x3e01d4b3	0.12678795
1	0xbe35d7eb	-0.17758147
2	0xbe5765b1	-0.21034886
3	0xbe0b7cf9	-0.13621892
4	0x3dfde97f	0.123980515
5	0x3e036f16	0.12835345
6	0x3d8bc636	0.06824915
7	0xbe4de948	-0.20108521
8	0x3c51647e	0.012780307
9	0xbdac92a2	-0.084264055
10	0xbcb623fe	-0.02223396
11	0xbe65982c	-0.2242133
12	0x3e2cde85	0.1688176
13	0x3e896b88	0.26839852
14	0xbe39a5a2	-0.1812959
15	0xbdb139b4	-0.08653584
16	0x3d16a104	0.03677465
17	0x3bb8f205	0.0056440854
18	0x3e499e10	0.19689202
19	0x3e7210dd	0.23639245
20	0x3e5af541	0.2138262
21	0x3ddb1a5c	0.10698387
22	0xbe2238af	-0.15841936
23	0xbe4b254d	-0.19838448
24	0x3d1a2b64	0.037639037
25	0xbdf9824c	-0.12183055
26	0x3e081850	0.13290524
27	0x3dd316c2	0.10307075
28	0x3d3e1c53	0.04641373
29	0xbe08cb9d	-0.13358922
30	0x3d8f531b	0.06998273
31	0xbdd2acca	-0.10286863
32	0x3e838449	0.25686863
33	0xbda95b66	-0.08269386
34	0x3e9e235f	0.3088636
35	0x3e6d7c2d	0.231919
36	0xbe187417	-0.14888035
37	0xbe328003	-0.17431645
38	0xbe547c2b	-0.20750491
39	0x3e70b32b	0.23505847
40	0xbe367790	-0.17819047
41	0xbdf7557c	-0.12076852
42	0x3e8bd1e9	0.27308586
43	0xbdfe9d41	-0.124323376
44	0x3e2a57c5	0.16635044
45	0x3ded92b4	0.11600247
46	0xbe99fc71	-0.3007541
47	0xbe60d7b2	-0.21957281
48	0xbe82e17f	-0.25562665
49	0x3e474995	0.19461663
50	0x3e8ec434	0.27884066
51	0xbe692c3f	-0.22770785
52	0xbc70bb36	-0.014693072
53	0x3e2da4d6	0.16957411
54	0xbe82601a	-0.25463945
55	0x3e75a80f	0.2398989
56	0xbc98ee6d	-0.018668378
57	0x3e62ed1e	0.22160766
58	0x3dd33701	0.103132255
59	0xbe434784	-0.1907025
60	0xbe88fe55	-0.2675654
61	0xbb3f14d7	-0.0029156709
62	0xbdf6113a	-0.120150045
63	0x3dd5ea9e	0.1044514
64	0x3df7cef5	0.12100021
65	0x3e5147d8	0.20437562
66	0xbd544fea	-0.051834024
67	0xbe0cfe15	-0.137688
68	0xbe6fa4d9	-0.23402728
69	0xbdd387de	-0.10328649
70	0xbe074f1f	-0.13213776
71	0x3e4cebd5	0.20011838
72	0xbe1fa5f9	-0.15590657
73	0x3e58cb9c	0.21171421
74	0x3dbd6c1d	0.092491366
75	0x3e65c087	0.22436725
76	0xbe0a948a	-0.13533226
77	0x3ea04e65	0.3130981
78	0x3e80a7f4	0.25128138
79	0x3e882932	0.2659393
80	0x3e3d8185	0.18506439
81	0xbdf6e2bd	-0.12054966
82	0x3c9c3f14	0.019073047
83	0xbd835064	-0.06411818
84	0xbde027a7	-0.10945063
85	0xbe50b58b	-0.20381753
86	0xbe9730fd	-0.29529563
87	0x3e8f20ca	0.27954704
88	0xbe98e10e	-0.29859203
89	0xbe94f13c	-0.29090297
90	0xbd8620ce	-0.06549226
91	0x3dfd25fd	0.12360761
92	0x3e301312	0.17194775
93	0xbea0e6bb	-0.31426033
94	0xbcb3f714	-0.021968402
95	0x3dee6c71	0.11641777
96	0xbe5d8e78	-0.21636379
97	0x3e786713	0.2425807
98	0x3cd7e46b	0.026354035
99	0x3dc08117	0.09399622
100	0x3dbb1dd1	0.091365464
101	0xbe44004a	-0.19140735
102	0x3d71a63b	0.05899642
103	0x3e444fd2	0.19171074
104	0x3d6efa29	0.05834404
105	0xbe7ee74d	-0.24892922
106	0x3e426f22	0.18987706
107	0xbe3be3f1	-0.18348671
108	0x3cb6785b	0.022274187
109	0xbd82f2a2	-0.06393935
110	0xbddd0a0e	-0.107929334
111	0x3dcd5b7b	0.10027214
112	0xbe89ed39	-0.269388
113	0x3e9549b9	0.29157808
114	0xbe857f3f	-0.26073644
115	0xbcfd0f05	-0.030890951
116	0x3b8afd26	0.0042416034
117	0xbe18f2c9	-0.14936365
118	0x3dbb93a9	0.09159023
119	0xbe5067ed	-0.20352145
120	0x3e1857b4	0.14877206
121	0x3dca01d2	0.098636284
122	0x3e81ba0c	0.25337255
123	0x3c9f513b	0.019447913
124	0x3c8e2245	0.017350325
125	0xbdaad428	-0.08341247
126	0x3c770d7f	0.015078901
127	0xbe20da44	-0.15708262
128	0xbdd9e66e	-0.10639654
129	0xbdfb9d05	-0.122858085
130	0xbe7772ce	-0.24164888
131	0xbc62ee05	-0.013850694
132	0xbd3f17fa	-0.046653725
133	0xbddd80af	-0.1081556
134	0x3da76758	0.08174008
135	0xbe49698d	-0.1966917
136	0x3bd7917b	0.006578622
137	0x3aeb86b2	0.001796922
138	0xbe124249	-0.14283098
139	0x3e2564c4	0.1615172
140	0xbe882b7b	-0.26595673
141	0xbe441f45	-0.19152553
142	0xbe474c7d	-0.19462772
143	0x3ba4fc97	0.005034994
144	0x3dfe0649	0.124035425
145	0xbdc09c36	-0.09404795
146	0xbdbe95d6	-0.09305923
147	0x3e842f6a	0.25817424
148	0x3e7674ff	0.24068068
149	0xbdf52cc8	-0.11971432
150	0x3e379c1d	0.17930646
151	0xbe154b99	-0.1457962
152	0x3e71cd42	0.23613456
153	0x3da9bf94	0.08288494
154	0x3e5819bb	0.21103565
155	0xbe6bd0db	-0.23028891
156	0xbddca89d	-0.10774348
157	0xbd3bfbea	-0.04589454
158	0x3e6b817f	0.22998618
159	0x3e061855	0.1309522
160	0xbd8c7150	-0.0685755
161	0x3e64e8f4	0.2235449
162	0x3c890287	0.016724838
163	0x3e3a14d2	0.18172005
164	0x3e12fba3	0.14353804
165	0x3e16f4a4	0.1474176
166	0x3d68c26e	0.056826048
167	0xbc802a07	-0.01564504
168	0xbe7a7b93	-0.24461202
169	0x3e298557	0.16554771
170	0xbea13ac5	-0.3149015
171	0x3deec374	0.116583735
172	0x3cb8a1af	0.022538034
173	0x3e0da0a3	0.1383081
174	0xbd09a18b	-0.033601325
175	0xbda9e1a3	-0.0829499
176	0x3d8bcbd8	0.068259895
177	0x3d1d30b2	0.038376518
178	0xbe8c8ca1	-0.2745104
179	0xbd2e28e2	-0.042519458
180	0x3e9248ef	0.2857127
181	0xbe1dda13	-0.1541522
182	0xbde3de80	-0.11126423
183	0xbe837924	-0.2567836
184	0x3e08e698	0.13369215
185	0xbdc70608	-0.09717947
186	0x3cec08ed	0.02881285
187	0x3e007e6f	0.1254823
188	0xbca44a37	-0.02005492
189	0x3d8b06a3	0.06788375
190	0x3e6a0c78	0.22856319
191	0xbe2740c7	-0.16333304
192	0x3bdd726e	0.006758026
193	0xbe1c847c	-0.15284914
194	0x3c8d6817	0.017261548
195	0x3e2d52c7	0.16926108
196	0xbe778286	-0.24170884
197	0x3e0cb9b3	0.13742714
198	0x3ced33ee	0.028955426
199	0x3e0b3b45	0.13596828
200	0x3e5f21c0	0.21790218
201	0x3dccc0b7	0.09997695
202	0xbe0beb5c	-0.13664001
203	0x3e8ad425	0.27114978
204	0x3d9c97ea	0.07646163
205	0x3dac7124	0.08420017
206	0x3e389c6b	0.18028419
207	0xbe66fabd	-0.22556587
208	0xbe69df48	-0.22839081
209	0x3e8fed47	0.28110716
210	0xbe0be1b4	-0.13660318
211	0x3ea17dbf	0.3154125
212	0xbe1ea1a6	-0.15491351
213	0x3e166f4e	0.14690897
214	0xbe38733b	-0.18012707
215	0x3d748c95	0.059704382
216	0xbe5746ed	-0.2102315
217	0xbddf998f	-0.10917961
218	0xbdc2f332	-0.09519042
219	0x3e202e55	0.15642674
220	0xbe0cdc5b	-0.13755934
221	0x3dfe0411	0.12403119
222	0x3e87ace6	0.264991
223	0x3e3e4292	0.18580082
224	0x3d206967	0.03916302
225	0x3e09c3da	0.13453618
226	0xbdc0bf23	-0.094114564
227	0xbe90ddba	-0.28294164
228	0x3da49cd5	0.08037726
229	0x3c0e24d0	0.008675769
230	0xbe11431a	-0.14185753
231	0xbea61fca	-0.32446128
232	0xbe8de374	-0.27712595
233	0x3e35081a	0.17678872
234	0xbe631fc9	-0.22180094
235	0xbdfa8992	-0.12233271
236	0xbe41cff5	-0.18926986
237	0xbe84927a	-0.25893003
238	0xbd2015d0	-0.039083302
239	0x3e1c2cf1	0.15251519
240	0x3dc0c4a1	0.09412504
241	0x3e21a6bb	0.15786259
242	0xbe86d822	-0.2633677
243	0xbe654697	-0.22390209
244	0xbc9ec7fa	-0.019382466
245	0x3e1bc687	0.15212451
246	0x3da4bf56	0.08044307
247	0x3e4b8c39	0.1987771
248	0x3e90562f	0.28190753
249	0xbe1426d4	-0.14467937
250	0xbe57df60	-0.21081305
251	0xbce52685	-0.02797247
252	0xbe7092d4	-0.2349351
253	0xbe1650d3	-0.1467927
254	0xbb91956d	-0.004442862
255	0x3d00871c	0.03137885

linear2.weight f4 [3, 256]
0	0xbd502bb3	-0.050822925
1	0x3cfe5c5f	0.031049905
2	0x3c638946	0.013887709
3	0xbcdd5eb9	-0.027022706
4	0xbd6569fd	-0.05600928
5	0xbcc79fd2	-0.0243682
6	0x3d4444af	0.047917064
7	0xbd4a809b	-0.049439054
8	0xbd550bdf	-0.052013274
9	0x3bd1d979	0.0064040986
10	0x3d1e8889	0.03870443
11	0xbd81dd80	-0.06341076
12	0x3d17ebcf	0.03709012
13	0xbc803249	-0.015648978
14	0xbd22e88d	-0.03977256
15	0xbd468cd0	-0.048474133
16	0x3bdcf6ac	0.0067432728
17	0xbd7327cc	-0.059364125
18	0x3cb1d649	0.021708624
19	0x3d129ee3	0.035796057
20	0xbd043949	-0.032281194
21	0xbd529356	-0.05141004
22	0xbcd85ff2	-0.026412938
23	0x3ce2de4b	0.027693888
24	0x3b8fa536	0.0043837084
25	0xbd7793b1	-0.060443584
26	0xbb4bf0fc	-0.003111898
27	0x3c94518b	0.018105289
28	0xbd40d1b6	-0.047074996
29	0xbd68a5f6	-0.056798898
30	0x3c06d508	0.008229502
31	0x3d26d9f6	0.040735207
32	0x3d322b7a	0.043498494
33	0x3a1a2042	0.00058794406
34	0x3c1f6edd	0.009731022
35	0xbd4532c0	-0.048144102
36	0xbba4884f	-0.005021132
37	0xbd887b42	-0.066641346
38	0xbcbd4461	-0.023103895
39	0x3c390b55	0.011294206
40	0xbd3d77a5	-0.04625668
41	0x3cc55361	0.02408761
42	0xbc917378	-0.017755255
43	0x3ca5763b	0.020197978
44	0xbdb318c1	-0.08744956
45	0xbd08ea2c	-0.03342645
46	0xbca73008	-0.020408645
47	0xbd1dcf62	-0.038527854
48	0xbd977d49	-0.07396943
49	0xbd554e57	-0.052076664
50	0x3d084274	0.0332665
51	0xbad38880	-0.0016138703
52	0xbcae0604	-0.021243103
53	0xbcba5657	-0.022746248
54	0xbd5c8e15	-0.053846437
55	0xbd58ce26	-0.052930973
56	0xbccc6ab7	-0.02495323
57	0x3d045a1f	0.03231251
58	0x3be7e900	0.0070773363
59	0xbb907a6b	-0.0044091246
60	0xbb96bbe1	-0.0046000336
61	0xbd420a62	-0.047373183
62	0x3cc104d2	0.023561869
63	0x3d20132c	0.039080784
64	0xbd2ecf5d	-0.042678226
65	0xbd24017d	-0.04004048
66	0x3cac04c5	0.020998368
67	0xbaaaf30a	-0.0013042402
68	0xbce43fb8	-0.027862415
69	0xbc8ed390	-0.017434865
70	0xbc8216f5	-0.015880087
71	0xbbaf62fa	-0.005352375
72	0xbd9777f6	-0.073959276
73	0x3cfc7778	0.030818686
74	0xbd51fa72	-0.051264234
75	0x3c7bb0a7	0.015361941
76	0x3d1bad64	0.038007155
77	0xbd005b49	-0.031337056
78	0xbd2df126	-0.042466305
79	0xbd4c80c4	-0.049927488
80	0x3c8aa97a	0.016926516
81	0x3ca549ed	0.020176852
82	0xbd0d561e	-0.034505956
83	0xbaca57aa	-0.0015437503
84	0xbb3c6cf8	-0.0028751474
85	0xbd50c8bf	-0.050972696
86	0xbd5a0dba	-0.053235747
87	0xbcc83210	-0.024437934
88	0x3d06d8bf	0.03292155
89	0x3d69e208	0.057100326
90	0xbc259b07	-0.010107762
91	0x3d2b198d	0.041772414
92	0x3cca2742	0.024676923
93	0xbaf69347	-0.0018812203
94	0x3c036af6	0.008021107
95	0xbd99d728	-0.07511741
96	0xbc405755	-0.011739572
97	0x3ca6f697	0.020381255
98	0x3cc20d01	0.023687841
99	0xbcb6245c	-0.022234134
100	0xbd001d59	-0.031277988
101	0x3becdd54	0.007228533
102	0xbd6fade8	-0.05851546
103	0xbc92731f	-0.01787716
104	0xbd46dd22	-0.048550732
105	0xbce79a90	-0.028271943
106	0x3d1bac95	0.038006384
107	0xbd60a479	-0.054844353
108	0xbd3fdeba	-0.046843268
109	0xbce4024d	-0.027833128
110	0xbd36a8f6	-0.044594727
111	0xbd1ee62d	-0.03879373
112	0xbd920c2b	-0.07131227
113	0xbcd7422c	-0.02627667
114	0x3d42e66a	0.04758302
115	0xbd2b54ca	-0.041828908
116	0xbcc62550	-0.024187714
117	0x3d74dce0	0.059780955
118	0xbd6d4002	-0.05792237
119	0xbcb6aa1b	-0.02229791
120	0xbd6a0ffa	-0.057144143
121	0xbd1c962b	-0.03822915
122	0x3d165bd0	0.036708653
123	0xbca68c60	-0.020330608
124	0x3c90e3c4	0.017686732
125	0xbd1492dc	-0.03627287
126	0xbc5d98ee	-0.013525231
127	0x3d43b542	0.047780283
128	0xbc07ed58	-0.008296333
129	0xbc834f9a	-0.016029168
130	0x3d5b8ac3	0.05359913
131	0x3c925838	0.017864332
132	0xbd2cc340	-0.042178392
133	0xbcaf808b	-0.021423599
134	0x3c0d05ac	0.008607309
135	0xbd69ab6e	-0.057048254
136	0x3b99ba93	0.004691431
137	0xbd21a160	-0.03946054
138	0xbd941526	-0.07230596
139	0xbcdcbb97	-0.026944919
140	0x3c93d092	0.01804379
141	0xbce895f4	-0.028391816
142	0xbdcb829f	-0.09937023
143	0xbd44ea1c	-0.048074827
144	0x3be4727e	0.0069716563
145	0x3cd8429b	0.026398947
146	0xbd2ffc67	-0.04296532
147	0xbd8c2dfb	-0.068447076
148	0xbccfe5e1	-0.02537817
149	0xbda91a0d	-0.08256922
150	0xbd0bc53f	-0.034123655
151	0x3ccb5e11	0.024825128
152	0x3c9c3261	0.019066991
153	0xbc31b7c7	-0.010847039
154	0xbd9ebd54	-0.07750955
155	0xbc0a3d18	-0.008437417
156	0x3d528a5a	0.051401474
157	0x3c51b6ba	0.012799913
158	0x3b863067	0.0040951255
159	0xbccc1c14	-0.024915732
160	0xbc498487	-0.012299663
161	0xbd4b44f7	-0.049626317
162	0xbd41ea94	-0.04734285
163	0xbc1b9779	-0.009496563
164	0xbbbbd8a8	-0.0057326145
165	0xbb48c9a7	-0.0030637772
166	0xbca0b118	-0.019615695
167	0xbd078a0b	-0.033090632
168	0xbc21e713	-0.009881753
169	0xbd9b0d4a	-0.07570894
170	0x3d36c0fe	0.044617645
171	0x3d176d4c	0.036969468
172	0x3d096d2e	0.033551387
173	0x3c5681b0	0.013092443
174	0xbc5c8484	-0.013459329
175	0x3cad4ac8	0.021153823
176	0xb91368e0	-0.00014058081
177	0x3c16f45c	0.009213533
178	0xbd7196e9	-0.05898181
179	0xbcada8b3	-0.021198606
180	0xbce8a4dd	-0.028398925
181	0xbdbb8f46	-0.091581866
182	0x3d0f6189	0.035005126
183	0x3ced9fb3	0.029006815
184	0xbc9c4609	-0.019076364
185	0x3d1ae739	0.037818167
186	0x3cf5c4f8	0.030001149
187	0xbd22b684	-0.03972484
188	0xbc655da8	-0.01399938
189	0xbd2e5427	-0.042560723
190	0x39a76583	0.00031928354
191	0x3b08579a	0.0020804168
192	0xbd2b1a7b	-0.0417733
193	0xbd846cc9	-0.064660616
194	0xbd0ba45d	-0.034092296
195	0xbcfac3b5	-0.030610899
196	0xbb24abb8	-0.0025126766
197	0xbd471fb7	-0.04861423
198	0x3b6e8870	0.003639724
199	0x3ae7618e	0.0017652975
200	0xbc550b5e	-0.013003198
201	0xbd1169a3	-0.035501134
202	0xbc00112b	-0.007816593
203	0xbc4576ef	-0.012052282
204	0xbd5a57ab	-0.053306263
205	0x3c3dff64	0.011596534
206	0x391aede5	0.00014775207
207	0xbc1496b8	-0.009069137
208	0xbc39e6ec	-0.01134656
209	0xbb05b3cf	-0.0020401364
210	0xbd5fdfe0	-0.054656863
211	0xbd03cd34	-0.03217812
212	0xbcfdfc38	-0.031004056
213	0xbd7a480c	-0.061103866
214	0xbcab2a32	-0.020894144
215	0x3b759fbe	0.0037479247
216	0xbd09ac2a	-0.033611454
217	0xbd81184b	-0.06303462
218	0xbd0043ac	-0.031314537
219	0xbb646852	-0.0034852219
220	0xbcbb5467	-0.022867395
221	0x3ae9f55a	0.001784961
222	0x3d31cff6	0.043411218
223	0xbd8181f7	-0.06323617
224	0xbd815a7c	-0.06316087
225	0xbd66a4bf	-0.056309458
226	0xbd422d34	-0.04740639
227	0x3c9eea70	0.019398898
228	0xbd0e9c56	-0.034817062
229	0xbb51ee0b	-0.0032032754
230	0x3d022886	0.031776927
231	0x3bc1f258	0.005918782
232	0x3d0fb8e1	0.035088424
233	0xbd3e8812	-0.046516486
234	0xbca71dc3	-0.020399934
235	0xbc6c29d8	-0.014414273
236	0xbcbecd78	-0.023291335
237	0xbd966499	-0.07343406
238	0x3cf860d4	0.030319609
239	0xbd2f23fc	-0.042758927
240	0x3d1e9b21	0.03872216
241	0xbd2a50f9	-0.041581128
242	0x3a2293ef	0.00062018534
243	0xbd530afb	-0.051524144
244	0x3d498fd5	0.049209435
245	0xbd1ecc6f	-0.03876918
246	0x3d34211f	0.0439769
247	0xbcd5a68f	-0.026080398
248	0xbd285629	-0.041097794
249	0xbd1d2800	-0.038368225
250	0xbbc6449b	-0.006050659
251	0xbad580d6	-0.0016289006
252	0xbcdf1f2a	-0.02723654
253	0xbcc76ba1	-0.024343314
254	0x3af6aa31	0.0018819032
255	0xbdb64cf2	-0.08901395

linear2.bias f4 [3]
0	0x3c9ee79e	0.019397553
1	0xbda90e05	-0.08254627
2	0xbc071aa8	-0.008246101
