Snake/model/model.pth (torch, 17609 bytes, 4 tensors)

linear1.weight f4 [256, 11]
0.50703883 -0.07264251 -0.16713838 -0.1237663 -0.19559607 0.27723992 -0.073542595 0.30889907
-0.045445677 -0.09259702 0.26460034 0.17910837 -0.22956006 8.063607e-05 0.44379002 -0.19861475
-0.23169923 0.039153975 0.2910241 -0.33667803 -0.054985203 -0.35032475 0.02297095 -0.2661129
0.02167602 0.12396325 0.36640042 -0.09149088 0.018414102 0.19391462 -0.029895222 -0.28174853
0.29569232 0.5285501 0.50326717 -0.48340884 0.19060585 0.013033915 -0.16345595 0.15673712
-0.12816529 0.27187854 0.23377407 0.0501001 0.14373235 -0.08956097 0.03335345 -0.14948784
0.052614994 0.4122314 -0.23644006 0.30407608 0.14732878 -0.26485693 0.430714 0.16543475
0.033925157 0.39477342 0.15836325 -0.06971536 -0.09784125 0.22201952 0.3045187 0.39083347
0.45412102 0.14049795 0.37730068 0.3461298 0.39302176 -0.1109081 0.0904838 0.08175426
0.108360484 0.22319266 0.22033624 0.25306535 0.30716532 -0.68057346 -0.06220213 0.2642166
-0.053138446 -0.16170324 -0.12781881 0.18494375 -0.035018392 0.18788464 0.27812797 0.35799822
-0.1760908 0.023926644 0.00080554705 0.35600713 -0.31375766 0.0024946504 -0.19209199 0.25411695
-0.120209225 -0.3573838 -0.073932916 0.5465133 -0.3634548 0.64406383 0.08810144 0.021736296
-0.012867738 0.07126844 0.25914818 0.16125427 0.224749 0.3423555 -0.019328423 -0.24519005
-0.122668885 0.33362633 -0.043593396 -0.022140011 0.17221788 -0.46078032 0.15630455 -0.27530882
0.17690107 0.29023877 0.15724759 -0.513513 -0.37361363 0.060444597 -0.0550852 0.06295444
0.33759058 0.20351732 0.043070935 -0.08155394 -0.16802974 0.52152747 0.5368254 0.17822544
-0.2142724 0.10092605 0.1873828 -0.23047782 0.08322514 -0.03365841 0.15541443 -0.34118462
0.39956942 0.10030946 -0.11700585 0.11159476 0.005529647 0.051041037 0.21872732 -0.038210616
0.077100165 0.16659069 -0.029339308 0.59909815 -0.32179907 0.12586272 -0.48233762 0.09958683
0.09066438 0.0025299485 -0.38755125 -0.061273307 0.22557853 0.2080048 0.6408653 -0.19873175
-0.097964115 0.30431825 -0.14221974 -0.11522233 0.21741004 -0.20714666 0.24646984 0.21015379
-0.14977564 0.6106219 -0.073935755 0.21602026 -0.0825423 -0.10352364 0.0036417309 0.3156441
-0.014594185 0.026746925 -0.13366643 0.05510999 -0.14955327 0.008858931 -0.25248462 0.16235016
0.119510904 0.19557428 -0.28832802 -0.20778114 -0.24755926 -0.30091244 -0.018800596 0.07145833
0.662974 0.24954957 0.05656678 -0.25568888 0.3849963 0.050115008 0.15528327 0.5496453
-0.21294127 -0.21556269 0.065588266 0.07710427 0.29743382 0.45192227 0.03807017 -0.044698156
-0.19859733 -0.27740335 0.15377288 0.2082162 -0.29271093 -0.18524775 0.078909665 -0.059269033
-0.15884295 -0.18492743 -0.19897163 0.07644646 -0.13785398 0.07331834 -0.108873546 -0.2639893
0.4904531 -0.38302875 0.23608543 -0.13704108 -0.22228248 0.11820288 0.14057986 0.110201314
-0.30605125 0.276208 -0.526373 -0.13433507 0.11909696 0.23322779 0.18669537 0.148525
-0.29499143 0.269108 0.33326003 0.02737251 -0.004698819 -0.48645386 0.20948252 0.22615467
00000000: 4ccd 013f 99c5 94bd 5326 2bbe 3079 fdbd
00000010: 564a 48be 64f2 8d3e 809d 96bd 0528 9e3e
00000020: 3f25 3abd 82a3 bdbd b279 873e 2f68 373e
00000030: cb11 6bbe 291b a938 7238 e33e aa61 4bbe
00000040: 9042 6dbe eb5f 203d 1c01 953e 1061 acbe
00000050: 2a38 61bd c45d b3be 932d bc3c f33f 88be
00000060: e991 b13c 72e0 fd3d d698 bb3e 925f bbbd
00000070: 2cd9 963c 8e91 463e d3e6 f4bc 5841 90be
00000080: fc64 973e 0f4f 073f 1ed6 003f 5d81 f7be
00000090: 2e2e 433e 348c 553c ff60 27be b27f 203e
000000a0: c33d 03be aa33 8b3e 7862 6f3e c335 4d3d
000000b0: 932e 133e be6b b7bd a19d 083d 5713 19be
000000c0: d282 573d fe0f d33e 581d 72be dcaf 9b3e
000000d0: 5bdd 163e 549b 87be 8c86 dc3e ba67 293e
000000e0: 1bf5 0a3d be1f ca3e fa29 223e edc6 8ebd
000000f0: fe60 c8bd 1659 633e e0e9 9b3e 531b c83e
00000100: 8d82 e83e b2de 0f3e 8e2d c13e ed37 b13e
00000110: 263a c93e c923 e3bd 924f b93d c76e a73d
00000120: 1aec dd3d 9e8c 643e d39f 613e c891 813e
00000130: c644 9d3e 103a 2ebf a9c7 7ebd 6647 873e
00000140: b3a7 59bd 8995 25be efe2 02be e561 3d3e
00000150: 726f 0fbd d564 403e ca66 8e3e 8b4b b73e
00000160: 2651 34be cf01 c43c 592b 533a 9146 b63e
00000170: d8a4 a0be 4a7d 233b c3b3 44be 9e1b 823e
00000180: 4130 f6bd 02fb b6be 246a 97bd 4ce8 0b3f
00000190: bf16 babe 5ee1 243f 876e b43d 5110 b23c
000001a0: 34d3 52bc 30f5 913d 12af 843e d71f 253e
000001b0: 9a24 663e 3849 af3e a456 9ebc 1a13 7bbe
000001c0: d339 fbbd 12d1 aa3e fd8e 32bd f85e b5bc
000001d0: e259 303e 66eb ebbe 4d0e 203e 47f5 8cbe
000001e0: 8e25 353e 2d9a 943e 8305 213e 9775 03bf
000001f0: 494a bfbe c194 773d 05a1 61bd 42ee 803d
00000200: acd8 ac3e d866 503e 266b 303d c105 a7bd
00000210: fd0f 2cbe d382 053f 646d 093f bb80 363e
00000220: 396a 5bbe 51b2 ce3d 47e1 3f3e 6102 6cbe
00000230: f171 aa3d 67dd 09bd f624 1f3e c0af aebe
00000240: 5d94 cc3e 0c6f cd3d c3a0 efbd cb8b e43d
00000250: 0b32 b53b 6810 513d 0efa 5f3e bc82 1cbd
00000260: b1e6 9d3d c096 2a3e fd58 f0bc 7f5e 193f
00000270: d9c2 a4be 28e2 003e f5f4 f6be 2ef4 cb3d
00000280: 3fae b93d 7ecd 253b 1e6d c6be b8f9 7abd
00000290: 0ffe 663e 36ff 543e c00f 243f 5680 4bbe
000002a0: 69a1 c8bd 9acf 9b3e 0da2 11be aff9 ebbd
000002b0: bda0 5e3e 411e 54be 9762 7c3e 8e32 573e
000002c0: c95e 19be b851 1c3f a16b 97bd 6a34 5d3e
000002d0: f00b a9bd 3404 d4bd 1baa 6e3b 1a9c a13e
000002e0: 731c 6fbc 5e1c db3c dadf 08be 03bb 613d
000002f0: 7e24 19be 0d25 113c aa45 81be 1f3f 263e
00000300: 22c2 f43d a044 483e bb9f 93be 94c4 54be
00000310: 2d80 7dbe 3211 9abe b503 9abc bf58 923d
00000320: aab8 293f ec89 7f3e 91b2 673d a7e9 82be
00000330: 3c1e c53e 6545 4d3d 9402 1f3e 8eb5 0c3f
00000340: 470d 5abe 77bc 5cbe 2453 863d d8e8 9d3d
00000350: 3f49 983e 5b62 e73e 77ef 1b3d 6a15 37bd
00000360: 195d 4bbe d007 8ebe a376 1d3e a136 553e
00000370: 35de 95be 96b1 3dbe 649b a13d 16c4 72bd
00000380: baa7 22be 9e5d 3dbe 38bf 4bbe f68f 9c3d
00000390: 9829 0dbe ed27 963d 18f9 debd 9b29 87be
000003a0: ab1c fb3e 581c c4be 61c0 713e 7f54 0cbe
000003b0: 059e 63be 5a14 f23d 2bf4 0f3e 3ab1 e13d
000003c0: c0b2 9cbe 236b 8d3e 62c0 06bf 228f 09be
000003d0: 1be9 f33d 44d3 6e3e 122d 3f3e f016 183e
000003e0: 1e09 97be 86c8 893e 0fa1 aa3e 503c e03c
000003f0: 8df8 99bb 7b10 f9be 9682 563e 1795 673e

linear1.bias f4 [256]
-0.18565436 -0.0748535 -0.34808862 -0.112420686 -0.17815602 -0.36082187 -0.31811255 -0.11585512
0.044948295 -0.20323527 -0.06387553 -0.0099119 0.27051032 -0.02913971 0.33087984 -0.102362834
-0.2871458 -0.051148318 -0.27857718 -0.17528673 -0.23536575 0.092420466 -0.12658572 -0.13333398
-0.30765757 -0.2409388 0.006123906 -0.054500315 0.28198776 0.040810958 0.047902483 -0.24272655
-0.2835344 0.20872657 -0.18466808 -0.40910116 -0.300912 -0.06474229 0.3121457 -0.26379538
-0.27273342 0.11771152 0.107557416 -0.123645596 0.16296053 -0.15302913 -0.19738623 -0.25922057
0.114262454 0.43478718 0.16802263 -0.057481516 -0.037882127 -0.17777514 0.08726909 -0.29620522
-0.11622731 0.08156506 0.07531583 0.2413453 0.2346662 -0.15674298 0.06757245 0.08221665
-0.1374244 -0.07339745 -0.0867117 -0.2759742 0.028178625 0.13303345 -0.18691 0.21158396
0.06233041 -0.14845529 0.117461726 0.11281932 0.17661051 -0.09284584 0.058071885 -0.16581923
0.22208337 -0.3512869 -0.079655476 -0.055847283 -0.122120604 0.06613205 -0.08994816 0.16151968
-0.16992125 -0.13584885 0.17323986 -0.15491429 -0.12460226 -0.21507071 -0.1771646 -0.07157011
-0.28232422 0.17540859 -0.22054103 -0.2475484 0.22264837 -0.24659674 -0.047227245 -0.028937599
0.023079049 -0.24292244 -0.25114137 -0.17095125 -0.101204105 0.34509587 0.1329671 -0.13993202
0.008927247 -0.17682055 0.17106195 0.10660381 -0.020368496 -0.0014810683 0.111544885 -0.18941924
0.115677625 0.32835153 -0.20287809 -0.06376678 0.043530278 -0.17097026 -0.075832754 -0.18316303
0.011362854 0.17196745 0.14967956 -0.19365619 0.11552654 -0.28615013 0.038363516 0.13713717
-0.07391358 -0.14652231 -0.26863045 -0.27780107 -0.07160063 -0.05537802 0.04658268 0.14041209
0.20920113 -0.14134517 -0.3664846 -0.2160031 -0.14696994 -0.16120353 -0.19515999 -0.15898414
0.03127539 -0.02268847 -0.2673746 0.18695602 -0.26711318 -0.027175492 -0.0056045037 -0.13916999
0.16250089 -0.03550375 -0.12209908 -0.19081262 0.36351535 -0.0029630857 -0.2148632 -0.08684726
-0.05533789 -0.11466192 0.19596188 -0.039283432 0.06964836 -0.0059370752 -0.28275862 -0.09002138
0.09195017 0.32535818 0.26806659 0.08134132 -0.14158991 0.01062745 0.10673729 0.41702327
0.22525257 0.26670155 0.31606367 -0.32300147 0.10544583 -0.099777594 -0.043677196 -0.3934754
0.062397387 -0.114070594 0.13766578 -0.12755989 0.3575026 -0.12884362 0.18540984 -0.031064406
-0.35336372 -0.07163751 0.45212632 -0.14517325 -0.07344451 0.25457174 -0.0833717 -0.19904666
-0.13549529 -0.27616054 -0.1109596 0.11946885 0.12995207 0.14524814 -0.14302945 -0.095728606
-0.18850139 -0.06734861 0.23746076 0.045678716 -0.29410368 -0.24532442 -0.07219619 -0.22374235
0.08123698 0.045964256 0.16264613 -0.044291332 -0.12702113 0.2616339 -0.09375754 -0.19503209
-0.04169697 -0.16143815 0.24118122 -0.085856155 0.25274011 -0.115577504 0.083614044 0.2903889
-0.16018602 -0.13160947 0.09913527 -0.062392466 0.23208815 0.025740976 0.011004634 -0.13489619
0.019617653 0.08032137 -0.17344043 -0.19167913 -0.2905295 -0.29165724 -0.022703182 -0.24108343
00000000: 2d1c 3ebe cb4c 99bd ac38 b2be d13c e6bd
00000010: 886e 36be a5bd b8be a6df a2be 7345 edbd
00000020: b41b 383d e81c 50be 2dd1 82bd 8665 22bc
00000030: 5480 8a3e 67b6 eebc 1569 a93e 9ba3 d1bd
00000040: c604 93be e680 51bd aba1 8ebe 5d7e 33be
00000050: b803 71be f146 bd3d b09f 01be b488 08be
00000060: 4b85 9dbe a9b8 76be 0cab c83b b93b 5fbd
00000070: b360 903e 6429 273d 6535 443d 4f8d 78be
00000080: 6c2b 91be 6bbc 553e a119 3dbe b575 d1be
00000090: 2311 9abe 9b97 84bd 90d1 9f3e 3010 87be
000000a0: b7a3 8bbe bd12 f13d 1047 dc3d e739 fdbd
000000b0: 20df 263e abb3 1cbe 9e1f 4abe 8fb8 84be
000000c0: 6f02 ea3d 6d9c de3e 200e 2c3e bd71 6bbd
000000d0: 4a2a 1bbd b00a 36be 23ba b23d 36a8 97be
000000e0: 9508 eebd 950b a73d 303f 9a3d 3923 773e
000000f0: 564c 703e 3b81 20be 6d63 8a3d 3461 a83d
00000100: fbb8 0cbe 6751 96bd e795 b1bd 7e4c 8dbe
00000110: dcd6 e63c ec39 083e 5665 3fbe 77a9 583e
00000120: 2c4e 7f3d aa04 18be c68f f03d d10d e73d
00000130: 63d9 343e f625 bebd c9dc 6d3d 84cc 29be
00000140: d369 633e e0db b3be 6922 a3bd 1fc0 64bd
00000150: 5e1a fabd 3d70 873d be36 b8bd 6a65 253e
00000160: d6ff 2dbe f61b 0bbe ca65 313e daa1 1ebe
00000170: 782f ffbd 7f3b 5cbe a36a 35be 5a93 92bd
00000180: cd8c 90be 4f9e 333e 82d5 61be 547d 7dbe
00000190: effd 633e db83 7cbe 5b71 41bd 8b0e edbc
000001a0: 4610 bd3c a9c0 78be 9a95 80be d80d 2fbe
000001b0: 1944 cfbd 68b0 b03e 8728 083e 574a 0fbe
000001c0: 9643 123c 7210 35be dd2a 2f3e 1953 da3d
000001d0: d5db a6bc 6820 c2ba a571 e43d 1ef7 41be
000001e0: 64e8 ec3d b11d a83e 46bf 4fbe 2898 82bd
000001f0: ce4c 323d d412 2fbe 344e 9bbd 178f 3bbe
00000200: 442b 3a3c 3c18 303e 9945 193e cf4d 46be
00000210: 2e99 ec3d 4582 92be 1023 1d3d b06d 0c3e
00000220: 0160 97bd f209 16be ee89 89be f13b 8ebe
00000230: 5aa3 92bd 10d4 62bd 7bcd 3e3d 30c8 0f3e
00000240: d238 563e cabc 10be dfa3 bbbe eb2f 5dbe
00000250: 4a7f 16be 8a12 25be 05d8 47be bdcc 22be
00000260: a01a 003d 2cdd b9bc 53e5 88be 6671 3f3e
00000270: 0fc3 88be 239f debc fca5 b7bb 9482 0ebe
00000280: a266 263e 616c 11bd 150f fabd 6264 43be
00000290: af1e ba3e 5430 42bb 1905 5cbe fadc b1bd
000002a0: fca9 62bd ded3 eabd 3baa 483e aae7 20bd
000002b0: cda3 8e3d cc8b c2bb bdc5 90be 215d b8bd
000002c0: 5f50 bc3d 5995 a63e 0640 893e 4796 a63d
000002d0: f2fc 10be c21e 2e3c 1599 da3d 1384 d53e
000002e0: 9ca8 663e 1b8d 883e 19d3 a13e 7360 a5be
000002f0: fcf3 d73d 3258 ccbd dce6 32bd 9c75 c9be
00000300: 6794 7f3d d89d e9bd 42f8 0c3e 0f9f 02be
00000310: 950a b73e 95ef 03be 14dc 3d3e c87a febc
00000320: 17ec b4be b0b6 92bd 1a7d e73e 4ca8 14be
00000330: 136a 96bd 3a57 823e c8be aabd e3d2 4bbe
00000340: 47bf 0abe ea64 8dbe c93e e3bd 16ac f43d
00000350: 2812 053e eebb 143e 5076 12be 5c0d c4bd
00000360: 8206 41be 11ee 89bd ea28 733e 9b19 3b3d
00000370: c294 96be 5336 7bbe 99db 93bd b71c 65be
00000380: 935f a63d 0445 3c3d b58c 263e d46a 35bd
00000390: d411 02be e1f4 853e f403 c0bd 7eb6 47be
000003a0: 71ca 2abd 0b50 25be 36f8 763e 5ad5 afbd
000003b0: 2767 813e e6b3 ecbd d73d ab3d dbad 943e
000003c0: ce07 24be a2c4 06be 6f07 cb3d 3e8f 7fbd
000003d0: 84a8 6d3e bdde d23c c84c 343c 3a22 0abe
000003e0: 33b5 a03c 887f a43d 5e9a 31be 8947 44be
000003f0: 48c0 94be 1954 95be 06fc b9bc 93de 76be

linear2.weight f4 [3, 256]
-0.33388388 0.24394405 -0.25400788 -0.25259545 -0.5332019 -0.38496235 -0.16038251 -0.021598069
0.22537851 -0.28381473 -0.005070249 -0.16340852 0.10450019 -0.016072465 0.24220574 -0.2375932
0.09395996 -0.04303763 -0.35351083 -0.4477411 -0.03862703 0.22271773 0.18237889 0.26260045
-0.041293472 -0.5595772 -0.07381447 -0.54723954 0.24239652 -0.021306429 -0.06504948 0.017900996
-0.020603731 0.09999293 -0.18152893 0.12991321 -0.2263922 -0.047539007 0.21561868 0.024260534
0.009740762 0.23248422 -0.14533189 -0.107655175 0.27301466 -0.26845527 -0.25725666 0.028431013
-0.6706712 0.27742103 0.010724601 -0.07166976 -0.37344462 -0.43982396 -0.07778939 -0.38927102
-0.22468928 0.21199708 -0.1283605 0.214572 0.055249568 -0.17153475 0.15697242 0.04704103
-0.4670479 0.028503917 -0.35721555 -0.03049156 0.1818465 -0.070847794 -0.21761566 0.16160172
0.32478777 -0.2885139 0.0065843216 0.030304896 0.23564367 -0.23931922 0.31060436 -0.2199033
-0.05109083 -0.2180981 -0.32275307 -0.052482087 0.34310585 -0.21416904 -0.43652603 0.20370544
-0.08059346 -0.31432378 0.07376398 -0.2725513 -0.075388044 -0.5391441 -0.3714542 0.0048079495
0.0026879795 0.2445972 0.16947697 -0.37990254 0.1448657 -0.116914086 -0.15470728 -0.02038098
0.307303 -0.00018818842 -0.22540432 -0.50079465 -0.051921286 0.33088714 0.07077787 -0.167703
-0.22344184 -0.24167404 0.049382348 0.0071115247 -0.120466724 0.098701194 0.23471195 -0.17870028
-0.004465011 0.2821889 -0.51057756 0.0055210064 0.09318762 0.012520909 -0.3833682 -0.3417351
-0.23071977 -0.029861612 0.28889132 -0.19731016 -0.03302045 -0.33148777 0.41764146 0.22107795
-0.0074798763 0.12107856 -0.34402797 -0.06375729 -0.14695466 -0.23887295 0.3593024 0.019484267
0.009702738 -0.46615395 -0.33623904 -0.48082775 -0.19646347 -0.25852165 0.057933945 -0.2541381
0.22353046 -0.26625896 0.032501534 0.1808279 -0.5466279 -0.21567695 -0.28697056 0.13427502
0.33923677 -0.46341076 -0.11938194 0.017372973 0.2873385 -0.37232086 -0.015391275 -0.13892421
0.1415719 -0.23046404 0.23784268 -0.121642016 0.27860492 0.27145708 0.0033329711 -0.61145854
0.04306146 0.36612824 0.04945567 -0.0038780125 -0.16090034 0.04659552 0.021170221 0.17748563
0.3331254 0.33560404 0.21508533 -0.010466215 -0.09331595 0.24694675 0.21897216 -0.0038983864
-0.028320525 -0.116318025 -0.02236778 -0.32117 0.17924878 -0.10907597 -0.019916296 0.012257794
0.001289822 -0.1629207 0.47913256 -0.4611041 -0.08886558 0.30629736 -0.21782403 -0.3683688
-0.34279913 -0.183941 -0.3041392 0.41893345 0.14261462 -0.052209042 0.06648649 -0.05851526
-0.16187441 0.2842831 0.05621901 -0.12672572 -0.25091833 -0.84770954 -0.20915812 -0.18108924
-0.18402857 0.30784285 0.13628663 -0.51488453 0.4355038 -0.050601047 -0.13664965 0.01212208
-0.012504608 -0.19248322 0.12948039 -0.088837616 0.27455887 -0.16400264 0.1376515 0.071065545
-0.4778262 -0.6054223 -0.16033964 0.24730718 -0.10555361 0.06426481 -0.18872194 -0.18078183
-0.11835316 0.04708255 -0.20513754 -0.118398346 -0.1166586 -0.26565728 0.08075654 -0.17671402
00000000: d4f2 aabe 78cc 793e 520d 82be 3154 81be
00000010: eb7f 08bf c919 c5be 503b 24be 6fee b0bc
00000020: a0c9 663e 2a50 91be 5524 a6bb 9054 27be
00000030: 3204 d63d 67aa 83bc c804 783e a24b 73be
00000040: 146e c03d 3a48 30bd 5fff b4be 523e e5be
00000050: 6037 1ebd 1e10 643e 88c1 3a3e 9173 863e
00000060: 5823 29bd 7440 0fbf 0a2c 97bd e417 0cbf
00000070: cb36 783e d28a aebc a938 85bd 1ca5 923c
00000080: 28c9 a8bc 18c9 cc3d b8e2 39be f807 053e
00000090: 5bd3 67be 43b8 42bd 25cb 5c3e 07be c63c
000000a0: b897 1f3c 5810 6e3e e2d1 14be 517a dcbd
000000b0: 94c8 8b3e f872 89be 25b7 83be 28e8 e83c
000000c0: 1cb1 2bbf 210a 8e3e 3db6 2f3c 98c7 92bd
000000d0: 2234 bfbe 9b30 e1be 0b50 9fbd 884e c7be
000000e0: f214 66be c315 593e ef70 03be c3b8 5b3e
000000f0: 5f4d 623d cea6 2fbe 61bd 203e 18ae 403d
00000100: e720 efbe 0c81 e93c f5e4 b6be 70c9 f9bc
00000110: f835 3a3e a618 91bd a4d6 5ebe ec7a 253e
00000120: 954a a63e 18b8 93be 4bc1 d73b f941 f83c
00000130: 934c 713e 1910 75be 8907 9f3e 552e 61be
00000140: 9e44 51bd 1c55 5fbe e43f a5be 75f7 56bd
00000150: 92ab af3e 214f 5bbe 5780 dfbe 2998 503e
00000160: 2f0e a5bd 0cef a0be 9211 973d d88b 8bbe
00000170: 0c65 9abd 5905 0abf 3f2f bebe 018c 9d3b
00000180: d028 303b b077 7a3e 5f8b 2d3e 9682 c2be
00000190: ad57 143e a770 efbd 966b 1ebe 03f6 a6bc
000001a0: d256 9d3e 7254 45b9 64d0 66be 1434 00bf
000001b0: 6aab 54bd 0a6a a93e fdf3 903d 56ba 2bbe
000001c0: f0cd 64be 6679 77be 2545 4a3d cb07 e93b
000001d0: 42b7 f6bd da23 ca3d 5458 703e 35fd 36be
000001e0: 3a4f 92bb 107b 903e 36b5 02bf 8fe9 b43b
000001f0: 27d9 be3d 8024 4d3c d648 c4be e7f7 aebe
00000200: ce41 6cbe 57a0 f4bc 90e9 933e ad0b 4abe
00000210: 7440 07bd c4b8 a9be 1ad5 d53e 4262 623e
00000220: c019 f5bb 09f8 f73d 6f24 b0be 2f93 82bd
00000230: 487b 16be 1c9b 74be 7cf6 b73e 789d 9f3c
00000240: 3cf8 1e3c bbab eebe 8627 acbe 0e2f f6be
00000250: b82d 49be f35c 84be 254c 6d3d 641e 82be
00000260: 2be5 643e 1853 88be 5420 053d f32a 393e
00000270: ceef 0bbf 6bda 5cbe ceed 92be 647f 093e
00000280: 71b0 ad3e 2d44 edbe 857e f4bd c451 8e3c
00000290: 081e 933e d7a0 bebe b02b 7cbc 2642 0ebe
000002a0: 39f8 103e c4fe 6bbe 088d 733e 731f f9bd
000002b0: 4ea5 8e3e 6cfc 8a3e fa6d 5a3b 8c88 1cbf
000002c0: 3761 303d 2975 bb3e 0792 4a3d 4126 7ebb
000002d0: 0fc3 24be f2da 3e3d 2c6d ad3c cbbe 353e
000002e0: 6a8f aa3e 4bd4 ab3e 543f 5c3e 7d7a 2bbc
000002f0: 6f1c bfbd 9cdf 7c3e 3d3a 603e 127c 7fbb
00000300: 7200 e8bc 2538 eebd a23c b7bc 6570 a4be
00000310: fe8c 373e 3963 dfbd 8027 a3bc ead4 483c
00000320: 3f0f a93a afd4 26be dd50 f53e d615 ecbe
00000330: 28ff b5bd 02d3 9c3e 430d 5fbe d69a bcbe
00000340: 5e83 afbe 085b 3cbe 22b8 9bbe 727e d63e
00000350: 9109 123e 26d9 55bd 122a 883d b3ad 6fbd
00000360: 68c2 25be 8e8d 913e e845 663d 63c4 01be
00000370: 5e78 80be 7e03 59bf 8c2d 56be 756f 39be
00000380: fc71 3cbe 949d 9d3e b98e 0b3e 79cf 03bf
00000390: 5bfa de3e 0b43 4fbd e3ed 0bbe b09b 463c
000003a0: 21e0 4cbc 521a 45be 8296 043e 7ff0 b5bd
000003b0: fb92 8c3e 4ff0 27be 84f4 0c3e d08a 913d
000003c0: a3a5 f4be f5fc 1abf 1330 24be 183e 7d3e
000003d0: 7e2c d8bd 459d 833d 5340 41be df1e 39be
000003e0: 2463 f2bd a2d9 403d 930f 52be d57a f2bd
000003f0: b4ea eebd 3b04 88be af63 a53d 85f4 34be

linear2.bias f4 [3]
0.09296036 -0.07035507 -0.043459315
00000000: 0062 be3d 5216 90bd 6502 32bd
