Snake/model/model.pth (torch, 17609 bytes, 4 tensors)

linear1.weight f4 [256, 11]
0.25799945 -0.025412776 0.27907756 -0.03348082 0.14904778 0.023794176 -0.09250851 0.05432266
0.0004366376 0.06631822 0.25724116 0.508326 -0.029987222 -0.008855081 -0.18862207 -0.45608705
0.26019722 0.053983305 0.007908893 0.24630627 -0.46845108 -0.19631228 -0.19755049 -0.19223191
-0.18920183 0.41428903 -0.39095953 -0.4017678 0.19876052 0.51667255 -0.26803607 -0.40512082
-0.4725929 0.09704459 0.10809915 -0.14455158 -0.12928608 -0.103970274 -0.023003869 -0.34383717
0.020990804 0.016030796 -0.18000138 -0.114376515 -0.16247949 -0.04716441 -0.11916185 -0.43448302
-0.555527 -0.59735787 0.39125526 -0.5977336 -0.049670715 -0.64115494 0.33586887 0.37467828
-0.1177258 -0.3281944 -0.18639976 -0.24439216 0.16851538 0.12755448 0.15362795 -0.02319145
-0.24972373 -0.5795097 -0.3905721 -0.20333469 -0.04778758 -0.28649524 0.5313208 -0.060605764
0.27016363 -0.07068744 -0.5353316 0.09651196 -0.26142994 0.021900607 0.069129616 -0.19032548
-0.29295912 -0.29746726 -0.08620998 -0.12464351 -0.064712435 -0.10675848 -0.009147054 -0.04299933
-0.2986651 -0.18827465 0.44409677 0.30610666 0.34490973 0.32029173 0.43546247 -0.048449054
-0.22251485 0.103674024 -0.17225282 0.20618649 0.06712648 0.3769672 -0.07369018 0.0052274666
0.0006890997 -0.04412387 0.5645723 0.48698333 0.5114642 0.5559324 0.2220899 -0.096776135
0.52807736 -0.124702714 0.059784796 -0.016401064 0.04065433 0.33891487 0.24666715 0.24793433
0.20265527 0.07747949 -0.059205096 -0.040982865 -0.15342075 -0.42223737 0.37935653 0.48843837
0.28430775 0.5274494 -0.20253351 -0.33073413 0.16200584 -0.6424286 0.0404581 -0.05431577
-0.4201312 0.036166582 -0.48069012 -0.0985471 0.20008458 -0.33227858 0.3308083 0.34551337
-0.054871377 -0.23338968 0.31245017 -0.06563136 0.10243632 -0.49275085 -0.43955165 -0.16792127
-0.30613256 0.3369892 0.11987978 -0.09150779 0.19685192 -0.17690343 -0.09290439 -0.12722702
-0.15103799 0.15102239 0.117143385 0.14814667 0.18916461 0.10203665 0.5441251 -0.58623356
-0.18042418 0.03638121 0.18305472 0.072558284 -0.1518602 0.053711664 0.15893252 0.2093438
0.28881255 -0.14955774 -0.22089371 0.42618176 -0.2258485 -0.32084888 0.18522051 -0.5821569
0.06540773 0.024326293 -0.38056618 0.36401805 0.3335846 -0.12019932 -0.05311946 -0.21141131
-0.2067446 -0.37666446 0.19593237 0.16498238 0.14379005 0.20206545 -0.35329545 0.3882693
0.47258312 -0.03827213 -0.18794146 -0.08467959 -0.0033818118 0.122732565 0.15511304 0.24979767
-0.07838365 0.22246042 0.055259503 0.2188644 -0.038090125 -0.2555509 0.22069362 -0.24719147
-0.01730554 0.3657963 -0.18405513 0.312086 -0.038136587 -0.028782865 -0.046656 0.28304267
0.091934495 -0.17259198 -0.21631368 -0.21425325 -0.06802015 -0.15476641 -0.21502304 -0.11404339
0.053881828 -0.57812786 -0.17580049 -0.4679137 -0.29805058 0.45792127 -0.36032036 -0.04699499
-0.35431153 0.42218706 -0.05442175 -0.21921296 0.4617644 -0.18902141 0.18157585 0.20368524
0.1886283 -0.27921912 -0.121244416 -0.14880425 -0.004984483 0.3733973 0.22411855 -0.31820706
00000000: 8118 843e 742e d0bc 41e3 8e3e 2f23 09bd
00000010: fb9f 183e 01ec c23c 1a75 bdbd 7081 5e3d
00000020: 82ec e439 d9d1 873d 1db5 833e a721 023f
00000030: c3a7 f5bc e714 11bc 2526 41be 3e84 e9be
00000040: 9238 853e 991d 5d3d 4d94 013c b637 7c3e
00000050: d2d8 efbe 1606 49be ad4a 4abe 71d8 44be
00000060: 20be 41be b11d d43e d92b c8be 82b4 cdbe
00000070: e187 4b3e a744 043f 063c 89be ff6b cfbe
00000080: b2f7 f1be 50bf c63d 1663 dd3d 5405 14be
00000090: 9263 04be 5eee d4bd 9c72 bcbc 6d0b b0be
000000a0: e8f4 ab3c 0453 833c 4852 38be 3c3e eabd
000000b0: 0661 26be 782f 41bd 210b f4bd 8f74 debe
000000c0: 0437 0ebf 72ec 18bf 9c52 c83e 1205 19bf
000000d0: 8573 4bbd bb22 24bf 01f7 ab3e d5d5 bf3e
000000e0: 391a f1bd 1909 a8be 94df 3ebe f041 7abe
000000f0: 4c8f 2c3e a49d 023e a550 1d3e fffb bdbc
00000100: 94b7 7fbe bf5a 14bf 11f9 c7be f836 50be
00000110: e9bc 43bd 81af 92be a404 083f c03d 78bd
00000120: e352 8a3e 94c4 90bd 7e0b 09bf 10a8 c53d
00000130: 25da 85be e768 b33c d493 8d3d afe4 42be
00000140: bdfe 95be a14d 98be dc8e b0bd 1945 ffbd
00000150: f487 84bd 31a4 dabd 86dd 15bc 1120 30bd
00000160: a2ea 98be 12cb 40be a760 e33e 03ba 9c3e
00000170: 0298 b03e 47fd a33e f0f4 de3e 8472 46bd
00000180: efda 63be 0c53 d43d 0b63 30be 8d22 533e
00000190: 9c79 893d d801 c13e e1ea 96bd 2b4b ab3b
000001a0: b3a4 343a 3bbb 34bd cf87 103f e155 f93e
000001b0: 51ef 023f 9651 0e3f 896b 633e 9132 c6bd
000001c0: 1430 073f 2364 ffbd e7e0 743d 865b 86bc
000001d0: 2885 263d 4086 ad3e 5096 7c3e 7fe2 7d3e
000001e0: dd84 4f3e 91ad 9e3d 0b81 72bd a6dd 27bd
000001f0: 541a 1dbe 7f2f d8be 053b c23e 9814 fa3e
00000200: c990 913e ed06 073f f264 4fbe fc55 a9be
00000210: dce4 253e 3376 24bf 65b7 253d 367a 5ebd
00000220: 701b d7be 6923 143d 041d f6be 10d3 c9bd
00000230: f9e2 4c3e 6b20 aabe b55f a93e 21e7 b03e
00000240: cfc0 60bd b4fd 6ebe 78f9 9f3e bc69 86bd
00000250: 22ca d13d d749 fcbe ea0c e1be 8ef3 2bbe
00000260: 68bd 9cbe d989 ac3e 8883 f53d 7068 bbbd
00000270: 8d93 493e 2c26 35be a844 bebd cd47 02be
00000280: b4a9 1abe 9da5 1a3e dfe8 ef3d c3b3 173e
00000290: 5eb4 413e 97f8 d03d c84b 0b3f 6713 16bf
000002a0: 1ec1 38be 7704 153d b272 3b3e 7099 943d
000002b0: 3e81 1bbe c300 5c3d 35bf 223e 395e 563e
000002c0: 3ddf 933e aa25 19be f631 62be 7f34 da3e
000002d0: d444 67be 4e46 a4be 72aa 3d3e 3c08 15bf
000002e0: 7df4 853d ef47 c73c 92d9 c2be 9360 ba3e
000002f0: 9acb aa3e 102b f6bd ca93 59bd 357c 58be
00000300: dbb4 53be 2ada c0be 7fa2 483e 24f1 283e
00000310: b33d 133e 3fea 4e3e 24e3 b4be 3ccb c63e
00000320: 6af6 f13e 3dc3 1cbd ba73 40be 7e6c adbd
00000330: 63a1 5dbb 365b fb3d f4d5 1e3e f6ca 7f3e
00000340: 9b87 a0bd aacc 633e ca57 623d fd1d 603e
00000350: 6404 1cbd 91d7 82be 82fd 613e c31f 7dbe
00000360: 59c4 8dbc a749 bb3e f378 3cbe bcc9 9f3e
00000370: 1c35 1cbd 0bca ebbc 5d1a 3fbd f8ea 903e
00000380: 2748 bc3d f4bb 30be 5581 5dbe 3465 5bbe
00000390: 264e 8bbd 167b 1ebe 002f 5cbe 958f e9bd
000003a0: 31b3 5c3d 3000 14bf 0b05 34be 6292 efbe
000003b0: 169a 98be a874 ea3e e97b b8be d27d 40bd
000003c0: 5268 b5be e728 d83e 57e9 5ebd 5d79 60be
000003d0: 626c ec3e d48e 41be 05ef 393e dd92 503e
000003e0: c727 413e cff5 8ebe fe4e f8bd 2460 18be
000003f0: e054 a3bb ee2d bf3e 557f 653e 09ec a2be

linear1.bias f4 [256]
-0.3442544 0.12241767 -0.15595731 -0.13044491 0.20226929 0.19738995 -0.064891875 -0.041920856
0.62860274 -0.5279973 -0.35733226 -0.19166669 0.0959108 0.14955929 -0.21942945 0.082857154
0.14483991 -0.18063363 0.20698765 -0.12571865 -0.23477775 -0.14026399 0.881416 -0.1448125
0.03603168 -0.09633874 -0.14943399 -0.3428677 0.43666667 -0.28312126 -0.24007547 -0.2757086
0.24468245 -0.044430718 -0.24338593 -0.18719971 -0.090897635 0.5218768 -0.22222707 -0.021298673
-0.23514207 0.035950143 -0.05594579 -0.12281972 -0.029340873 -0.4167537 -0.3291901 -0.42727453
-0.3643428 -0.041985594 0.0299554 -0.1311712 -0.2922873 -0.29047757 -0.19371822 0.023263915
0.11249891 -0.10683149 -0.25427365 0.07248375 0.049169112 -0.113349184 0.19164477 -0.012328293
0.7598293 -0.24622406 -0.1738131 -0.13961215 0.025113767 -0.036504358 -0.16876818 -0.107167386
0.1698057 0.1096539 -0.34901333 -0.26447892 0.047268346 0.08655643 -0.14381145 -0.18737675
-0.18893825 -0.026550496 0.112525955 0.019649649 -0.023800429 -0.12488234 0.039109793 0.07352922
-0.17943397 -0.31862733 -0.03165773 0.029765682 0.4617235 0.04765983 -0.1221638 -0.22506323
-0.4717285 -0.22068205 -0.115330674 -0.32856724 -0.034832746 -0.11397508 0.5305573 0.18609263
0.071748 -0.2595572 -0.07269136 -0.37672135 0.49118784 0.020807648 -0.31307948 0.17561132
0.3748653 -0.20015721 0.018634342 -0.008457049 0.10524105 -0.17446576 -0.16443975 0.21932442
0.56895334 -0.08910913 -0.041688904 -0.018879034 -0.26273486 0.12478246 -0.21254544 -0.43513364
-0.07309624 -0.35772344 -0.34822682 0.8591405 -0.10620528 -0.07779696 -0.030560683 -0.014564886
-0.27494705 -0.08918409 -0.23083562 -0.110812604 -0.031136662 0.018805953 -0.23177135 -0.2552228
0.099623196 0.7566792 -0.19015582 -0.15525942 -0.10360682 -0.2758954 -0.17550899 -0.2868309
-0.14838807 -0.18559077 0.71921855 0.011773508 -0.4368699 0.015356761 -0.21676113 0.51917666
-0.24540089 -0.35115397 -0.06499244 0.51816326 0.8000185 -0.10695952 -0.10773393 0.034970406
0.20968872 0.043063518 -0.1404363 -0.12050746 -0.17019014 -0.2551727 -0.3413513 -0.022685925
-0.20347282 -0.18935077 -0.25543267 -0.06386655 -0.0031746698 -0.01688508 -0.1078044 -0.33734965
-0.040936604 -0.3498494 0.12966557 -0.26753786 -0.36001837 -0.2536933 -0.1827886 -0.26176217
-0.0048200614 0.19520204 -0.4530039 -0.3876429 -0.032484997 -0.26977032 -0.37307826 0.59861654
-0.42773432 0.11110664 -0.15899746 -0.23149057 -0.2542189 -0.333014 -0.30733302 0.12549615
-0.20018263 0.074493684 -0.09971337 -0.043825928 -0.47840896 0.056914892 -0.017521549 -0.30097046
-0.2472458 -0.011162695 0.21850099 -0.057247616 -0.2641926 0.029850286 0.31763145 -0.38439614
-0.22993393 -0.14373374 0.1880835 -0.4294632 0.20474444 -0.18423282 -0.017740007 -0.32662305
0.29697192 0.4375454 0.31228104 0.1376163 0.3462253 -0.16244233 0.08370452 -0.06696425
-0.044603653 0.53145844 -0.3258816 0.053343024 0.4400776 -0.25077817 0.044357873 -0.16068937
-0.28227842 0.36878276 -0.2081748 0.2797854 -0.1009387 -0.2633004 -0.38158506 -0.3919633
00000000: 1d42 b0be 1eb6 fa3d 46b3 1fbe 5a93 05be
00000010: ae1f 4f3e 9720 4a3e 08e6 84bd 34b5 2bbd
00000020: 1cec 203f d52a 07bf 41f4 b6be 4644 44be
00000030: e26c c43d 1226 193e 1db2 60be 03b1 a93d
00000040: ea50 143e 06f8 38be 92f4 533e 64bc 00be
00000050: 9469 70be 5da1 0fbe 7ba4 613f ba49 14be
00000060: f495 133d 3f4d c5bd 3905 19be 5b8c afbe
00000070: c692 df3e 45f5 90be 58d6 75be ad29 8dbe
00000080: 098e 7a3e fcfc 35bd 293a 79be 48b1 3fbe
00000090: 8a28 babd b899 053f 7e8f 63be 8e7a aebc
000000a0: 15c9 70be 7540 133d 6a27 65bd e888 fbbd
000000b0: 455c f0bc be60 d5be 9b8b a8be bac3 dabe
000000c0: 248b babe 16f9 2bbd 0765 f53c be51 06be
000000d0: aea6 95be 7ab9 94be 125e 46be f793 be3c
000000e0: d465 e63d 78ca dabd 2830 82be 5c72 943d
000000f0: 8d65 493d 9e23 e8bd 873e 443e 9cfc 49bc
00000100: 2c84 423f 2922 7cbe 10fc 31be 7df6 0ebe
00000110: 63bb cd3c 9885 15bd 91d1 2cbe 937a dbbd
00000120: 8ce1 2d3e 3992 e03d e0b1 b2be c869 87be
00000130: 749c 413d 7f44 b13d 4f43 13be b1df 3fbe
00000140: 0779 41be 6d80 d9bc 0274 e63d 4df8 a03c
00000150: 1ef9 c2bc 50c2 ffbd 9731 203d 7d96 963d
00000160: 8abd 37be 1f23 a3be 89ab 01bd 29d7 f33c
00000170: 0667 ec3e f436 433d 0431 fabd fa76 66be
00000180: 6686 f1be 7afa 61be 7d32 ecbd f739 a8be
00000190: c8ac 0ebd c46b e9bd 9ad2 073f 118f 3e3e
000001a0: 9ef0 923d aee4 84be 35df 94bd 9fe1 c0be
000001b0: f97c fb3e cd74 aa3c f44b a0be 74d3 333e
000001c0: 58ee bf3e 03f6 4cbe 0ca7 983c 6f8f 0abc
000001d0: 9f88 d73d 27a7 32be e562 28be 9596 603e
000001e0: eda6 113f d97e b6bd fcc1 2abd 34a8 9abc
000001f0: 2f85 86be f28d ff3d 83a5 59be d6c9 debe
00000200: 7bb3 95bd 8727 b7be c94a b2be a2f0 5b3f
00000210: 2782 d9bd 0354 9fbd 665a fabc 8fa1 6ebc
00000220: dcc5 8cbe 26a6 b6bd 2c60 6cbe b8f1 e2bd
00000230: 5012 ffbc f10e 9a3c 7855 6dbe 90ac 82be
00000240: 3f07 cc3d bab5 413f 35b8 42be 53fc 1ebe
00000250: d02f d4bd 2942 8dbe a1b8 33be 80db 92be
00000260: 0bf3 17be 820b 3ebe b51e 383f ace5 403c
00000270: 69ad dfbe ed9a 7b3c a1f6 5dbe c3e8 043f
00000280: 5f4a 7bbe 74ca b3be c21a 85bd 59a6 043f
00000290: 03ce 4c3f 980d dbbd 9ba3 dcbd 213d 0f3d
000002a0: a4b8 563e 5f63 303d 89ce 0fbe 9dcc f6bd
000002b0: 5346 2ebe ffa5 82be 99c5 aebe d5d7 b9bc
000002c0: 2e5b 50be 2be5 41be 12c8 82be 77cc 82bd
000002d0: 1f0e 50bb 9452 8abc 8ec8 dcbd 18b9 acbe
000002e0: 24ad 27bd 761f b3be 0dc7 043e b9fa 88be
000002f0: 5454 b8be 17e4 81be ef2c 3bbe b105 86be
00000300: 9bf1 9dbb 0be3 473e 21f0 e7be 2179 c6be
00000310: fd0e 05bd 561f 8abe 1d04 bfbe ef3e 193f
00000320: feff dabe e18b e33d 3bd0 22be dd0b 6dbe
00000330: fb28 82be d080 aabe c15a 9dbe 1082 003e
00000340: adfc 4cbe 2590 983d 8636 ccbd d182 33bd
00000350: 05f2 f4be 971f 693d 5a89 8fbc cd18 9abe
00000360: 012e 7dbe bce3 36bc b9be 5f3e 7a7c 6abd
00000370: 4144 87be 9688 f43c 97a0 a23e 92cf c4be
00000380: cd73 6bbe f02e 13be f698 403e 9ae2 dbbe
00000390: 87a8 513e 87a7 3cbe 7e53 91bc 233b a7be
000003a0: b40c 983e f305 e03e 4de3 9f3e 4aeb 0c3e
000003b0: 7144 b13e 4857 26be 466d ab3d 8d24 89bd
000003c0: 52b2 36bd a90d 083f f4d9 a6be 377e 5a3d
000003d0: da51 e13e ff65 80be 9ab0 353d c18b 24be
000003e0: cc86 90be 18d1 bc3e c62b 55be 0840 8f3e
000003f0: f3b8 cebd 4fcf 86be 1e5f c3be 6aaf c8be

linear2.weight f4 [3, 256]
-0.0039624004 -0.3833077 0.39085034 0.0026288158 0.4494601 0.08438393 -0.5098371 -0.015821094
0.28936744 -0.40890697 -0.12674385 -0.64178205 -0.4580153 -0.72092575 0.0010114874 0.09569292
-0.6765416 -0.09465443 0.11434259 -0.18056928 0.015148155 0.46327373 0.32022488 -0.0054542716
0.103315376 -0.3761776 0.034680247 -0.009779698 0.48510498 -0.0022528458 -0.26486024 0.10215793
0.09015383 -0.46951005 0.0007685394 -0.099911116 -0.03299869 0.1512614 -0.19288917 0.06208763
-0.7443327 -0.0684444 0.4616087 -0.41706678 -0.26985416 -0.29729044 -0.16822778 -0.02578303
-0.04554771 0.07106299 -0.5527638 -0.34358653 -0.28005785 -0.017669618 -0.36552322 0.1661286
0.0020905703 -0.6055566 -0.32597637 0.32572675 0.058109887 -0.40362296 0.081670545 -0.0043067858
0.42148623 0.005035991 -0.26918614 0.0022268877 0.119537145 -0.34568265 -0.08121138 0.36460993
0.2659451 0.03915046 -0.15154192 -0.08017351 0.59344965 -0.46358302 -0.36565626 -0.2230053
-0.46753326 0.019242326 0.15873142 -0.124371886 -0.8105629 -0.2804352 -0.25085118 -0.12228856
-0.17055015 -0.30074197 0.08659621 -0.05059587 0.22163521 0.31574368 -0.32982475 -0.11277989
-0.22425717 -0.38445184 0.03433394 -0.06803771 -0.42906013 -0.5042516 0.43343464 0.26118916
0.31636807 -0.036399413 0.23528494 -0.029030135 0.25022846 0.37706363 -0.060607724 0.06103894
0.29442933 -0.09141184 0.026821403 -0.7952974 0.24712427 -0.04064452 -0.6582912 0.07669961
0.40571 -0.25499272 -0.6374742 0.19874853 -0.28305548 0.30739805 -0.1643066 -0.30265284
-0.19436668 -0.14798911 -0.13136335 0.31715003 0.11681118 -0.14832252 -0.40220934 -0.57023275
-0.21222378 -0.32937086 -0.024983818 0.01090066 0.5117581 0.1341092 -0.32030725 -0.00014993791
-0.08494103 0.19419429 0.014076981 -0.7834776 -0.17054641 -0.016293736 -0.22756661 -0.034565866
-0.072058275 0.13698284 0.47733226 0.0038028834 -0.10640996 0.13035466 -0.43756828 0.24766022
-0.4498123 -0.19211899 -0.061826933 0.3071219 0.39549243 -0.020444792 -0.17708698 0.074290894
-0.08355975 -0.3555093 0.00016093439 -0.05360003 0.043502614 -0.13851109 -0.29523435 -0.28755477
-0.041989993 -0.09312798 -0.254412 0.59640133 -0.1364907 -0.38006598 0.0038034024 -0.28837636
-0.42329955 -0.013210253 0.2133009 -0.17544009 -0.08008818 0.032446817 -0.30634585 -0.089690015
-0.027623538 0.38159108 0.04463462 -0.3282354 -0.066353254 -0.012730234 -0.08237666 0.45482495
-0.003939843 0.18342517 -0.48123774 -0.19026235 -0.026545314 -0.048222803 -0.027397316 -0.5460283
-0.03154741 0.18765588 -0.34064856 0.07080848 -0.05589132 -0.049573336 0.54271895 -0.17390779
-0.08744489 -0.17823489 0.15343289 0.0595893 -0.19530126 0.22730157 0.30508864 -0.20881277
-0.03567553 0.57430834 0.2866547 -0.15435657 0.1882268 0.083010666 -0.5267316 -0.049694967
0.15259075 0.23287797 0.59062564 0.38865834 0.3099886 -0.013596253 0.59109026 -0.21183945
0.23660114 0.24941933 -0.07221979 -0.34645882 0.41670486 -0.10758803 -0.36343214 -0.13131347
-0.21606 0.26337266 -0.04876946 0.22567143 -0.01683141 0.02095047 -0.13258828 0.0107488595
00000000: 06d7 81bb e840 c4be 891d c83e 3648 2c3b
00000010: a21f e63e 7bd1 ac3d af84 02bf 3d9b 81bc
00000020: f827 943e 415c d1be 24c9 01be d44b 24bf
00000030: fb80 eabe 978e 38bf e393 843a a6fa c33d
00000040: d531 2dbf 2fda c1bd 732c ea3d 27e7 38be
00000050: f82f 783c 3732 ed3e 84f4 a33e bfb9 b2bb
00000060: 0397 d33d 5a9a c0be e00c 0e3d 073b 20bc
00000070: ae5f f83e 7ba4 13bb c39b 87be 2d38 d13d
00000080: 92a2 b83d 9f63 f0be ce77 493a 339e ccbd
00000090: a229 07bd 45e4 1a3e bd84 45be 994f 7e3d
000000a0: 968c 3ebf 942c 8cbd fa57 ec3e c789 d5be
000000b0: 532a 8abe 7436 98be e743 2cbe ef36 d3bc
000000c0: 3c90 3abd 7989 913d ee81 0dbf 93ea afbe
000000d0: be63 8fbe e0bf 90bc dc25 bbbe 9e1d 2a3e
000000e0: f301 093b c205 1bbf 60e6 a6be a8c5 a63e
000000f0: a204 6e3d aba7 cebe e342 a73d f01f 8dbb
00000100: 0bcd d73e f404 a53b c4d2 89be faf0 113b
00000110: e4cf f43d 51fd b0be 2752 a6bd 27ae ba3e
00000120: f529 883e 3c5c 203d ce2d 1bbe 0232 a4bd
00000130: 51ec 173f c15a edbe 4c37 bbbe 805b 64be
00000140: 8560 efbe 15a2 9d3c 7d8a 223e b0b6 febd
00000150: 0d81 4fbf 3495 8fbe 916f 80be 6d72 fabd
00000160: b3a4 2ebe dafa 99be 5b59 b13d 9d3d 4fbd
00000170: 57f4 623e 28a9 a13e cade a8be 25f9 e6bd
00000180: aca3 65be dfd6 c4be bfa1 0c3d 5b57 8bbd
00000190: c5ad dbbe a216 01bf 25eb dd3e 96ba 853e
000001a0: fffa a13e 8d17 15bd 89ee 703e 9bd0 edbc
000001b0: f21d 803e 7c0e c13e ce3f 78bd f803 7a3d
000001c0: 71bf 963e 2136 bbbd 8fb8 db3c 9c98 4bbf
000001d0: 250e 7d3e de7a 26bd c685 28bf af14 9d3d
000001e0: 39b9 cf3e 688e 82be 8231 23bf bc84 4b3e
000001f0: a6ec 90be 4763 9d3e fd3f 28be 50f5 9abe
00000200: 0f08 47be 758a 17be 1d84 06be 7d61 a23e
00000210: b33a ef3d dce1 17be 62ee cdbe c6fa 11bf
00000220: 3151 59be 4ca3 a8be ddaa ccbc af98 323c
00000230: 9402 033f ec53 093e 50ff a3be a738 1db9
00000240: 90f5 adbd deda 463e 23a3 663c fd91 48bf
00000250: b8a3 2ebe 717a 85bc 3907 69be f094 0dbd
00000260: 4a93 93bd 3b45 0c3e e564 f43e cc39 793b
00000270: 77ed d9bd b17b 053e f308 e0be a49a 7d3e
00000280: cc4d e6be d7ba 44be 3d3e 7dbd 153f 9d3e
00000290: fc7d ca3e d67b a7bc 4a56 35be d325 983d
000002a0: 6021 abbd 5105 b6be 7fc0 2839 b48b 5bbd
000002b0: cc2f 323d dad5 0dbe f528 97be 613a 93be
000002c0: b3fd 2bbd e2b9 bebd 4a42 82be c2ad 183f
000002d0: 38c4 0bbe 0298 c2be 8142 793b 11a6 93be
000002e0: b8ba d8be d16f 58bc 8d6b 5a3e 91a6 33be
000002f0: 4605 a4bd f4e6 043d 5dd9 9cbe 66af b7bd
00000300: c24a e2bc e85f c33e cbd2 363d 780e a8be
00000310: 37e4 87bd 7992 50bc 18b5 a8bd d1de e83e
00000320: cc19 81bb cfd3 3b3e cb64 f6be 22d4 42be
00000330: 8f75 d9bc 4685 45bd 5670 e0bc 83c8 0bbf
00000340: db37 01bd dd28 403e 7d69 aebe 0904 913d
00000350: 4cee 64bd 690d 4bbd a1ef 0a3f e214 32be
00000360: 4e16 b3bd 3583 36be 831d 1d3e e913 743d
00000370: 0efd 47be bec1 683e 9434 9c3e 04d3 55be
00000380: 8120 12bd df05 133f 68c4 923e a60f 1ebe
00000390: 87be 403e 7f01 aa3d e2d7 06bf f38c 4bbd
000003a0: c040 1c3e 9077 6e3e 3e33 173f 3afe c63e
000003b0: d3b6 9e3e d1c2 5ebc b151 173f 71ec 58be
000003c0: 9247 723e c867 7f3e f8e7 93bd 0d63 b1be
000003d0: 575a d53e 1d57 dcbd c713 babe 0a77 06be
000003e0: d53e 5dbe c8d8 863e 7cc2 47bd 6916 673e
000003f0: 06e2 89bc 52a0 ab3c 39c5 07be fc1b 303c

linear2.bias f4 [3]
0.31691718 0.2379452 0.14722945
00000000: f842 a23e e8a7 733e 51c3 163e
