Snake/model/model.pth (torch, 17609 bytes, 4 tensors)

linear1.weight f4 [256, 11]
-0.046260905 0.041682225 -0.12474378 -0.38017726 -0.0020100614 0.01625565 -0.15569048 0.24194887
-0.31205145 0.012820014 0.15222041 -0.16299348 -0.12022432 -0.35476393 -0.43696773 0.5742828
0.53795445 -0.10077807 -0.59172744 0.17432308 0.004456714 -0.40058523 -0.14155258 -0.1722141
0.36838096 -0.19721851 0.23329526 0.21340023 -0.22871113 -0.49807957 0.014961914 -0.020315664
-0.25134516 0.009642247 0.47634685 0.038049 -0.18510292 0.047689367 0.22811353 -0.3179599
0.19712399 -0.049296703 -0.23028669 0.33136842 -0.24468169 -0.16457848 0.7278399 0.41078323
0.3000114 -0.09555837 -0.19995922 0.32908663 0.3491091 -0.12430865 -0.28766897 0.18468477
-0.037413843 -0.08346105 0.36269045 0.5680419 0.018058635 -0.40693745 -0.26456597 -0.5523467
0.13434047 0.4953166 -0.0045667253 0.64794034 -0.40953162 -0.18314631 0.08306566 -0.36369672
0.21412277 -0.19962293 0.29265568 0.19186036 -0.14129335 -0.15346959 -0.38369814 0.024069875
0.2719536 -0.3651996 -0.024901504 0.037181154 -0.24868569 -0.8033428 0.0066486443 0.33357814
0.021838307 -0.08262577 -0.0035014711 -0.13465814 -0.118262984 -0.0632415 -0.16767104 0.49542958
0.4794841 0.36576545 0.45790046 -0.4290729 0.419846 0.4195033 0.23867585 0.10510102
-0.36751717 0.14700003 0.17147051 0.11678724 -0.21323965 0.22352584 -0.21145123 0.2115732
0.17527993 -0.25064188 0.11060182 -0.14432336 -0.25988525 0.20068814 -0.1455629 0.072200306
-0.0057605742 -0.41147894 0.040392965 -0.22163497 0.058837887 -0.5346599 -0.36838177 0.36998573
0.099357046 -0.58763856 -0.44409445 0.03330917 0.488193 -0.15694046 0.2723288 0.3199079
0.17760685 -0.2972923 -0.223719 -0.31083056 -0.18789876 0.43648806 0.24350254 0.11666834
0.12871984 0.2603462 -0.24304084 0.092945494 -0.41325057 -0.008684992 0.34715253 -0.31401193
-0.11063892 -0.017633349 -0.03496378 -0.56877846 0.27219087 -0.5033063 -0.3732985 0.093180135
0.20682894 -0.3363627 -0.42415595 0.09398174 0.21691649 0.53158486 -0.5361676 0.26570883
-0.08723991 -0.371482 0.07725283 -0.11085402 0.06915625 0.4807138 0.39674047 0.26140028
0.49240384 0.28144827 -0.43663862 0.046235435 -0.019332003 0.10213601 -0.510048 -0.036692943
-0.13569187 -0.05506709 0.534509 -0.1277426 0.13618036 -0.025030155 -0.33939356 0.1461607
-0.38353485 0.1082345 -0.4215366 0.21401112 -0.3898574 -0.4031356 0.060602657 0.3572569
0.39873958 0.15271735 0.12732822 0.15598387 0.060398176 0.22565201 0.22134173 0.13804074
0.16305494 -0.15071511 0.26014477 0.40160638 -0.20604484 0.010092268 -0.17823336 0.16277075
0.1966765 -0.007190843 0.22599788 -0.15637697 0.18607673 -0.1191219 -0.42279375 -0.12403178
-0.037570875 0.04963698 0.036435097 0.03909143 0.018569684 0.06863179 -0.100384876 0.1292653
-0.1962437 0.1280874 0.37333977 -0.38280407 0.11805324 0.16184098 -0.5049221 0.52389956
0.08424336 -0.030059606 0.270575 -0.33371785 0.5194754 -0.21121682 -0.20095463 -0.15120979
-0.09414716 0.119818226 0.15476574 0.20837684 0.093127206 0.4085136 0.011120932 0.365586
00000000: 137c 3dbd fbba 2a3d ab79 ffbd 98a6 c2be
00000010: 3cbb 03bb 922a 853c 536d 1fbe 72c1 773e
00000020: 35c5 9fbe 090b 523c abdf 1b3e c3e7 26be
00000030: 2b38 f6bd 9ea3 b5be 3cba dfbe 3304 133f
00000040: 62b7 093f bc64 cebd 737b 17bf c081 323e
00000050: a009 923b 8219 cdbe 29f3 10be e558 30be
00000060: 6e9c bc3e a6f3 49be f4e4 6e3e 9785 5a3e
00000070: 4033 6abe 4904 ffbe d122 753c 096d a6bc
00000080: 50b0 80be 84fa 1d3c bce3 f33e 45d9 1b3d
00000090: 9f8b 3dbe ed55 433d 9896 693e a4cb a2be
000000a0: dfda 493e 57eb 49bd 46d0 6bbe 1fa9 a93e
000000b0: d68d 7abe 4387 28be b753 3a3f 2e52 d23e
000000c0: 189b 993e 1bb4 c3bd 1cc2 4cbe 0b7e a83e
000000d0: 6ebe b23e 8995 febd 5949 93be 011e 3d3e
000000e0: 423f 19bd a1ed aabd 90b2 b93e 326b 113f
000000f0: b4ef 933c 1b5a d0be 3175 87be 9866 0dbf
00000100: 8c90 093e 239a fd3e 78a4 95bb 6bdf 253f
00000110: 21ae d1be b58a 3bbe 541e aa3d 7536 babe
00000120: 0043 5b3e f469 4cbe f7d6 953e 0b77 443e
00000130: 34af 10be 2227 1dbe 1574 c4be 302e c53c
00000140: 813d 8b3e 71fb babe 3dfe cbbc 444b 183d
00000150: 76a7 7ebe e0a7 4dbf dfdc d93b c1ca aa3e
00000160: 40e6 b23c b337 a9bd f078 65bb d3e3 09be
00000170: dd33 f2bd c284 81bd f5b1 2bbe f2a8 fd3e
00000180: f17e f53e 9c45 bb3e ee71 ea3e 71af dbbe
00000190: 0ef6 d63e 23c9 d63e 7167 743e 343f d73d
000001a0: 362b bcbe 2d87 163e f795 2f3e 262e ef3d
000001b0: 7f5b 5abe f5e3 643e ac86 58be a5a6 583e
000001c0: 957c 333e 2254 80be 3583 e23d 81c9 13be
000001d0: ae0f 85be 3181 4d3e 710e 15be c1dd 933d
000001e0: 33c3 bcbb 5ead d2be 1873 253d 47f4 62be
000001f0: ffff 703d 79df 08bf 899c bcbe c56e bd3e
00000200: b57b cb3d 7b6f 16bf 5960 e3be 326f 083d
00000210: 6ff4 f93e 00b5 20be ae6e 8b3e f8ca a33e
00000220: 92de 353e b236 98be 9816 65be 2f25 9fbe
00000230: 8868 40be 5d7b df3e bb58 793e d0ef ee3d
00000240: 22cf 033e 194c 853e b3df 78be 355a be3d
00000250: 9495 d3be 7f4b 0ebc fabd b13e 2cc6 a0be
00000260: a896 e2bd d073 90bc 2e36 0fbd 779b 11bf
00000270: 9a5c 8b3e afd8 00bf fb20 bfbe 3ad5 be3d
00000280: f7ca 533e bb37 acbe f82a d9be 8079 c03d
00000290: 5b1f 5e3e f215 083f 4842 09bf fd0a 883e
000002a0: d7aa b2bd e432 bebe bb36 9e3d 6f07 e3bd
000002b0: cba1 8d3d 1f20 f63e 9121 cb3e 42d6 853e
000002c0: 5b1c fc3e fd19 903e 198f dfbe 5e61 3d3d
000002d0: 265e 9ebc af2c d13d 8192 02bf 574b 16bd
000002e0: cff2 0abe 078e 61bd 95d5 083f f5ce 02be
000002f0: dd72 0b3e 0a0c cdbc fec4 adbe 27ab 153e
00000300: ae5e c4be 0daa dd3d a5d3 d7be bb25 5b3e
00000310: 649b c7be ca67 cebe 7e3a 783d 60ea b63e
00000320: 9827 cc3e f061 1c3e 5462 023e 3cba 1f3e
00000330: 1464 773d 5211 673e 68a7 623e 8d5a 0d3e
00000340: e0f7 263e 1055 1abe b231 853e 5a9f cd3e
00000350: 6bfd 52be 0a5a 253c ce82 36be 60ad 263e
00000360: 9065 493e 2aa1 ebbb fd6b 673e 4921 20be
00000370: e68a 3e3e 2ff6 f3bd 6c78 d8be 6004 febd
00000380: ebe3 19bd 2550 4b3d f83c 153d 561e 203d
00000390: 731f 983c d38e 8c3d 9696 cdbd 1f5e 043e
000003a0: 1cf4 48be 5829 033e 6426 bf3e e5fe c3be
000003b0: e6c5 f13d a4b9 253e 9342 01bf 481e 063f
000003c0: c887 ac3d 903f f6bc ce88 8a3e 11dd aabe
000003d0: 57fc 043f 3949 58be 0dc7 4dbe bdd6 1abe
000003e0: 3ad0 c0bd 4263 f53d e97a 1e3e bd60 553e
000003f0: 7ab9 be3d b228 d13e 9234 363c 172e bb3e

linear1.bias f4 [256]
-0.12318733 0.23278067 0.6455254 -0.09100521 -0.112285554 -0.09594042 -0.023503022 0.7025434
-0.32952955 0.040174045 -0.43046582 0.3710798 -0.17274241 -0.13596012 0.04846059 -0.2433268
-0.08299522 0.024261959 -0.3317272 -0.2990362 -0.28526747 -0.2200733 -0.07254811 -0.28149718
0.09125483 -0.092411675 -0.2405497 -0.28424194 -0.25870496 0.19877096 -0.3297985 -0.22691214
-0.22186333 -0.28505597 0.083592415 -0.21211553 -0.23626754 -0.24222256 -0.19308433 -0.31314614
-0.02607208 0.037058704 -0.12800378 0.0220404 -0.017517332 0.07033906 -0.20535626 0.33199298
-0.25318304 -0.092427574 -0.32805136 0.5275804 -0.05323598 0.13074872 -0.09091921 -0.22270837
-0.45178014 -0.18835789 0.22918251 -0.0925041 -0.28795326 0.26238048 -0.30721232 0.0143507905
-0.27834553 -0.06321752 -0.27035865 -0.18952896 0.05276508 0.13311891 -0.015149743 -0.057824463
-0.41220263 -0.08692922 0.05050184 -0.3958421 -0.20708108 0.11563519 -0.3032433 0.23616078
-0.20916301 0.37656754 -0.25558725 -0.26392007 -0.2805465 -0.10938297 0.043862417 -0.12468647
0.90600216 -0.31796286 -0.33535102 0.020054286 0.03507617 0.17971951 -0.11320239 -0.10999727
0.23507728 -0.40082547 0.06281164 0.010202479 0.4321004 -0.050944008 -0.3761796 0.058278527
-0.17919922 -0.44527578 0.20597573 0.25482646 -0.13732053 -0.33622947 0.3429734 -0.16796185
-0.19724464 -0.24913746 -0.11424954 -0.19594657 -0.013466971 0.20197372 -0.37520188 -0.27929774
-0.23830754 -0.06765665 -0.10870377 -0.12460281 -0.14150561 -0.13236889 0.6523246 -0.34999448
-0.047622852 -0.115620896 0.10969106 0.036269754 -0.2070283 0.52838224 0.22164595 -0.18945843
-0.19854406 -0.44645065 0.12134871 0.25539076 -0.30694485 -0.32539696 -0.13377704 0.074059725
-0.24482064 0.11063214 0.14731336 -0.054057337 -0.2217505 0.19619353 -0.25018018 0.12073244
-0.4552054 -0.03438063 -0.1505915 0.017493987 -0.046853248 -0.2787252 -0.20847222 -0.16803353
0.6066941 0.012534953 0.086102456 -0.008881267 -0.2596595 -0.39511955 0.8971096 -0.40326467
-0.2038036 -0.14441642 -0.19244859 -0.4564773 0.0152001055 -0.31476498 -0.06233589 -0.287935
-0.33150083 0.4329501 -0.19395845 -0.21586604 0.02218448 -0.13910685 -0.064077966 -0.026190678
-0.10981186 0.12508985 -0.27412352 -0.091389515 -0.25056356 -0.28887245 0.16754282 -0.2518494
-0.14237256 -0.3825198 -0.089618415 0.08867532 -0.10287837 0.43612996 -0.4858158 0.13121048
-0.15382068 -0.38774556 -0.12552969 0.05852129 -0.09035305 -0.10485268 -0.04158464 -0.41728944
-0.027518364 0.018055625 -0.22709107 0.10868581 -0.46401936 0.06450263 -0.3339691 -0.13928077
0.14877075 -0.2976079 0.022001494 -0.123495065 -0.03296958 0.08353247 -0.0006144028 -0.0880267
0.39189738 -0.16780695 -0.21907493 -0.050858848 -0.23007698 -0.22927226 -0.18450244 -0.17003231
0.17579447 -0.004455484 -0.23002326 0.00057715067 -0.2030333 -0.0045792866 -0.20592806 -0.07947324
0.43820092 0.24775918 -0.027232818 -0.2169034 -0.22758244 -0.27619836 -0.24049495 -0.10223877
-0.20283791 -0.120031536 -0.2942568 -0.05198702 -0.06284993 0.08391712 -0.09939885 -0.25937578
00000000: a449 fcbd 0e5e 6e3e 2741 253f f160 babd
00000010: f8f5 e5bd 697c c4bd 6989 c0bc e2d9 333f
00000020: 19b8 a8be 8a8d 243d 0466 dcbe 2cfe bd3e
00000030: 63e3 30be 2139 0bbe 9d7e 463d a92a 79be
00000040: 66f9 a9bd 04c1 c63c 26d8 a9be 461b 99be
00000050: 940e 92be e55a 61be 1a94 94bd 6620 90be
00000060: d0e3 ba3d 5542 bdbd a952 76be 2988 91be
00000070: fa74 84be 9d8a 4b3e 59db a8be a85b 68be
00000080: 2430 63be dbf2 91be 8032 ab3d d034 59be
00000090: 1ef0 71be 3109 78be e6b7 45be b154 a0be
000000a0: 1d95 d5bc deca 173d 6c13 03be 128e b43c
000000b0: 8280 8fbc ed0d 903d e948 52be fcfa a93e
000000c0: 35a1 81be ab4a bdbd 59f6 a7be 820f 073f
000000d0: f90d 5abd fee2 053e da33 babd aa0d 64be
000000e0: ba4f e7be e4e0 40be d2ae 6a3e ca72 bdbd
000000f0: 9c6e 93be bc56 863e ef4a 9dbe 941f 6b3c
00000100: 4e83 8ebe 3078 81bd 736c 8abe e113 42be
00000110: 3220 583d 5350 083e a136 78bc 58d9 6cbd
00000120: 390c d3be f207 b2bd 04db 4e3d d1ab cabe
00000130: 100d 54be 24d2 ec3d b542 9bbe 22d4 713e
00000140: d42e 56be 76cd c03e 55dc 82be 8820 87be
00000150: caa3 8fbe 2e04 e0bd 14a9 333d 9f5b ffbd
00000160: c2ef 673f 07cc a2be 21b3 abbe e348 a43c
00000170: 08ac 0f3d 6408 383e a8d6 e7bd 4046 e1bd
00000180: 19b8 703e ff38 cdbe 64a3 803d 4c28 273c
00000190: 433c dd3e aaaa 50bd 9d9a c0be 77b5 6e3d
000001a0: 0080 37be 30fb e3be 4deb 523e 9d78 823e
000001b0: c19d 0cbe 4526 acbe 369a af3e 31fe 2bbe
000001c0: 80fa 49be e41d 7fbe aafb e9bd 38a6 48be
000001d0: 92a4 5cbc 33d2 4e3e 761a c0be 1d00 8fbe
000001e0: e406 74be 928f 8abd 15a0 debd c22f ffbd
000001f0: d9e6 10be b68b 07be bffe 263f 7a32 b3be
00000200: 2e10 43bd a6ca ecbd b5a5 e03d 988f 143d
00000210: 3aff 53be 0f44 073f 28f7 623e 6401 42be
00000220: 224f 4bbe 2e95 e4be ac85 f83d 94c2 823e
00000230: e027 9dbe 6e9a a6be d9fc 08be a0ac 973d
00000240: 43b2 7abe 1a93 e23d 50d9 163e 3a6b 5dbd
00000250: 9012 63be f5e6 483e 9e17 80be 9242 f73d
00000260: af10 e9be b4d2 0cbd a834 1abe 8d4f 8f3c
00000270: 31e9 3fbd 12b5 8ebe be79 55be fb10 2cbe
00000280: 4e50 1b3f 675f 4d3c 7c56 b03d bc82 11bc
00000290: 17f2 84be 1c4d cabe faa8 653f b578 cebe
000002a0: e4b1 50be e6e1 13be 3e11 45be 65b7 e9be
000002b0: dd09 793c e028 a1be eb53 7fbd 376c 93be
000002c0: 7aba a9be a3ab dd3e 0b9d 46be fd0b 5dbe
000002d0: 3abc b53c 0772 0ebe 4f3b 83bd d58d d6bc
000002e0: 0ae5 e0bd 8e17 003e eb59 8cbe 6d2a bbbd
000002f0: de49 80be 17e7 93be 5890 2b3e 68f2 80be
00000300: 1dca 11be a3d9 c3be dc89 b7bd 689b b53d
00000310: e5b1 d2bd 6d4c df3e d9bc f8be 0a5c 063e
00000320: 2b83 1dbe 9686 c6be db8a 00be 05b4 6f3d
00000330: 050b b9bd 00bd d6bd a854 2abd f6a6 d5be
00000340: 316e e1bc 64e9 933c 908a 68be aa96 de3d
00000350: f293 edbe f419 843d fffd aabe 9e9f 0ebe
00000360: 5c57 183e 1060 98be 7a3c b43c fbea fcbd
00000370: 1c0b 07bd 1213 ab3d e00f 21ba 5847 b4bd
00000380: c6a6 c83e 96d5 2bbe 2e55 60be 5e51 50bd
00000390: 4d99 6bbe 59c6 6abe 35ee 3cbe f31c 2ebe
000003a0: 7703 343e 4fff 91bb 388b 6bbe ed4b 173a
000003b0: f6e7 4fbe d70d 96bb cede 52be dec2 a2bd
000003c0: df5b e03e 95b4 7d3e 5c17 dfbc ed1b 5ebe
000003d0: 5f0b 69be df69 8dbe 4f44 76be 8f62 d1bd
000003e0: beb4 4fbe 18d3 f5bd d4a8 96be 57f0 54bd
000003f0: 77b7 80bd bddc ab3d a091 cbbd e7cc 84be

linear2.weight f4 [3, 256]
-0.08524081 0.3842484 0.38210905 -0.181187 0.3139086 -0.65105146 -0.017789572 0.37509912
-0.28776088 0.20053397 0.1467828 0.3345233 -0.33901897 -0.032023415 0.2757154 -0.36393452
-0.34806556 0.1889504 -0.06342657 -0.07411752 -0.013903195 -0.32688263 -0.061678026 -0.14639445
-0.23827936 0.15449667 -0.030137366 -0.022161946 -0.09338587 0.41254506 -0.0569985 0.41023752
-0.5750634 -0.08091392 -0.43879145 -0.014565878 0.11923484 -0.12598744 -0.16629957 0.0112889595
-0.21368714 0.13154715 -0.0031704796 0.33823884 -0.011138157 0.1686489 0.008472423 0.33576873
-0.01990756 -0.11403904 -0.073701724 0.12787846 0.5172308 0.3717222 -0.2787082 -0.017227108
-0.12374653 0.013483816 0.3284273 0.30959317 -0.17435007 0.14513406 -0.09063324 0.5460606
0.0024530068 -0.66567963 -0.35514292 -0.12748535 -0.0051573343 0.05917993 0.2014895 0.4415683
0.015138468 0.04229538 0.08033629 -0.13992496 -0.062845476 -0.77950716 0.050760683 0.26513848
-0.12857716 0.47288156 0.032607898 -0.14469694 -0.07241074 -0.3709535 0.16186535 -0.04766805
0.36021286 0.0066834455 -0.00816311 0.25311336 -0.13358216 0.104547575 0.1610147 0.13906801
0.25103486 -0.25351438 0.40656197 -0.6076066 0.2576973 -0.003784485 -0.080510065 0.095729604
-0.009713066 -0.1910176 0.18213809 0.3982613 0.023575203 -0.40649727 0.31879133 -0.21955986
-0.03848569 -0.47973812 -0.023356907 -0.068628415 0.2792809 0.3645523 -0.24754274 -0.08966045
-0.25382438 -0.07122318 0.009918897 0.0027588278 0.012225066 -0.44144222 0.14216991 0.01702014
0.11053342 -0.020275505 0.09506926 -0.70652413 -0.033940565 0.13103978 0.13978048 -0.33669314
-0.008149825 -0.02687543 0.67379224 0.11001343 -0.06604763 -0.0013377275 -0.007485379 0.2700189
-0.15249014 0.581112 0.04549694 -0.010328737 -0.39028725 0.3481064 -0.07509223 0.09529097
-0.30069983 -0.0054691476 -0.030441215 0.44850957 0.32000676 -0.20624855 -0.26385695 -0.16542089
0.21356718 0.0042537292 -0.03707933 -0.05328743 -0.31911787 -0.36924443 0.17601138 -0.17472883
-0.0025140955 -0.4725236 -0.06543081 -0.36642644 0.41889673 0.011885299 0.03231654 -0.07091672
-0.03160309 0.5364543 -0.6060412 -0.21193768 -0.3338639 -0.18286526 0.17494853 -0.0047257026
-0.078909464 0.08527691 -0.029517233 -0.6977306 -0.45661572 -0.49797994 0.40756583 0.04006344
-0.1223075 -0.09487759 -0.29552555 -0.4802025 -0.002506636 0.27414003 -0.23850133 0.31824777
-0.14610864 0.044149473 -0.019911103 -0.545092 -0.042644884 -0.61633414 -0.086666845 -0.13176546
-0.033702366 -0.2916736 -0.55335546 0.023539238 -0.16328533 0.34832916 -0.28030992 -0.48251176
0.25955483 -0.058792863 0.1328662 -0.31392804 -0.120027564 0.21434216 0.4427116 -0.008698825
0.30894566 -0.40113685 -0.083347134 -0.073578246 0.024245717 -0.07237811 0.0027106504 0.009049944
0.36161268 0.53186166 -0.16857171 0.016820896 -0.005366276 -0.5587081 -0.13167815 -0.0136172585
0.37294483 0.15669426 0.10217648 -0.13375446 -0.08376867 0.017415091 -0.14047018 0.26026645
-0.028203253 -0.6283215 -0.17183255 -0.31112292 -0.026984757 0.25310796 0.2706142 -0.105606765
00000000: bc92 aebd 35bc c43e cca3 c33e 1689 39be
00000010: a1b8 a03e 4fab 26bf 70bb 91bc fe0c c03e
00000020: 6555 93be c758 4d3e 3b4e 163e a346 ab3e
00000030: e593 adbe fc2a 03bd 922a 8d3e a055 babe
00000040: a635 b2be 377c 413e cae5 81bd edca 97bd
00000050: 3aca 63bc 295d a7be 19a2 7cbd 6de8 15be
00000060: 81ff 73be 6034 1e3e a3e2 f6bc f88c b5bc
00000070: 1741 bfbd 1b39 d33e 4277 69bd a70a d23e
00000080: 5b37 13bf 33b6 a5bd 46a9 e0be b8a5 6ebc
00000090: 6531 f43d da02 01be 6f4a 2abe 54f5 383c
000000a0: cdd0 5abe 4cb4 063e d2c7 4fbb a42d ad3e
000000b0: d17c 36bc 4cb2 2c3e ebcf 0a3c e1e9 ab3e
000000c0: 2e15 a3bc 4d8d e9bd eef0 96bd 92f2 023e
000000d0: 3d69 043f 5f52 be3e d7b2 8ebe dd1f 8dbc
000000e0: d26e fdbd 39eb 5c3c a027 a83e ff82 9e3e
000000f0: d388 32be 069e 143e ec9d b9bd a1ca 0b3f
00000100: a0c2 203b fb69 2abf 4bd5 b5be 858b 02be
00000110: dbfe a8bb a766 723d 4353 4e3e 3d15 e23e
00000120: 5607 783c ec3d 2d3d 5a87 a43d 7d48 0fbe
00000130: 21b5 80bd c88d 47bf 6fea 4f3d 3bc0 873e
00000140: bba9 03be 881d f23e dc8f 053d 6f2b 14be
00000150: 154c 94bd 9eed bdbe 08c0 253e 933f 43bd
00000160: d26d b83e ce00 db3b 91be 05bc 1398 813e
00000170: c3c9 08be 0a1d d63d 0ae1 243e d867 0e3e
00000180: a487 803e a3cc 81be e428 d03e 1b8c 1bbf
00000190: e7f0 833e 1f05 78bb 76e2 a4bd e20d c43d
000001a0: 8d23 1fbc 1e9a 43be 6882 3a3e e8e8 cb3e
000001b0: c920 c13c 6920 d0be 9e38 a33e 4dd4 60be
000001c0: 2ca3 1dbd 3ca0 f5be fc56 bfbc 0e8d 8cbd
000001d0: e8fd 8e3e 99a6 ba3e d87b 7dbe e69f b7bd
000001e0: 45f5 81be 75dd 91bd df82 223c 73cd 343b
000001f0: a54b 483c b704 e2be fd94 113e d26d 8b3c
00000200: 595f e23d d118 a6bc acb3 c23d c4de 34bf
00000210: 4305 0bbd 4b2f 063e 9d22 0f3e 0b63 acbe
00000220: d886 05bc dd29 dcbc a67d 2c3f b94e e13d
00000230: fb43 87bd b056 afba e947 f5bb eb3f 8a3e
00000240: 6026 1cbe c2c3 143f 005b 3a3d dd39 29bc
00000250: bbd3 c7be 013b b23e f5c9 99bd e927 c33d
00000260: 54f5 99be 8936 b3bb db5f f9bc 0ca3 e53e
00000270: edd7 a33e d232 53be 4218 87be 1864 29be
00000280: 5bb1 5a3e de62 8b3b 7fe0 17bd ec43 5abd
00000290: 6b63 a3be 9b0d bdbe 543c 343e 1dec 32be
000002a0: 86c3 24bb 9dee f1be 9700 86bd 3f9c bbbe
000002b0: a279 d63e 8fba 423c 595e 043d c93c 91bd
000002c0: 3e72 01bd 1255 093f 8425 1bbf 3106 59be
000002d0: 36f0 aabe 0841 3bbe b525 333e 11da 9abb
000002e0: 499b a1bd a9a5 ae3d 20ce f1bc 799e 32bf
000002f0: 89c9 e9be 3af7 febe 78ac d03e 9019 243d
00000300: 5b7c fabd 2f4f c2bd 204f 97be 1add f5be
00000310: 6046 24bb 155c 8c3e b139 74be 5ff1 a23e
00000320: 819d 15be 14d6 343d 9c1c a3bc 268b 0bbf
00000330: 67ac 2ebd 13c8 1dbf 637e b1bd 86ed 06be
00000340: 7e0b 0abd 3e56 95be b4a8 0dbf 5cd5 c03c
00000350: 4534 27be 3358 b23e c884 8fbe c80b f7be
00000360: 5fe4 843e c9d0 70bd 140e 083e 2dbb a0be
00000370: 03d1 f5bd 837c 5b3e 18ab e23e 8485 0ebc
00000380: 202e 9e3e cf61 cdbe e7b1 aabd 31b0 96bd
00000390: f49e c63c f93a 94bd 2ba5 313b 3746 143c
000003a0: 4c25 b93e 1628 083f 109e 2cbe facb 893c
000003b0: 96d7 afbb 7e07 0fbf a3d6 06be ec1a 5fbc
000003c0: a0f2 be3e 7674 203e e741 d13d eef6 08be
000003d0: e98e abbd 18aa 8e3c 6ad7 0fbe a541 853e
000003e0: 820a e7bc aed9 20bf dff4 2fbe 814b 9fbe
000003f0: 230f ddbc 5e97 813e f28d 8a3e 5c48 d8bd

linear2.bias f4 [3]
0.25469118 0.121032774 0.13048114
00000000: e266 823e 08e0 f73d d99c 053e
