Snake/model/model.pth (torch, 17609 bytes, 4 tensors)

linear1.weight f4 [256, 11]
000000 93 3a 33 3d 38 3b f9 3c c5 44 08 be e3 ae 35 be
       0.043757033 0.030423746 -0.13307483 -0.17742495
000010 c9 ee 58 be 00 a9 93 be 94 de 4a 3e 78 90 7e bd
       -0.2118484 -0.28839874 0.1981147 -0.062149495
000020 fd 62 35 be ed a9 d2 3d 44 de 14 3e e0 41 07 bc
       -0.17713542 0.10286317 0.14537913 -0.008255452
000030 34 a4 91 3e 24 46 92 3d 99 d3 62 be 51 71 0f bd
       0.2844559 0.071422845 -0.2215103 -0.035020176
000040 45 f9 f9 3d 1c 81 a3 bd 09 e4 85 3e d7 a3 3c be
       0.122057475 -0.0798361 0.2615054 -0.18421875
000050 de 57 00 3d c3 de 61 be 5c 3b 1d 3e eb 76 97 3d
       0.031333797 -0.22057633 0.15354675 0.07395729
000060 97 bf 2b 3e 87 de ab 3d d0 1a 0d bb 89 1c 63 3d
       0.16772304 0.08392053 -0.0021530874 0.055447135
000070 f3 65 88 be 80 12 5a be 77 ce 73 3d 52 21 90 be
       -0.2664028 -0.2129612 0.059523072 -0.2815042
000080 e7 34 48 3e 54 dd 62 3e 35 6a 31 be 33 41 96 3e
       0.1955143 0.22154742 -0.17325671 0.29346618
000090 17 e1 c5 3d 80 e8 6d bb 89 30 02 3e 2d bd 3c 3c
       0.09662073 -0.003630191 0.12713827 0.011519712
0000a0 63 17 26 3e 04 e0 5e be 76 71 9b be 4f d3 8a be
       0.16219859 -0.21765143 -0.3036 -0.2711434
0000b0 47 88 33 be 93 69 84 3e 9a ea 62 3e 7a a3 9a 3e
       -0.17532454 0.25861797 0.22159806 0.30202848
0000c0 48 d0 5d be 1a 46 2e 3e c4 df 5d be 0c 4f e7 3d
       -0.21661484 0.17018929 -0.21667391 0.11294374
0000d0 d9 fc 86 be 19 c7 df bd 78 ec 0c 3e d4 4b 59 3e
       -0.26364782 -0.10926647 0.1376208 0.21220332
0000e0 65 0c 3c be 8e 4a 2e 3e 19 ee 2a 3e e4 ae f9 3d
       -0.18364103 0.17020628 0.1669239 0.12191561
0000f0 20 c3 5c bc 40 21 04 3c e8 06 c6 3d d8 de 86 be
       -0.013474256 0.008064568 0.09669286 -0.2634189
000100 b4 01 6c 3d a0 96 14 be 43 e6 f2 bd 59 c5 72 be
       0.05761881 -0.14510584 -0.11860325 -0.23708095
000110 53 95 ca 3d e1 81 7d be 6c 1a 6b 3a b0 94 f1 3d
       0.098917626 -0.24756576 0.0008968476 0.11795938
000120 07 ea be bd 87 98 cc bd 50 20 aa bc e3 14 0d 3c
       -0.09321981 -0.0999003 -0.02076736 0.008610937
000130 76 0f 44 be 8a 3f 97 be 4c 00 88 be 6e de 3a be
       -0.19146523 -0.29540664 -0.26562726 -0.18248913
000140 83 d7 07 be f2 16 cd bd 51 7b 3c 3a 48 df e7 3c
       -0.13265805 -0.10014142 0.00071900064 0.028304711
000150 99 ea f1 bd 1c 70 9c bd dc 3b 98 be c9 2b 55 be
       -0.11812324 -0.07638571 -0.2973317 -0.20817484
000160 73 f7 95 3e 7b 6e fa 3d b3 43 27 3e 42 41 2c 3e
       0.2929035 0.12228104 0.16334419 0.16821769
000170 6b 72 88 3e 77 da fb bc e9 04 8e 3e 9f 1b 36 be
       0.26649794 -0.03074382 0.2773812 -0.17783974
000180 c6 ba 1b 3e 72 7c 77 bd 75 33 86 be fc 7c 1f 3e
       0.15207967 -0.060421415 -0.26211134 0.15575022
000190 e6 2f 7b 3e 5a 82 85 3e 4f f0 20 3e 85 fb e6 3d
       0.2452999 0.26076013 0.1571667 0.11278442
0001a0 ed 87 dd bd 46 26 81 3d 69 11 33 be c6 d9 ef bd
       -0.108169414 0.06306128 -0.1748711 -0.11711459
0001b0 72 1a 21 be 63 51 25 bd 14 67 2f 3e 04 21 0e be
       -0.15732744 -0.04036082 0.17129165 -0.13879782
0001c0 ca e6 27 be f8 18 36 3e 3a f5 8a be b3 94 38 3d
       -0.16396633 0.17782962 -0.27140218 0.045063686
0001d0 57 3a 82 be 89 de 9b bd 64 2e 13 bd 14 12 50 3e
       -0.25435135 -0.076108046 -0.035932913 0.20319396
0001e0 c4 56 98 3d f7 7f 1f be 66 ce f5 bc a8 45 61 3e
       0.07438424 -0.15576158 -0.030005645 0.21999228
0001f0 bc 6e 5b 3e 50 4e 65 3e 7f 10 f3 bd 03 8b 97 3e
       0.2142896 0.22393155 -0.11868381 0.29598245
000200 94 15 f8 bc f7 f3 37 3b 4c 6a 38 3e 28 de 47 bd
       -0.030283727 0.0028068998 0.18009299 -0.04879585
000210 e4 ac 1a 3e 3e dc 2a be ec d7 8b 3e f1 09 a7 3d
       0.15105015 -0.16685578 0.27313173 0.08156193
000220 d8 54 95 be 80 af 67 bb 6e 45 f0 bd 07 f4 d8 bb
       -0.29166293 -0.003535241 -0.11731993 -0.006620887
000230 ce 11 bc bd 0f 4f ae 3c 33 d4 3f be ff c6 4e 3e
       -0.091830835 0.021277932 -0.18733291 0.20193098
000240 bc 2d 5f bd 31 46 53 bd 1a d6 11 be ea 78 12 3e
       -0.054486975 -0.05158061 -0.1424183 0.14303938
000250 0e 70 04 3c 61 88 7a 3c c4 65 ab bd 3d 53 88 3e
       0.008083357 0.015291304 -0.0836902 0.26626006
000260 23 af 41 be 57 05 83 3d c5 2d 98 be 7a 78 6c 3d
       -0.18914466 0.06397503 -0.2972242 0.057732083
000270 0a cb 8a 3e cd 65 aa 3d cd ba 1f 3e c2 c9 4f bd
       0.27108032 0.08320198 0.15598603 -0.05072952
000280 29 7d 7b 3e 41 3a 2c 3e 31 66 f0 bd 1c 8b 91 3e
       0.24559464 0.16819097 -0.117382415 0.28426445
000290 7a e9 83 bd 2a 9c 06 3e 93 68 2a 3e 6c c2 38 be
       -0.064410165 0.1314551 0.16641454 -0.18042916
0002a0 2b d5 3a 3e 27 1b 87 3e 3b 2b 78 be 62 61 a3 3d
       0.1824538 0.26387903 -0.24235241 0.07977559
0002b0 9d 1b 20 3e b2 36 50 3e 90 04 14 be 96 49 7a bd
       0.15635534 0.20333365 -0.14454865 -0.061105333
0002c0 80 be 02 bd e0 4a d1 3d a1 1a 7b 3e 33 aa ae bd
       -0.031919956 0.102193594 0.24521877 -0.08528557
0002d0 ec ef 88 3e f3 9d 56 be 4f eb 8d be fb 78 bd 3c
       0.26745546 -0.2095869 -0.2771859 0.023128977
0002e0 a7 ff 5e 3e 38 7f 56 be 15 22 a1 bd fa f6 31 3e
       0.21777211 -0.20946968 -0.07867829 0.1737937
0002f0 38 9a b4 bd f1 fc 56 3e d5 e1 16 3e 9d 3c 82 3d
       -0.088184774 0.20994927 0.14734586 0.06359217
000300 05 5a e1 bd a9 3b 51 be 44 60 60 3e a4 3b 39 3e
       -0.11003498 -0.20432915 0.21911722 0.18089157
000310 bf 8d 64 be 0f 92 84 3e 73 b4 c6 bc e7 06 be 3d
       -0.22319697 0.25892684 -0.024255967 0.0927866
000320 10 8a 21 3d 3a 9a 57 be e8 75 a0 3d ca db ec 3d
       0.039438307 -0.21054927 0.07834989 0.11565359
000330 a2 1e 5c 3e b7 b7 26 be 68 15 f9 bd a1 35 82 3e
       0.2149606 -0.16281019 -0.12162286 0.2543154
000340 99 c4 b7 bd 90 5f 2b bd 02 ba 10 3e 28 04 0c bd
       -0.08973045 -0.041839182 0.14133456 -0.03418365
000350 42 31 22 3e c0 db 5a bc 02 33 5f be 44 f3 80 3e
       0.15839103 -0.013358057 -0.21796802 0.25185597
000360 b8 26 07 bd 0d d6 8b be 40 d8 2f bd 2c 77 6d be
       -0.03299591 -0.27311745 -0.04293084 -0.23189992
000370 f5 e5 37 bc 31 62 70 3d a1 5e 3d 3e 2e 5e f6 bd
       -0.01122426 0.058687393 0.1849313 -0.12029682
000380 e1 04 11 3e 90 06 b1 3d 1b 69 97 3e c0 83 49 3c
       0.14162017 0.0864383 0.29572377 0.012299478
000390 20 d7 2c 3e bb 1e 55 be bc 47 89 be 1a 23 69 3b
       0.16878939 -0.20812504 -0.2681254 0.00355739
0003a0 80 aa 68 bb b8 78 0d bd fa 3a 75 be b7 d3 71 3e
       -0.0035502017 -0.034538954 -0.23948279 0.23615919
0003b0 e1 cf 30 be bb a9 81 be 0b 73 d5 3b f6 4c 82 3d
       -0.172668 -0.25324807 0.0065139583 0.063623354
0003c0 7f fe 3b 3e b3 56 a3 bd 66 ab c4 bd 4c 08 92 bd
       0.18358801 -0.07975521 -0.09603004 -0.07130489
0003d0 fa b3 43 3e f0 bb 90 be 82 c8 0b bd e4 3a c9 bd
       0.19111624 -0.28268385 -0.034126766 -0.098256856
0003e0 1e d4 fa bd 82 e9 19 3e 28 e5 b0 bd ef 30 2e be
       -0.122474894 0.15030482 -0.08637458 -0.17010854
0003f0 60 62 42 be cc 20 22 3e 00 b3 b5 bb 6e f6 8f bd
       -0.1898284 0.15832824 -0.00554502 -0.070294246

linear1.bias f4 [256]
000000 f5 99 e0 3d aa 69 f0 39 9e 94 73 3d 2d 97 b0 3d
       0.10966865 0.00045855093 0.059467904 0.086225845
000010 19 f6 14 3e 20 3d 9a be 10 58 82 3e 7c b6 89 3e
       0.14547004 -0.3012476 0.2545781 0.26897037
000020 f1 97 86 3c f8 a1 62 3e cb 85 03 be 9c fd 00 3c
       0.016429873 0.22132099 -0.12844007 0.007872965
000030 8b 05 b0 bd b6 be 95 3e b8 29 74 3e 66 af 1e be
       -0.08594807 0.29247063 0.2384404 -0.15496597
000040 bb 78 c5 3d df d4 72 be 3c 8e ca bd dc ee 69 be
       0.09642168 -0.23714016 -0.0989041 -0.22845024
000050 5e d7 81 3d 60 82 3e 3e fa 6c 0f 3d 4f c1 88 be
       0.06339906 0.18604422 0.035016038 -0.26709983
000060 29 2b 79 be a5 cb d4 3c 5c 8d 5d 3e 90 96 53 bd
       -0.2433287 0.025976012 0.21635956 -0.05165726
000070 fc 33 ba 3d 79 58 a9 3d 09 cd fe bd d4 0b 15 3e
       0.090919465 0.08268828 -0.12441451 0.14555293
000080 de 6a 8c bc 5c cc 56 3e 95 a3 85 3e eb f5 be bb
       -0.017140802 0.20976394 0.26101366 -0.0058276556
000090 02 28 78 bc a7 75 8b be 1d 68 b4 bd d0 ad 34 3e
       -0.015146257 -0.272382 -0.088089205 0.17644429
0000a0 23 39 74 3e 00 4c 73 be ba 67 46 be 56 4b 20 3c
       0.23849921 -0.2375946 -0.19375506 0.0097835865
0000b0 e0 ac 7f 3e 78 1e 69 3e 3f ba 97 be bb 97 8b 3e
       0.2496829 0.22765529 -0.29634282 0.272642
0000c0 09 13 42 3e cc 92 f9 3d 31 33 40 3e 48 cb 04 be
       0.18952574 0.121862024 0.18769528 -0.1296817
0000d0 03 f3 f9 bd 22 89 5c be bd 58 9d 3e 74 12 9b be
       -0.12204554 -0.21536687 0.30731764 -0.30287516
0000e0 57 f4 94 bd 88 9c 18 bc b4 74 ab 3d 53 dc 8a 3d
       -0.072731666 -0.009314664 0.08371869 0.06780305
0000f0 79 da 21 bd 9e 6e 7d bd 2e 4c 4e be 00 cb 98 3e
       -0.039514992 -0.06187307 -0.20146248 0.29842377
000100 a4 20 7d 3e e8 fc 82 be ab 41 2c be b2 d8 f9 3d
       0.24719483 -0.25583577 -0.16821925 0.121995345
000110 0b 22 80 be ed 48 50 be 02 7d a8 bd ec 89 5c bd
       -0.25025973 -0.20340319 -0.08226968 -0.05384247
000120 1a 52 58 3e 91 23 f6 bd f9 7d 85 be 0e ab 89 3c
       0.2112507 -0.120185025 -0.26072672 0.016805198
000130 8b 8e 24 be 1f 20 84 bd c3 f2 4e be 5f 53 94 3d
       -0.16070001 -0.06451439 -0.20209794 0.07242464
000140 73 fb b4 39 1c f6 df bd d5 38 5b 3e 02 79 61 be
       0.0003451962 -0.109356135 0.21408398 -0.22018817
000150 b9 e4 68 be d8 7e f6 bd 06 09 89 be 2f 59 5d 3c
       -0.22743501 -0.12035912 -0.26764697 0.013510033
000160 28 14 b5 bc b7 d5 8e be a7 05 37 3d 5f bb 02 bd
       -0.022104338 -0.27897426 0.044683125 -0.031916972
000170 4b 35 89 3d 8c 32 10 3e 77 fe 89 be 00 54 49 3e
       0.06699618 0.14081782 -0.26951954 0.1966095
000180 3b fa 09 bd fb 15 8f be b7 45 17 3c b9 6b fc 3d
       -0.033685904 -0.27946457 0.00923293 0.12325234
000190 ee 41 80 3e f5 66 89 3e 17 fc 80 3e 95 74 0d 3e
       0.250503 0.26836362 0.2519233 0.13814004
0001a0 51 c3 8b 3c e5 41 8e be 5b 6e 1f 3e 0f 57 73 3e
       0.017060908 -0.2778465 0.15569441 0.23763679
0001b0 f6 00 02 3e 55 83 eb 3d 3b 94 cc 3d 72 86 12 3e
       0.12695679 0.11499659 0.0998921 0.143091
0001c0 ef 6f 1a 3e 07 da 20 3e c7 7d 97 be 39 51 20 3e
       0.15081762 0.15708171 -0.29588148 0.15655984
0001d0 fd 0e 8d bd 4d 98 82 3e f1 47 58 3d 7e ad 06 3e
       -0.068876244 0.2550682 0.052802984 0.1315212
0001e0 a4 d0 b8 bc d0 2b 48 3e 1c 0b 80 be 84 5c 2a 3e
       -0.022560425 0.19547963 -0.25008476 0.16636854
0001f0 6a d7 6f be 78 05 0a be 42 df 99 3c 20 2b 2b 3b
       -0.23422018 -0.13478649 0.018783215 0.0026118234
000200 ed 2c 1c 3e a6 b0 46 be 46 b5 de bd da 17 33 be
       0.15251513 -0.19403324 -0.10874419 -0.17489567
000210 3d 98 5e 3e f0 46 92 3c bd a8 29 be 0e 73 1c be
       0.21737762 0.017856091 -0.16568275 -0.15278265
000220 48 36 91 3e 6a 9e 2f 3e 4c 6c 6e 3e 85 22 ca 3d
       0.28361726 0.17150274 0.232835 0.09869865
000230 bd 0d 15 3c 40 3b 4e 3c ab 6b ec 3d 36 ac 7e be
       0.009097514 0.0125873685 0.115439735 -0.24870381
000240 e8 2d e5 bd 48 28 5f be e9 de 06 be ca d9 23 bd
       -0.111903965 -0.2179271 -0.13170971 -0.04000262
000250 01 9e c1 bd 01 6b 07 3e 7f 4d 66 be 43 42 74 be
       -0.09453965 0.13224413 -0.224905 -0.23853402
000260 d7 e3 94 be 8d db 63 3e a7 61 12 be 91 a5 c0 bd
       -0.29080078 0.2225172 -0.14295064 -0.09406579
000270 a4 d7 df bb 72 2b 61 3e 62 7f 5c 3e 3e 37 b9 3d
       -0.0068311263 0.2198923 0.21532968 0.0904374
000280 87 b2 61 bd b2 52 71 3e 4d 19 15 3e 26 2d 39 be
       -0.055101898 0.23566702 0.14560433 -0.18083629
000290 51 5c ed bc 29 9a ff 3d 53 31 fd bd d5 f5 93 bc
       -0.028974684 0.124805756 -0.123629235 -0.018061558
0002a0 79 b7 2c be 44 86 ff bd 7e 43 1a be 39 93 7a 3e
       -0.16866864 -0.12476781 -0.15064809 0.24470223
0002b0 ae 00 27 3d 8a 04 61 be 90 50 25 3b 87 5b ee 3c
       0.040772133 -0.21974388 0.002522502 0.029096378
0002c0 f3 13 47 3d 62 23 5a bd b3 17 40 be 8a b1 86 be
       0.04860301 -0.0532564 -0.1875904 -0.26307327
0002d0 23 c9 eb bd 2d dc b2 bb 42 2c 16 3e 1c 5c 18 3d
       -0.11512973 -0.005458376 0.1466532 0.037197217
0002e0 a9 2a 45 3e 30 c4 68 be 56 de 88 bd 87 61 80 3e
       0.19254555 -0.2273109 -0.06683032 0.25074407
0002f0 b3 71 d4 3b b3 45 c8 3d 71 ab fc 3d 93 bf 7b 3e
       0.0064832806 0.09778919 0.12337387 0.24584799
000300 c9 45 cf bd 0b 49 56 3e 5b 6d 97 be a3 22 03 be
       -0.10120732 0.20926301 -0.2957562 -0.12806182
000310 2b 62 92 3e 6b bc b6 3d 15 dd 6c be bf f4 73 be
       0.2859052 0.089226566 -0.23131211 -0.23823832
000320 c5 c4 80 3e dc 7c 16 3d 78 ae 52 3e b0 7d c9 bd
       0.25150123 0.03674017 0.20574367 -0.09838426
000330 2a 6d 12 3e d1 87 8a bd 77 2a 53 3e 31 8d e8 3c
       0.14299455 -0.06764186 0.20621668 0.028387638
000340 98 cd 7c 3e d8 a0 d8 bc 6a 9d 62 3e d6 d2 1b 3e
       0.24687803 -0.026443884 0.22130361 0.15217146
000350 49 8c 81 be 76 96 be 3d bd 00 31 be 80 ed 1d 3e
       -0.25302342 0.09306042 -0.17285438 0.1542263
000360 bc 91 40 bd e4 96 36 3d 3f d2 ff 3d a7 5a bb bd
       -0.047013983 0.044577494 0.12491273 -0.0914815
000370 91 8f 95 3e 16 5e ec bc e2 94 fa bc 3d 2f 05 3e
       0.29211095 -0.028853457 -0.030588571 0.13006301
000380 84 b8 83 3d de d5 2a 3e 23 74 57 3e a7 31 52 be
       0.06431678 0.16683146 0.21040396 -0.20526753
000390 fa 4b 96 bd fe f8 d8 bd cb 5a 94 3e b0 a4 6f 3e
       -0.0733871 -0.105943665 0.2897552 0.23402667
0003a0 03 41 e7 3d 44 48 d4 3c 38 df 96 3d de c0 e9 bd
       0.11291697 0.025913365 0.07366794 -0.114137396
0003b0 63 a0 4e 3e 26 50 85 bc 3c e9 55 3e a1 d8 8f be
       0.2017837 -0.01627357 0.20889753 -0.28094962
0003c0 18 e3 8a 3d 4b 5c 77 3e 2c f4 1c 3e ea 29 3a 3e
       0.06781596 0.241563 0.15327519 0.18180051
0003d0 b7 ed f0 3d 02 52 c2 3c bf c6 13 be 80 f6 54 3e
       0.117640905 0.023720745 -0.14431284 0.20797157
0003e0 22 0c e6 bd 77 48 1c be bf 75 e0 3d 72 cd 94 be
       -0.11232783 -0.15262018 0.10959958 -0.29062992
0003f0 02 6a 1e be cf 1f f8 bd 2e f2 1d 3e e4 bb 88 3e
       -0.15470126 -0.12115442 0.15424415 0.2670585

linear2.weight f4 [3, 256]
000000 f7 cb 2b bd 0c da 4b bd 55 42 1c bd 40 7e 58 bd
       -0.041942563 -0.049768493 -0.038149197 -0.052854776
000010 e4 98 50 3d 85 71 8b 3c 37 1d d1 bc b4 41 37 3c
       0.050927058 0.017021904 -0.025526626 0.011185098
000020 7b 1c 53 bd eb ec 53 bb 05 92 95 bb 35 d8 8e 3d
       -0.051540833 -0.003233726 -0.004564526 0.06974832
000030 2f 8e 9a 3c 19 b8 09 3d 00 af 3d 3d 1f 57 1b 3c
       0.018866627 0.033622835 0.04630947 0.0094812205
000040 f1 1e ac bb 3a 91 70 bd cd 53 0d 3c 54 a2 3f 3d
       -0.005252712 -0.05873225 0.008625937 0.046785668
000050 62 6c 60 3c 3c 9a 9d 3c c8 06 55 bc 00 03 52 bb
       0.0136977155 0.019238584 -0.013002105 -0.0032045245
000060 3f 7d 11 bd 43 bd 19 3d d4 67 23 3d 3f 7f b4 bb
       -0.035519835 0.03753401 0.03989394 -0.005508333
000070 92 25 61 3d c5 10 6c 3d ff 9a 0b 3c 32 7d 89 bc
       0.05496747 0.05763318 0.008520841 -0.01678333
000080 6f 1d 12 bb 38 69 6f 3d 37 3d c4 bc a7 59 a4 bb
       -0.0022295376 0.058449954 -0.02395497 -0.00501557
000090 f2 33 06 3b d0 e9 03 3c 21 98 a0 ba 7b 8c 68 bc
       0.002047774 0.008051351 -0.0012252369 -0.014193649
0000a0 8d 2e 5d ba 50 0d c0 bb 60 72 26 3d 85 f3 72 3d
       -0.00084374176 -0.005860962 0.04063642 0.05931427
0000b0 b1 2e b6 bc c3 a6 06 bd ac 70 8f 3c 7e c3 2d 3c
       -0.022239061 -0.03287388 0.01750978 0.010605691
0000c0 ab fd 94 3d 75 6e 60 bd c3 13 d2 3b 0a 5c 3f bd
       0.07274946 -0.05479284 0.006411047 -0.046718635
0000d0 09 1e 9e 3c bc 87 b7 3c 02 fb 8a 3c 71 cf 4b bc
       0.019301431 0.02240359 0.016965393 -0.012439595
0000e0 f9 c0 f5 bc 7f 0c 10 bd 1f 31 15 bd 20 37 22 bd
       -0.029999243 -0.035168167 -0.0364238 -0.039603353
0000f0 c0 35 2a 3d 42 05 95 bc 21 4b b8 3c 67 3e 35 bd
       0.041555166 -0.018190984 0.022496762 -0.044248965
000100 d6 25 70 3d 13 10 ed bb 62 78 4e b8 10 6c 57 3d
       0.058629833 -0.007234582 -4.9226343e-05 0.05259329
000110 66 39 2c bd d4 d5 d2 ba 5d b8 e8 bc 37 96 b0 bc
       -0.042046927 -0.0016085454 -0.028408224 -0.021556003
000120 ef ad 5b 3d bb 36 44 bc dd 23 71 bc 7c 5b 07 bc
       0.053632673 -0.011975939 -0.014718023 -0.008261558
000130 76 e7 17 bd 1d 00 64 3c 3c ef f8 bb f8 97 a2 bc
       -0.037085973 0.013916043 -0.0075968783 -0.019847855
000140 b2 e5 0a bd 24 60 07 3d 1b 94 bb bc cf dc 58 bc
       -0.03391046 0.03305067 -0.02289777 -0.013236239
000150 00 23 52 3c e8 88 76 bd 84 a9 f4 bc 71 86 6a 3d
       0.012825727 -0.060189158 -0.029865988 0.05725712
000160 27 3f 41 3d 4b f4 78 bd 00 c6 7c 36 8e 5f 62 bd
       0.047179367 -0.06077985 3.7666177e-06 -0.05526691
000170 c5 ce 62 bd d8 f1 39 3d f9 f2 0b 3d 07 28 3c bd
       -0.055372972 0.045396656 0.034167264 -0.04593661
000180 9d 64 be 3b 76 2d 7f bd ef 32 f3 3b 03 d9 88 bb
       0.005810334 -0.062299214 0.0074218432 -0.0041762604
000190 d1 78 97 bb 28 35 19 bd 63 2d 23 3d db 49 4e 3c
       -0.0046225567 -0.03740421 0.039838206 0.012590851
0001a0 1d 5b b9 bc 0e c9 49 bd 0a 22 32 bd 62 84 eb bc
       -0.022626454 -0.049264006 -0.043489493 -0.028749648
0001b0 52 76 82 bd 57 94 5d bc 1f d1 e0 3c 71 7d 04 bc
       -0.06370224 -0.0135241365 0.027443467 -0.008086548
0001c0 f9 b2 62 bc d7 89 fc 3c 16 27 ab 3b cd 92 85 3d
       -0.013836616 0.030827446 0.0052231653 0.06522141
0001d0 bb c4 51 3d 02 42 6a bd 9b 57 f5 bc 5c 3e 26 bd
       0.051213007 -0.057191856 -0.029949 -0.040586814
0001e0 01 0f 4a bd b4 d2 1d 3d 23 d4 30 bd 02 96 6f bb
       -0.049330715 0.03853102 -0.04317106 -0.0036557917
0001f0 33 da 04 3b 5c 77 24 bd fa 82 93 3a 0e 5f 38 3c
       0.0020271658 -0.040152892 0.0011254244 0.011253132
000200 3e ba 11 bb 76 0f 41 3c 01 62 e1 bc e0 0c 5b bb
       -0.0022236253 0.011783471 -0.027512552 -0.0033424422
000210 06 af 71 3d bb d6 c1 bc d8 25 a2 3c d7 b7 28 3c
       0.059004806 -0.023661962 0.019793436 0.010297737
000220 a1 e0 01 3d 07 9b 92 3d 81 0d 3f 3d 42 31 63 3d
       0.031708363 0.07158475 0.046643738 0.055466898
000230 bb 10 41 3d e3 2c 36 bd bb 5c be 3c a0 22 4e 3d
       0.047135096 -0.0444764 0.023237577 0.05032599
000240 70 b9 fb 3c c4 81 2d bc da f3 5b bd 05 63 01 bd
       0.030728072 -0.010590021 -0.05369935 -0.031588573
000250 0d 50 28 3d 68 d7 b3 bb fc 53 05 3d e0 36 db bb
       0.041091967 -0.005488325 0.032550797 -0.006689891
000260 a3 12 12 bd f4 b7 12 3d 72 52 30 bd d3 76 55 bd
       -0.035662305 0.035819963 -0.043047376 -0.052115273
000270 d9 6f b7 3c 4b b5 df bc de a7 3a bd 68 98 78 bd
       0.0223922 -0.027308127 -0.045570247 -0.06069222
000280 16 d6 a4 ba 02 f5 76 3d 43 41 2b bb 31 a6 ed bb
       -0.001257601 0.06029225 -0.0026131428 -0.0072524776
000290 fd 06 f9 3c 78 02 77 3b fa de 13 bd f5 0b 82 bd
       0.03039884 0.003769068 -0.03610132 -0.06349937
0002a0 c6 d7 60 3b a4 36 1e 3c 46 a5 2f bd 3c 15 68 bc
       0.0034308298 0.009656582 -0.042882226 -0.014165219
0002b0 43 73 77 bd 0e 9d e4 3c df c3 36 3c d3 35 31 bb
       -0.060412657 0.02790692 0.011155098 -0.0027040138
0002c0 95 86 29 bd b4 cf 57 bd 6a b5 83 3c 66 a4 62 bd
       -0.041388113 -0.052688316 0.016077716 -0.055332564
0002d0 22 2f 6f 3c ce 9f 2a bd 70 86 e7 bc 76 a6 c8 bc
       0.01459864 -0.041656308 -0.028262347 -0.024493437
0002e0 e0 f9 81 ba c1 b5 0f bd 88 6d ae 3c 16 0f 41 3c
       -0.0009916387 -0.035085443 0.021292463 0.011783382
0002f0 23 f6 29 3d 0c ab 38 3c c6 6c b1 3c 10 a3 ec 3c
       0.0414945 0.0112712495 0.021658313 0.028886348
000300 9a ad 50 3d 02 12 94 3c fd 48 2d 3d 35 44 6b bc
       0.05094681 0.018074993 0.042305935 -0.014359524
000310 43 65 6f 3d f7 dd 37 3c e4 94 a9 bc cf bd 7b 3d
       0.05844618 0.011222354 -0.02070088 0.061460312
000320 38 76 0e 3c 9c 60 2f bd d3 84 97 bc 8a ed a8 3c
       0.008695178 -0.042816743 -0.018495953 0.02062108
000330 3d 78 66 bd 53 db 0f 3d 24 12 01 bc 7a 76 43 3d
       -0.056267012 0.035121273 -0.00787786 0.04772041
000340 0d e2 f2 bc 67 47 7f 3c b6 16 39 3d 75 5f 27 bd
       -0.029648805 0.0155809885 0.045187674 -0.04086252
000350 f1 34 1a bc d6 4d 4e 3d 20 73 67 bd a1 b2 1a bd
       -0.009412036 0.0503672 -0.056506276 -0.03776801
000360 88 20 b3 3c 8a f0 55 bc 5c 70 3b bd a4 dc 3a bc
       0.021866098 -0.013057837 -0.04576145 -0.011405144
000370 07 f8 cd 3c 7b c7 04 3d d1 07 b2 bc d3 95 2d bd
       0.025142683 0.032416802 -0.021732243 -0.04237921
000380 1f 3e 41 3d 0b 86 31 bd 6f 49 9b bc fd a8 11 bd
       0.047178384 -0.043340724 -0.018955914 -0.03556155
000390 39 9f db bc ba c4 4a bd f8 fe 06 3d 81 6e 6b 3d
       -0.026809322 -0.04950402 0.032958 0.05747843
0003a0 8a 3b 0f 3d c2 87 7c bd 1e 0f e7 3b 48 ee 3a bd
       0.03496889 -0.061652906 0.0070513627 -0.0456374
0003b0 73 2c 45 bd 2f 96 2f 3d 45 ae 63 3d a2 95 63 bd
       -0.048138093 0.042867836 0.05558612 -0.055562623
0003c0 81 2e 8f bb 78 0a 71 3d 5d 2e b6 3c a3 a4 11 3d
       -0.0043695574 0.058847874 0.022238905 0.0355574
0003d0 11 be 88 bc 61 dc 8d bb 02 8e 49 3c 20 f1 1b 3d
       -0.016692193 -0.0043292497 0.012301924 0.03807175
0003e0 3e 5c 8d 3c 32 21 af 3c 90 c8 3c bd d5 4c f1 bc
       0.017255899 0.021378133 -0.04608971 -0.029455582
0003f0 b4 ef 1e 3d 9d 61 4b bd e7 3e a0 3d 32 ad 01 bd
       0.038802817 -0.04965364 0.07824498 -0.031659313

linear2.bias f4 [3]
000000 c9 6a 86 3d 75 9f 34 3d d3 fa 52 bd
       0.065633364 0.044097383 -0.051508736
