Snake/model/model.pth (torch, 17609 bytes, 4 tensors)

linear1.weight f4 [256, 11]
0	0x3c8321a5	0.016007254
1	0xbe16bf17	-0.14721332
2	0xbecd2df2	-0.40074116
3	0xbf002ba9	-0.5006662
4	0x3eebeb59	0.46077994
5	0xbe5a596c	-0.21323174
6	0x3e0acc1b	0.13554423
7	0xbf3e0f31	-0.7424193
8	0x3e5788a5	0.2104822
9	0xbe418718	-0.1889919
10	0xbf345545	-0.7044261
11	0xbcf165bb	-0.029467454
12	0xbc016503	-0.007897618
13	0x3f2af543	0.6678049
14	0xbe9d60a1	-0.30737785
15	0x3e38f342	0.18061545
16	0xbe8ee376	-0.27907914
17	0x3e8e5bc2	0.2780438
18	0x3ec42a70	0.38313627
19	0xbdf52c97	-0.119713955
20	0x3eb387bf	0.35064504
21	0xbe79675f	-0.24355839
22	0xbe13c70d	-0.144314
23	0xbd6598b4	-0.056053832
24	0x3c979099	0.018501567
25	0xbe9c75bf	-0.30558583
26	0x3ebee720	0.3728571
27	0xbe86eb8b	-0.2635158
28	0x3eb0add0	0.34507608
29	0x3ead070e	0.33794445
30	0xbe967440	-0.29385567
31	0xbeb10cbd	-0.3458003
32	0xbef21ba6	-0.4728672
33	0xbef21319	-0.47280195
34	0xbdf7713c	-0.120821446
35	0xbe0eed00	-0.13957596
36	0x3e3daab7	0.18522154
37	0xbec163e1	-0.37771514
38	0xbd3e59c5	-0.04647233
39	0x3e973ecc	0.29540098
40	0xbe9d9329	-0.30776337
41	0x3e752319	0.2393917
42	0xbe89ee93	-0.2693983
43	0xbed8280b	-0.4221805
44	0xbe1c5ece	-0.1527054
45	0x3ea24b10	0.31697893
46	0x3e974b64	0.29549706
47	0xbe1412a2	-0.14460233
48	0xbe88283c	-0.26593196
49	0xbb348ebd	-0.00275509
50	0xbe5b0b8e	-0.21391127
51	0x3da89010	0.08230603
52	0x3e3bb6c7	0.18331443
53	0xbcaeae0d	-0.021323228
54	0x3e5a728a	0.21332756
55	0xbebc084a	-0.36725074
56	0x3e75c73a	0.2400178
57	0x3e57e356	0.21082816
58	0x3c8bf3e0	0.017084062
59	0x3e3276a6	0.17428073
60	0x3e5af220	0.21381426
61	0x3e8d32c5	0.27577797
62	0x3eaf39a9	0.3422368
63	0x3e15d608	0.14632428
64	0xbcb64d88	-0.022253767
65	0x3a60bb3a	0.0008572821
66	0xbed13f05	-0.40868393
67	0xbea142e6	-0.31496352
68	0x3ef8aa66	0.48567504
69	0x3e0f26e4	0.1397968
70	0x3e968f48	0.2940619
71	0x3e180052	0.14843872
72	0x3e2569ab	0.1615359
73	0x3dc369ec	0.09541687
74	0x3bbb7ff8	0.005722042
75	0x3d1adc62	0.03780783
76	0x3d9d3d32	0.07677688
77	0xbe047e3e	-0.12938783
78	0xbe5bb3bd	-0.21455283
79	0xbe4e0fa7	-0.20123158
80	0x3f06e135	0.5268739
81	0xbf48f756	-0.78502405
82	0x3e4862bc	0.19568914
83	0x3e7a429e	0.24439475
84	0x3ecbb295	0.39784685
85	0x3d930b3b	0.071798764
86	0xbf0f5b4a	-0.5599867
87	0xbf02e0d2	-0.511243
88	0x3e7fb2a8	0.24970496
89	0x3e3245b8	0.17409408
90	0x3e91a636	0.2844712
91	0xbd98b609	-0.074565955
92	0x3cf584d4	0.029970564
93	0xbcc2bf31	-0.023772808
94	0x3d459b42	0.04824377
95	0x3eef4239	0.4673021
96	0x3ec13925	0.3773891
97	0x3edcd4bb	0.4313105
98	0x3eaec8eb	0.34137663
99	0x3e127487	0.14302264
100	0xbbef7056	-0.0073070927
101	0x3d36ffb8	0.044677466
102	0xbef37419	-0.47549513
103	0xbe5efed5	-0.21776898
104	0x3ebc6a6b	0.3679994
105	0x3e9b931f	0.30385682
106	0x3eef9322	0.4679194
107	0x3e5ede21	0.21764423
108	0xbeca01a7	-0.39454386
109	0xbec26797	-0.37969658
110	0x3d1a8634	0.037725642
111	0xbdd2fe8f	-0.103024594
112	0xbcb11c91	-0.021620067
113	0x3dea9e95	0.11456028
114	0x3ed5871e	0.4170465
115	0xbe4592c3	-0.19294266
116	0xbee1601e	-0.44018644
117	0x3d1d012a	0.03833119
118	0xbe995cce	-0.29953617
119	0x3e9ace0a	0.3023532
120	0x3f158af6	0.5841516
121	0x3e654d87	0.22392856
122	0x3e284a80	0.1643467
123	0x3cfd741a	0.03093915
124	0x3e0d4f2d	0.13799734
125	0x3de80937	0.113298826
126	0xbe61000d	-0.21972676
127	0x3dc8c7f6	0.098037645
128	0x3d91c87e	0.07118319
129	0x3d9c820f	0.07641994
130	0xbdcf191e	-0.101122126
131	0xbed646ba	-0.41850835
132	0x3ec22a0b	0.379227
133	0xbe8cc559	-0.27494314
134	0x3db52ea8	0.088467896
135	0xba17a0f1	-0.0005784175
136	0x3e7ad0c2	0.24493697
137	0xbde27f35	-0.11059419
138	0xbe6b387e	-0.22970769
139	0xbf1323be	-0.57476413
140	0xbe4fc822	-0.20291188
141	0xbe03eba2	-0.12882856
142	0x3e968377	0.29397175
143	0x3e0bdd2f	0.13658594
144	0xbb368581	-0.002785057
145	0xbd80af0c	-0.062833875
146	0xbdcade27	-0.099056534
147	0xbe86deef	-0.2634196
148	0x3eb148b2	0.34625775
149	0x3f01624f	0.5054063
150	0x3e66876b	0.22512595
151	0x3ec7fcb1	0.39059976
152	0xbe6d344f	-0.23164485
153	0xbee6c382	-0.45071036
154	0xbe46a5ec	-0.19399232
155	0xbe6bb8a0	-0.23019648
156	0xbda15353	-0.07877221
157	0x3ebb3e0f	0.36570784
158	0xbe93c14a	-0.28858405
159	0x3e84cfa1	0.25939658
160	0xbe8abb70	-0.27096128
161	0xbeb1d360	-0.3473158
162	0xbe490100	-0.19629288
163	0xbec73f70	-0.38915586
164	0x3e82f3d2	0.25576645
165	0x3f07df4f	0.53075117
166	0xbe545341	-0.20734884
167	0x3de5ceaf	0.112210624
168	0xbefc1a7e	-0.49238962
169	0xbd9cba5e	-0.07652734
170	0x3e37b8f8	0.17941654
171	0xbe7e0121	-0.24805118
172	0x3eafbdc2	0.3432446
173	0xbd99a3d4	-0.07501951
174	0xbeb50aff	-0.35359952
175	0x3dcdc054	0.10046449
176	0x3d055210	0.032548964
177	0x3ef2cdd0	0.47422647
178	0xbe5d7fda	-0.21630803
179	0xbda29929	-0.07939369
180	0xbbcc3270	-0.0062315986
181	0xbe33e2fb	-0.17567055
182	0xbca42c7e	-0.020040747
183	0x3d085cc9	0.03329161
184	0x3e295dd5	0.165397
185	0x3e3529f9	0.17691793
186	0x3e413845	0.18869121
187	0x3f0265c8	0.50936556
188	0x3d9c5756	0.076338455
189	0xbe8bf2b8	-0.27333617
190	0xbe8cb377	-0.2748067
191	0x3d369c31	0.04458255
192	0xbdb6a7b1	-0.08918703
193	0xbe0b6e4a	-0.1361629
194	0x3e1a3376	0.15058693
195	0xbdb10f60	-0.08645511
196	0x3d32772a	0.043570675
197	0xbdcba747	-0.09944015
198	0x3f331cf0	0.6996603
199	0xbe36afc9	-0.17840494
200	0xbe3dda8d	-0.18540402
201	0x3cc99277	0.024605973
202	0x3e8710da	0.26380044
203	0xbd9a327f	-0.075291626
204	0xbee3f398	-0.44521785
205	0xbc19b1bb	-0.009380753
206	0xbe8427d6	-0.25811642
207	0xbda17231	-0.078831084
208	0x3ee64cd9	0.44980505
209	0x3e8d7712	0.27629906
210	0xbdcad7a9	-0.09904415
211	0x3eec2754	0.46123755
212	0xbe292fc1	-0.16522123
213	0xbe565f0c	-0.20934695
214	0xbce04974	-0.027378775
215	0xbda8a379	-0.08234305
216	0x3da9d3b9	0.08292336
217	0x3db59824	0.08866909
218	0x3e4c1d4f	0.19933055
219	0x3e428473	0.18995838
220	0x3ee8d8f4	0.45478022
221	0x3ebcbccc	0.3686279
222	0x3e96c3a7	0.29446146
223	0xbe56aa41	-0.20963384
224	0xbdb482e4	-0.08814028
225	0xbd7693c1	-0.060199503
226	0xbcd7b1f2	-0.026329968
227	0x3e5510cc	0.20807189
228	0xbc8203e9	-0.015871005
229	0x3de5f253	0.1122786
230	0xbda1c812	-0.078994885
231	0x3c5e5e6d	0.013572318
232	0x3dcf6aa6	0.101277635
233	0xbe4e1fef	-0.20129369
234	0xbd9c1ad0	-0.076223016
235	0xbdab78c8	-0.083726466
236	0xbefe7fb3	-0.49706802
237	0xbba8ee5c	-0.005155368
238	0xbe236a11	-0.1595843
239	0xbd114e4e	-0.035475068
240	0x3eaddf72	0.33959538
241	0xbde17223	-0.11008098
242	0xbe6e5e77	-0.23278223
243	0x3d545771	0.051841203
244	0x3e5494f9	0.20759954
245	0x3e00a9b6	0.1256474
246	0x3e2dbed7	0.16967331
247	0x3df84595	0.12122647
248	0xbe20dd34	-0.15709382
249	0xbe079066	-0.13238677
250	0x3d143f9a	0.036193468
251	0x3e9ec124	0.3100673
252	0x3e8abd24	0.27097428
253	0xbea12542	-0.31473738
254	0x3f0279b9	0.50966984
255	0xbf17fbba	-0.5936848

linear1.bias f4 [256]
0	0x3e846486	0.25857943
1	0xbda06567	-0.07831841
2	0xbdf8b315	-0.12143532
3	0x3ddd2c71	0.10799492
4	0xbdd0cebc	-0.101956815
5	0x3e5ad0dc	0.21368736
6	0x3ea05de9	0.31321648
7	0x3f0d0bce	0.5509614
8	0xbed7863d	-0.42094603
9	0xbcff882b	-0.03119286
10	0xbe30f306	-0.17280206
11	0xbe4bf186	-0.19916353
12	0xbd8b8557	-0.06812542
13	0xbe093e61	-0.13402702
14	0xbd257973	-0.040399026
15	0x3e160683	0.14650922
16	0xbdcf5b0b	-0.10124787
17	0xbc462ec5	-0.012096112
18	0xbc88db36	-0.01670609
19	0xbdf19320	-0.1179564
20	0xbdd56a23	-0.104206346
21	0xbca44b1f	-0.020055352
22	0x3e990791	0.29888585
23	0xbe080b6b	-0.13285606
24	0x3e1d8012	0.15380886
25	0xbd5838c3	-0.052788507
26	0xbef69617	-0.48161384
27	0x3da536f1	0.0806712
28	0xbe29029d	-0.16504903
29	0x3cd8fe57	0.026488466
30	0xbe8a1863	-0.2697173
31	0x3f02ec91	0.5114222
32	0xbdef58fb	-0.116868936
33	0x3eb36102	0.3503495
34	0x3f06b81a	0.52624667
35	0xbe229631	-0.15877606
36	0xbe140a4e	-0.14457056
37	0xbd81a30d	-0.063299276
38	0xbe184795	-0.14871056
39	0xbe833e4f	-0.25633475
40	0xbe839194	-0.25697005
41	0xbdda9406	-0.106727645
42	0xbd865138	-0.0655846
43	0xbefa11b7	-0.4884164
44	0x3cea12cb	0.028573414
45	0x3db617d6	0.08891265
46	0xbe453b9d	-0.19261022
47	0xbe6907ff	-0.22756957
48	0x3e9c9506	0.30582446
49	0x3efac90b	0.4898151
50	0xbe14b13f	-0.14520739
51	0xbd850e3a	-0.06496854
52	0x3db007cb	0.085952364
53	0x3d43bcfb	0.047787648
54	0xbe9f9d31	-0.31174615
55	0xbe43f40a	-0.19136062
56	0xbe4c47fd	-0.19949336
57	0xbe996af6	-0.29964417
58	0xbe9d200d	-0.30688515
59	0x3e1d8b64	0.15385205
60	0xbe85ae11	-0.26109365
61	0xbe23ead6	-0.16007552
62	0xbda535a7	-0.08066874
63	0xbd71f2c6	-0.059069417
64	0xbd8fed75	-0.07027713
65	0xbd258abc	-0.04041551
66	0xbe8ce07e	-0.27515024
67	0x3df19ab9	0.11797089
68	0x3ee19f90	0.4406705
69	0x3d886560	0.06659961
70	0xbe90feab	-0.28319296
71	0xbe8beb72	-0.27328068
72	0xbdfde897	-0.123978786
73	0x3e29d32d	0.16584463
74	0x3e43dc25	0.19126947
75	0xbe8bb665	-0.27287593
76	0x3d279237	0.040910926
77	0xbe84b550	-0.2591958
78	0xbc8efc46	-0.017454278
79	0xbe4b69af	-0.19864534
80	0xbe88579f	-0.2662935
81	0x3e800d5a	0.25010186
82	0xbdbcb23f	-0.09213685
83	0x3cd1623b	0.025559535
84	0x3e276c50	0.16349912
85	0xbe3aef51	-0.18255354
86	0x3d95b1e0	0.073093176
87	0x3f303f6e	0.68846786
88	0xbdcc692a	-0.09980996
89	0xbd518693	-0.05115373
90	0xbe79783d	-0.24362274
91	0xbd8d3ed9	-0.06896753
92	0x3e803a1a	0.25044328
93	0xbbf808ff	-0.007569432
94	0xbd906ef4	-0.07052413
95	0x3f2a7326	0.6658195
96	0xbea27723	-0.3173152
97	0xbd94fe0f	-0.0727502
98	0x3ccb0b54	0.024785675
99	0x3ccc93a5	0.024972746
100	0xbe24b42a	-0.16084352
101	0x3d650adf	0.05591857
102	0xbe25abb4	-0.16178781
103	0x3e45bd0a	0.19310394
104	0x3d830058	0.0639655
105	0x3f1d8266	0.615271
106	0xbcb2daff	-0.021832941
107	0x3e0500cc	0.12988585
108	0xbe53e644	-0.20693308
109	0x3c373e6b	0.011184315
110	0xbe39a09f	-0.18127678
111	0x3d6fb1af	0.05851906
112	0xbe328d3a	-0.17436686
113	0xbec31703	-0.38103494
114	0xbdf86a0e	-0.12129603
115	0xbcc15995	-0.023602286
116	0xbdf03cc5	-0.11730341
117	0x3cfd7812	0.030941043
118	0xbd815cf0	-0.063165545
119	0xbd48d61c	-0.049032316
120	0x3eaec4f5	0.3413464
121	0x3e4c66a0	0.19961023
122	0x3eb07f1f	0.34471986
123	0xbe7cab53	-0.2467473
124	0xbec032da	-0.37538797
125	0xbdd05dfa	-0.101741746
126	0x3d8a0da9	0.06740887
127	0xbe81d76a	-0.2535966
128	0xbe9ac6b3	-0.3022972
129	0x3e56c1f0	0.20972419
130	0xbe5ebdfa	-0.21752158
131	0x3db8e3f3	0.09027853
132	0xbdc9add6	-0.0984761
133	0xbda9155a	-0.082560256
134	0xbe02dd60	-0.1277976
135	0xbe1742a1	-0.1477151
136	0x3d1353cb	0.035968583
137	0xbe44e8ce	-0.19229433
138	0x3e1ed1a0	0.15509653
139	0xbe967ca5	-0.2939197
140	0x3bc01ecb	0.005863046
141	0x3dd8281f	0.105545275
142	0xbe2197b9	-0.15780534
143	0xbe2d20b0	-0.16907
144	0xbe1508dc	-0.14554161
145	0x3e8188a1	0.25299552
146	0x3f2261b6	0.63430345
147	0x3d7e3221	0.062059525
148	0xbe049dcb	-0.12950818
149	0xbdc2059b	-0.094737254
150	0x3f866ce7	1.0501984
151	0xbedb644a	-0.42849952
152	0x3d461200	0.04835701
153	0xbe320241	-0.17383672
154	0xbe51592d	-0.20444174
155	0xbad1d038	-0.0016007489
156	0x3eea2d99	0.45737913
157	0xbd8686ca	-0.06568678
158	0xbe3d4b7f	-0.1848583
159	0xbe212bd4	-0.15739375
160	0xbe820846	-0.25396937
161	0xbe495ffa	-0.19665518
162	0xbe22ee50	-0.15911222
163	0xbdae5ced	-0.08513818
164	0x3dc7aa83	0.097493194
165	0xbe89c399	-0.26907042
166	0xbec4bb7e	-0.38424295
167	0xbd37b5c9	-0.0448511
168	0xbc3d2d7c	-0.011546489
169	0xbea7a05b	-0.3273953
170	0xbdcc268b	-0.09968289
171	0xbe27d224	-0.16388756
172	0x3c25fa63	0.010130498
173	0xbe308beb	-0.17240874
174	0xbe40230f	-0.18763374
175	0xbe909cf4	-0.28244746
176	0x3d78e10c	0.060761496
177	0x3de15636	0.110027716
178	0x3e5cef67	0.215757
179	0x3db0672e	0.0861343
180	0xbe08d6fb	-0.13363259
181	0xbe2f4ec0	-0.17119884
182	0xbeac0d8b	-0.33604082
183	0x3d68621c	0.05673419
184	0xbd15228b	-0.036409896
185	0xbe4961ad	-0.19666167
186	0xbe900a16	-0.28132695
187	0x3e354cba	0.1770505
188	0xbe34832e	-0.17628166
189	0xbe4d7c79	-0.20067014
190	0xbe8753b7	-0.26431057
191	0xbe8933e2	-0.26797396
192	0xbe3ef07b	-0.18646424
193	0x3d7af454	0.061268166
194	0xbeb295f6	-0.34880036
195	0x3da02fc5	0.07821611
196	0xbcc8083c	-0.024417989
197	0xbdf552b4	-0.11978665
198	0x3e080499	0.13283004
199	0xbe42046f	-0.18947004
200	0xbea57862	-0.32318407
201	0x3ddf9cdb	0.1091859
202	0xbe936b9c	-0.28793037
203	0xbe78fc45	-0.24314983
204	0xbe1d223a	-0.15345088
205	0x3dcb584b	0.0992895
206	0xbe5e45e1	-0.21706344
207	0xbdebc2a7	-0.11511736
208	0x3d9d218f	0.076724164
209	0xbe547c5f	-0.20750569
210	0xbdcd59d9	-0.10026903
211	0xbe340f1f	-0.17583893
212	0xbe77c3cf	-0.24195789
213	0x3e0b5aca	0.13608852
214	0xbdf82ea0	-0.12118268
215	0xbd970086	-0.07373147
216	0xbe5f251c	-0.217915
217	0x3dc70534	0.09717789
218	0x3e7395ec	0.2378766
219	0x3bdd6a9f	0.006757095
220	0x3f46f55a	0.77718127
221	0x3eaa0d25	0.33213153
222	0xbebea7a9	-0.3723729
223	0xbe847c1e	-0.25875944
224	0xbe0f8f4e	-0.1401951
225	0xbe8a4236	-0.2700364
226	0x3eac42df	0.3364477
227	0xbe8201aa	-0.25391895
228	0xbea77c6c	-0.32712114
229	0xbe55f2d5	-0.20893414
230	0xbe26d550	-0.1629231
231	0x3e9045b2	0.28178173
232	0xbe94eab0	-0.29085302
233	0xbdf5c028	-0.119995415
234	0xbe75b432	-0.2399452
235	0xbdf4bc88	-0.11950022
236	0xbe0c25ee	-0.13686344
237	0xbeb9b5d4	-0.36271536
238	0xbeb9385f	-0.3617582
239	0x3de82e55	0.11336962
240	0xbe451656	-0.19246802
241	0x3e3fb160	0.18720007
242	0x3f07ec60	0.53095055
243	0xbe0954c7	-0.13411246
244	0xbe832017	-0.2561042
245	0xbe846115	-0.25855318
246	0xbd81173f	-0.06303262
247	0xbee9c674	-0.4565922
248	0x3d045011	0.03230292
249	0x3ead4a6d	0.33845845
250	0xbe893525	-0.2679836
251	0xbdae32b0	-0.085057616
252	0xbe39d500	-0.1814766
253	0x3c9b04cf	0.018923191
254	0xbdfd4be2	-0.12367989
255	0xbe013b42	-0.12620261

linear2.weight f4 [3, 256]
0	0x3eadc408	0.33938622
1	0xbeba4ccb	-0.36386713
2	0xbedd4a41	-0.43220714
3	0xbefeb6ef	-0.49748942
4	0xbd3b6bb8	-0.045757025
5	0x3e48fa98	0.19626844
6	0x3e911658	0.2833736
7	0x3ef16c18	0.4715278
8	0xbe9075f0	-0.2821498
9	0xbef658da	-0.48114663
10	0xbf098462	-0.53717625
11	0xbc012c4d	-0.007884097
12	0xbe846c82	-0.25864035
13	0xbf29d393	-0.6633846
14	0xbeb61014	-0.35559142
15	0xbed84e27	-0.42247126
16	0xbcb3bc5e	-0.021940406
17	0xbdbd9aec	-0.09258065
18	0xbf3f40a6	-0.7470802
19	0xbd1540a9	-0.036438618
20	0xbd5ddda5	-0.054166455
21	0xbd60035b	-0.0546907
22	0x3dfc34a4	0.12314728
23	0x3e47ddd5	0.19518216
24	0x3e2a771c	0.16646999
25	0xbdeb41a6	-0.11487131
26	0xbe861f95	-0.2619597
27	0xbee5806f	-0.4482455
28	0xbe76ad13	-0.2408946
29	0x3b87f9f2	0.004149669
30	0xbeea9d53	-0.45823154
31	0x3f0bb655	0.5457509
32	0x3e61e3d0	0.2205956
33	0x3ed661f9	0.41871622
34	0x3ea84204	0.32862866
35	0xbe94f81d	-0.29095545
36	0xbe1aacf0	-0.15105033
37	0xbe07d7fc	-0.13265985
38	0xbe5708ba	-0.20999423
39	0xbdd550b6	-0.10415785
40	0x3cf88b82	0.03033996
41	0xbde44d3e	-0.11147545
42	0xbd800fb9	-0.06252999
43	0xbe3e08b7	-0.18558012
44	0x3d914711	0.07093633
45	0x3ee0be82	0.43895346
46	0xbe27b5c8	-0.16377938
47	0xbdae3cb3	-0.08507671
48	0x3e821f73	0.2541462
49	0x3e27bd66	0.16380844
50	0xbd81e4d3	-0.06342473
51	0xbdf7f1bf	-0.12106656
52	0x3eb4d8da	0.35321695
53	0x3efe212f	0.49634692
54	0x3d052f1b	0.032515626
55	0xbeb76e11	-0.35826162
56	0xbeadafc2	-0.33923155
57	0xbe38fdf7	-0.1806563
58	0xbf55195e	-0.8324183
59	0xbd1e9c14	-0.038723066
60	0xbe908404	-0.2822572
61	0x3cef5b31	0.029218288
62	0xbead6ab0	-0.3387046
63	0xbf1806fb	-0.5938565
64	0x3ea19d9a	0.31565553
65	0x3ee957ee	0.45574898
66	0x3cfe2eb5	0.031028131
67	0x3dfb3c32	0.12267341
68	0x3e8dcad6	0.27693814
69	0x3e960f7e	0.29308695
70	0xbdfbd220	-0.122959375
71	0x3b7f376b	0.0038942944
72	0xbdb1436b	-0.08655437
73	0x3db29fec	0.08721909
74	0x3da448fd	0.08021734
75	0xbd6d066d	-0.057867456
76	0xbe351ed2	-0.17687538
77	0xbe11680e	-0.1419985
78	0xbe74453c	-0.23854536
79	0xbe911600	-0.28337097
80	0xbcc1f618	-0.023676917
81	0x3e5a66ad	0.2132823
82	0xbeb4e569	-0.35331276
83	0x3d7ef5a7	0.06224599
84	0x3e8ba14a	0.2727149
85	0x3daba397	0.08380812
86	0xbbbef716	-0.005827795
87	0x3ec5e285	0.38649383
88	0xbecee2f7	-0.40407535
89	0xbf5abaf2	-0.85441506
90	0xbee9c8f0	-0.45661116
91	0x3e2a452c	0.1662795
92	0x3ee37e12	0.44432122
93	0xbeebcd03	-0.4605485
94	0x38ec8e08	0.00011279812
95	0x3ec407dd	0.3828725
96	0xbe3d3458	-0.18476999
97	0xbe414b97	-0.18876491
98	0xbf50126d	-0.81278116
99	0x3d75817f	0.05993795
100	0xbe5f0740	-0.2178011
101	0xbf08ee92	-0.5348903
102	0x3dd85125	0.10562352
103	0x3db4d68f	0.08829986
104	0x3cbc6b9d	0.023000533
105	0x3eb51028	0.3536389
106	0x3e88e48a	0.2673686
107	0x3eb11723	0.34587964
108	0xbc7ff50c	-0.015622389
109	0x3b7dfeaa	0.0038756528
110	0xbc4ec14c	-0.012619328
111	0xbf0efb3b	-0.558521
112	0xbe01c01b	-0.12670939
113	0xbe5db00d	-0.2164919
114	0x3eb6de65	0.3571655
115	0x3d10b6c7	0.03533056
116	0x3d3c050e	0.045903258
117	0xbe0277de	-0.12741038
118	0x3cc57bc0	0.02410686
119	0xbe663165	-0.2247978
120	0x3ee34f25	0.4439632
121	0xbf2f030e	-0.68364036
122	0x3e1785e1	0.14797164
123	0xbcbba23c	-0.022904508
124	0xbe9d31a8	-0.30701947
125	0x3d0774d0	0.033070385
126	0x3ede8336	0.4345948
127	0xbe9f83c4	-0.31155217
128	0xbde552f2	-0.11197461
129	0x3f07fe3f	0.53122324
130	0xbe5cab51	-0.21549727
131	0x3ecaa417	0.39578316
132	0xbf253db4	-0.64547276
133	0xbe7a6df6	-0.2445601
134	0x3d1aeb15	0.037821848
135	0xbdba3e0a	-0.09093864
136	0xbda7fa79	-0.08202071
137	0x3ce4de94	0.027938165
138	0xbea4da6b	-0.3219789
139	0xbdadb241	-0.08481265
140	0xbb7d890f	-0.003868643
141	0x3db70c7a	0.089379266
142	0xbe4c9286	-0.1997777
143	0xbe14b9e5	-0.14524038
144	0xbe6f0e74	-0.23345357
145	0x3e1751d8	0.14777315
146	0x3ebd6db4	0.3699776
147	0xbe0e1934	-0.13876802
148	0xbe321460	-0.17390585
149	0x3da67ed6	0.08129661
150	0x3e9f285e	0.31085485
151	0xbe8105ad	-0.25199643
152	0x3dbf6e63	0.093472265
153	0xbe5241a9	-0.2053286
154	0xbdcc7556	-0.099833176
155	0x3d95f6c5	0.07322458
156	0x3e1b5198	0.15167844
157	0x3c796983	0.01522291
158	0xbbcd8bb6	-0.0062727584
159	0xbd670ff4	-0.0564117
160	0xbda0539f	-0.078284495
161	0xbdfda023	-0.12384059
162	0xbe901cd3	-0.2814699
163	0xbe8db6f7	-0.27678654
164	0xbeb7f7d2	-0.3593126
165	0xbe8d5298	-0.27602077
166	0xbcae3501	-0.021265509
167	0xbe74e9d5	-0.23917325
168	0xbd422211	-0.04739577
169	0xbd61e9ea	-0.05515472
170	0x3eb64ff4	0.35607874
171	0xbc4b82b2	-0.012421297
172	0x3d5dbc21	0.05413449
173	0xbd0c4057	-0.034241047
174	0xbf058a4d	-0.52164155
175	0xbd938c4d	-0.072044946
176	0x3d92929b	0.07156869
177	0x3d8a57ec	0.06755051
178	0xbf012c40	-0.50458145
179	0xbd8553a6	-0.06510095
180	0xbe4a6a68	-0.19767153
181	0xbd47af28	-0.048751026
182	0xbe89cb1d	-0.26912776
183	0x3eacc8a1	0.33746818
184	0x3eed2b2e	0.46322006
185	0xbe192065	-0.14953764
186	0xbe3993c0	-0.18122768
187	0x3f11d0cd	0.5695923
188	0xbe1e85af	-0.15480684
189	0x3ba753fc	0.0051064473
190	0xbc3a5840	-0.0113735795
191	0x3d3efbb1	0.04662675
192	0xbe9223c2	-0.28542906
193	0x3daf713b	0.08566519
194	0xbeb1cca8	-0.34726453
195	0xbe9891f5	-0.29798856
196	0xbeb4812e	-0.35254806
197	0x3ac535a3	0.0015045892
198	0x3e57d8e2	0.21078828
199	0xbbf44010	-0.007453926
200	0xbe393453	-0.18086366
201	0xbeb701ae	-0.3574347
202	0xbe0eda33	-0.13950424
203	0xbe19910f	-0.14996742
204	0xbf21e160	-0.6323452
205	0x3ea104dd	0.31449023
206	0xbef3a4d9	-0.47586706
207	0x3d034926	0.03205218
208	0x3ec3ad16	0.38217992
209	0xbe95acba	-0.29233342
210	0x3ede9458	0.43472552
211	0xbede0096	-0.43359822
212	0xbe19a1d9	-0.15003146
213	0x3dcd99f6	0.10039131
214	0xbe016da2	-0.12639478
215	0xbd36892e	-0.04456442
216	0xbcebb861	-0.028774442
217	0x3eb4ae16	0.35289067
218	0x3eddc7aa	0.43316394
219	0xbd4ecfb8	-0.050491065
220	0x3e931599	0.28727415
221	0x3ea63ea2	0.3246966
222	0x3ca49984	0.020092733
223	0x3b0b655d	0.0021270134
224	0xbe9f0682	-0.31059653
225	0xbe3cfba2	-0.18455365
226	0x3e3c58f7	0.18393312
227	0xbe9130d7	-0.28357574
228	0xbd06f5cd	-0.032949258
229	0xbd9db6f5	-0.07700912
230	0xbcc1505d	-0.02359789
231	0x3e804f8e	0.25060695
232	0x3bda53ea	0.0066628354
233	0x3d2619a5	0.0405518
234	0xbd49d2cd	-0.0492733
235	0xbe98016c	-0.29688585
236	0x3e960904	0.29303753
237	0xbe28c114	-0.16479903
238	0xbd312a72	-0.04325337
239	0x3d88533b	0.066565
240	0xbc3f94da	-0.011693204
241	0x3e3c2ed5	0.1837724
242	0x3ec42ba6	0.3831455
243	0xbcc62d3c	-0.024191491
244	0xbe9930e3	-0.2992011
245	0xbd00dada	-0.031458713
246	0xbe9fb875	-0.31195417
247	0xbe793256	-0.24335608
248	0x3db0a8bf	0.08625936
249	0x3f0e1b43	0.5551035
250	0xbd5883e0	-0.05286014
251	0xbe158d9c	-0.14604801
252	0xbd0d589c	-0.034508333
253	0x3da74f86	0.08169465
254	0xbf2f961c	-0.68588424
255	0xbd347a95	-0.044062216

linear2.bias f4 [3]
0	0x3ead3a48	0.33833528
1	0x3dac5484	0.084145576
2	0x3de5691a	0.11201687
