Snake/model/model.pth (torch, 17609 bytes, 4 tensors)

linear1.weight f4 [256, 11]
00000000: 6a7b 64be c78a 6d3e e93b c03e 3557 9c3e
00000010: 6fa2 893d 31a3 cabc d5ca ab3e 9c0a 1abe
00000020: 4ab2 78be f76b c0bd a85a 3e3e 26e0 613e
00000030: fcbc 883d 5b67 9a3e a0d4 6d3c c709 863e
00000040: 10db 8c3e 7582 80bb 2f8f 01bd 1c6a 15be
00000050: 6641 1cbd b736 903e fa18 813e e95d 1abe
00000060: 8af3 1abd ead8 b43c 0f02 163e e601 a73e
00000070: 7e70 6fbe 4c19 7d3e ea05 523e 79b5 a73e
00000080: 98e9 bf3e 72fb 4ebe f0bf b53e 4c80 4abe
00000090: c03e 0fbd 0753 b73d a31d 993e 0c4a 24be
000000a0: a27f 693d 16fe a93d ff6b 793e 0ca9 cfbd
000000b0: 0360 3a3e 1b00 a4bc 70f0 dfbd 0b6d 873e
000000c0: 0254 203b 34d8 96be 4a38 0fbe 59de f73d
000000d0: 6659 693e 20d9 a73e 5495 40be 8395 e7bc
000000e0: 0fd3 a03e 7edd 12be de91 65be e11f 7abc
000000f0: 5284 983e 018a 933e 0c90 883e 064b 223e
00000100: b159 04be 8ff4 01be 4226 71bd fb2b a93e
00000110: adf5 983d 0d21 d53d 94f0 1a3e a823 46be
00000120: 3c79 8e3e 2c3c 8e3e b973 a1be a629 e83c
00000130: d654 7d3d f65f b5bd 122a 8fbe 7443 ff3d
00000140: c07f 51be 4da7 21be d700 ca3c aee8 1c3e
00000150: 2545 113e 3282 a03e 2599 d9bc 02a9 b2bc
00000160: fbad 0abe 7e83 473e 2bc1 e23d 2008 463c
00000170: 33ab 193e faac 89be 0e59 7abe fa30 80be
00000180: 3d38 923c 5abd 6bbe bea3 64bd a201 82be
00000190: 6199 c0bd d86b 4e3e b6b8 c9bc 2766 733e
000001a0: 3cc4 c43b b89a f83c ce6e 503e 7a47 803d
000001b0: 165b 263d 9971 51be 105b 80be 2fea 7e3e
000001c0: 5447 e8bc e82b f13d e0f3 25be 2878 1bbc
000001d0: bc38 08be 7f15 983e cd68 413e 5607 ee3d
000001e0: b6fd 423d 614d 8a3e 14fe b03e 0487 37be
000001f0: 033d 183e 40b1 733e 7ddc c5bd 7e7e a13e
00000200: 99e2 1c3e 3038 93be 1c17 75be ac9a 893d
00000210: c355 5c3d 1b7b 2ebe 79c6 dd3d 393f 84be
00000220: f76e bdbc bcb4 2a3e ec7f 05be 36ec a93d
00000230: 0dda 9fbe 17e9 b73d 162d 86bd 5847 763e
00000240: da16 a8bd 44c1 31bd b153 61be a66f 6bbe
00000250: 9316 193d eebd 813d 26fd a83c 873d d8bd
00000260: 5c49 46bd 9902 e33b 05fd 86bd 3400 103d
00000270: db40 92be 3d4a 4bbd 1dc3 05bd 389c 27be
00000280: ccf3 46bd acf4 80be e009 b1bd 0837 0bbc
00000290: 8072 523e e046 b1bc 701a 103d 3c71 613c
000002a0: bfa5 8c3e 7bea 3ebe 9b3c 6fbe 0873 81be
000002b0: ca71 6dbc 38f0 8dbc c831 8c3e 2cbc 23be
000002c0: cf6f 5bbe eb13 593e 2551 acbe 62bb fb3d
000002d0: f0d0 1a3c 60a9 abbd 1ed3 61bc 9415 efbd
000002e0: 137d 82be 3256 023d cf69 103e b74f c1bd
000002f0: cabe 853e dd1c 55be 246c 1abe c6ec 3d3e
00000300: 985d 703e 390c 1f3e b655 9dbd 8270 26bc
00000310: 5fa6 5e3e c633 91be 2dd6 8e3e 21b4 943e
00000320: 2cf3 1f3e 65cd c63c c12e a53d da44 e6bd
00000330: c809 973e e8a8 843d 401d 543e 85d7 093e
00000340: 5dbe 70bd 7d2a ba3e cdd7 7c3e 26d6 673c
00000350: e5be 593e e530 403d e35d 86bd 7170 943e
00000360: 81cb 893c 3cb5 3d3e df86 fd3d f771 83be
00000370: d605 3e3e 1f70 d2bd c922 f0bb 7a8b ecbc
00000380: d85c 79be beb2 20bb 998e 983e 862c 3d3e
00000390: 017c ea3c bf39 e1bc 0217 883e b54b 2d3e
000003a0: 5ade 283c 8835 073d d0fd 22be 7cbe 913e
000003b0: 3f40 8abe bc1d 8cbe d3c0 7a3e 484b 723e
000003c0: 2a81 9fbe b5a2 1fbe 0337 5ebd a651 c23d
000003d0: 4ae4 733e 3ee3 86be bcd1 2fbe 0a35 92bd
000003e0: f40c 34be d6d8 a13e fb30 26be 0b87 39be
000003f0: b01e 51ba 7f56 083e 9bcd c83d 2673 db3c
-0.22312704 0.2319747 0.37545708 0.30535284 0.06720435 -0.024736019 0.33553186 -0.1504311
-0.24286762 -0.09395593 0.1858927 0.22058162 0.06676671 0.3015698 0.014516026 0.26179335
0.2751088 -0.0039218017 -0.03163069 -0.14591259 -0.038148306 0.28166744 0.25214368 -0.15074886
-0.037829913 0.022076089 0.14649223 0.32618636 -0.23382756 0.24716681 0.20510069 0.3275564
0.37482905 -0.20213106 0.35498 -0.19775504 -0.034971952 0.08951383 0.29905424 -0.16043872
0.057006486 0.08300416 0.24357603 -0.10139665 0.18200688 -0.020019582 -0.10934532 0.2645038
0.0024464135 -0.29461825 -0.13986316 0.12102956 0.22788009 0.3278284 -0.18806964 -0.028269535
0.31411025 -0.14342305 -0.22418925 -0.01526639 0.29788452 0.28816226 0.266724 0.15848932
-0.1292484 -0.12690948 -0.058874376 0.33041367 0.07468734 0.104066946 0.15130836 -0.1934954
0.2782687 0.27780282 -0.31533602 0.028340172 0.061848484 -0.08856194 -0.27961785 0.124640375
-0.20458889 -0.15786476 0.024658604 0.15323135 0.14186533 0.3134933 -0.026562283 -0.021809105
-0.13542931 0.19483754 0.11072 0.012086898 0.15006714 -0.26889783 -0.24448034 -0.25037366
0.017849082 -0.2302145 -0.05582022 -0.2539187 -0.09404255 0.20158327 -0.02462421 0.23769437
0.0060048383 0.030347213 0.20354769 0.06263633 0.04061421 -0.2045349 -0.25069475 0.24894021
-0.028354324 0.117759526 -0.16206312 -0.009489097 -0.13302892 0.297039 0.18887635 0.11622493
0.04760524 0.2701216 0.34568846 -0.17922598 0.14867024 0.23798084 -0.096611954 0.31541818
0.15320815 -0.28753805 -0.23934597 0.067189544 0.053792726 -0.17039149 0.10828871 -0.25829485
-0.023124201 0.16670507 -0.1303708 0.08297007 -0.31221047 0.08980005 -0.06551568 0.24050653
-0.082074836 -0.043397203 -0.22004582 -0.22991809 0.037375044 0.06335054 0.020628523 -0.105586104
-0.048409805 0.0069278 -0.065912284 0.035156444 -0.28565106 -0.049631346 -0.032656778 -0.16368186
-0.048572347 -0.2518667 -0.08644462 -0.008497007 0.20551491 -0.021640241 0.035181463 0.013759907
0.27470204 -0.18644135 -0.23362963 -0.25283074 -0.014492461 -0.01732646 0.2738173 -0.1598975
-0.2142937 0.21199004 -0.33655658 0.122916 0.009449229 -0.08381915 -0.013783244 -0.116740376
-0.2548605 0.031820484 0.14102863 -0.094390325 0.26122123 -0.20811792 -0.15080315 0.18547353
0.23473203 0.15532006 -0.07682364 -0.01015866 0.21743153 -0.28359812 0.27897778 0.29043677
0.15620106 0.024267862 0.08065558 -0.11243601 0.2949965 0.06477529 0.20714283 0.1346112
-0.058775295 0.3636054 0.24691696 0.014150178 0.21264227 0.04692163 -0.06560876 0.28992036
0.016820671 0.18526167 0.1237924 -0.25672886 0.18556914 -0.10275292 -0.0073283655 -0.028875101
-0.24351823 -0.00245206 0.29796293 0.18474016 0.028623583 -0.027493356 0.26580054 0.16923411
0.010306919 0.033010036 -0.15917134 0.2846564 -0.2700214 -0.27366436 0.24487619 0.2366153
-0.31153232 -0.15589412 -0.054251682 0.094882295 0.23817554 -0.26345247 -0.17169851 -0.07139023
-0.17583066 0.31610745 -0.16229622 -0.18117921 -0.000797729 0.13314246 0.09804841 0.026788305

linear1.bias f4 [256]
00000000: 0710 c43e bb51 643e b23d 9f3e 2131 53be
00000010: 395a 743d 78b0 c33d be9a 303d ec7a 9b3d
00000020: 4fbe 50be 8964 b13e d235 633e 8a55 8c3e
00000030: f992 6b3e 829d 79be 552d 01bc 5955 8abe
00000040: ba5b b53e 17f6 74be 1f59 88bd 9a13 383e
00000050: f97f 5b3e 2cd5 bebc 1a92 da3d 1757 773e
00000060: dc7a b5bd 2e76 0abc 8027 ce3d 1d12 443e
00000070: babb 873d bf91 47be ff9c 213d 0e30 8fbd
00000080: c24d 9e3e 629a 473e 4830 333e eed6 a83e
00000090: 9e38 073e 2832 9abd afe2 8c3e f07e 41be
000000a0: 5cb5 a23d 04dd 3e3e fab8 1cbe a45b 17be
000000b0: 6eda 76bd 4527 803e e179 6dbe 3246 a53d
000000c0: f226 a8be e079 b2bd ed04 c63d ad9f 3f3d
000000d0: 6cd7 aebc 31ef 953d 7848 99be 2880 123e
000000e0: 8c05 ac3e b693 f23c b388 153e af70 113e
000000f0: 786f 15be 542b 08be 1a88 923e 9ca8 8a3d
00000100: 8fdc 4cbe c5f5 2bbe 2022 e6bc 3130 603e
00000110: 1f58 e93d 3d39 c13c 9737 71be c1f5 52be
00000120: f7a3 98bc 504f 0bbe 0aa5 933e 60e2 cb3e
00000130: b4be b13e defa 5cbe 5288 9fbd 4aed b3bd
00000140: 1c67 6dbc 3536 85be 14ed 823d 3fd4 5e3e
00000150: 3103 573d 61fa 7bbe 0a66 8abc f08c 87bd
00000160: adc0 07be c7dd eebc b248 40bc b494 863e
00000170: c690 bc3b 9861 043e cd89 8abe c307 63be
00000180: 0584 33bd 955e a53e 4b5a 9e3e 3776 51be
00000190: 81b8 1b3d a52e cc3d fae7 c53a 3cc2 0f3e
000001a0: 1f8b ab3d d045 bdbd 8eb6 91be 7f5b 953d
000001b0: 1201 5a3e f42a 523e dd67 4abd 0db8 fdbd
000001c0: 90b2 50be 0cfc 463e 6faa 9c3e 3d62 86be
000001d0: 9b40 be3d 3086 413e d54b 4b3d d5e7 6f3e
000001e0: b980 853c bfb3 873d b96b 2abe 8c3c 2b3d
000001f0: 93dc 6b3e c420 60be 745e cdbd 4729 39be
00000200: 461d 4e3e 6ce2 923d d853 a93d ce32 81bd
00000210: 6354 f63c 3c5f a2be 996c 20be fb6f 28be
00000220: 5bf6 773e f711 223d 1d57 b23c afd9 963c
00000230: ef05 983e ca17 47be 6917 04be 51bf 3fbc
00000240: 9d3d 0a3e 1035 a23d fde4 b33d bcf9 873e
00000250: 8791 9d3d c61b a4bd 3ae5 143e 8f55 8f3e
00000260: 4978 6f3e de90 f13d 5bd9 e8bd 183e 6bbd
00000270: dd57 4c3e c42e 1ebe 211c db3d 77b6 c63e
00000280: 6b88 753e 8b59 95be 5977 d93e 8e9f 223e
00000290: 16b7 b53e 02e8 96bd e992 073d a388 fabc
000002a0: ae21 9cbd cc29 a4be 4922 4b3d bb9f 473d
000002b0: cef9 ad3b 11fc 123e 2b71 7abe f830 403c
000002c0: 6dee 2a3e a1ce cabc f72b e13c b59f 95bd
000002d0: d14f 27bc 4f5a 7cbe b9cf cabc c119 61bd
000002e0: c70e 903d 7e42 0abe 6ac4 b6bd 74bc e6bd
000002f0: 2576 3dbd 5f80 0d3e 3be3 7cbe 06ff b63d
00000300: a2a9 7a3e b055 953b d867 5bbe e9a9 543e
00000310: 210f 223e 2067 813e 9a95 783e d1b3 fdbd
00000320: 60b6 a3be fb98 f63d 4255 51be 313a df3d
00000330: a250 d23d d9b1 a13e ab54 d43b 0231 953e
00000340: b6ae 94bd 4bdb 37be c5b9 683d b4d2 babd
00000350: ba30 95bd be86 873d ffa6 1c3e 429b 0cbe
00000360: 6838 5cbe e16b 8cbe 7e8b abbd 0ce7 2a3d
00000370: 103c 2bbe ae97 82be 00c5 a53e 68b2 3d3e
00000380: 3540 163e 450d 473e c5f7 24be 7f58 9bbd
00000390: 0278 633e e796 a0be 5be8 233e 6ca6 8e3e
000003a0: bad7 f1bd ac67 cdbc 955b e5bd 32b2 64be
000003b0: 995e d4bd 62c9 da3e 33a5 21be 14d5 883e
000003c0: d047 e6bd a9c6 9e3e 703a 8d3e e052 db3e
000003d0: ae70 e1bd d8d0 443e 0013 a83e 43c9 413e
000003e0: a0db d53d 37aa fb3b cd7e 8c3e 2a00 003e
000003f0: 695c 123d aad2 9b3d 2adc a33e e1de b4bc
0.38293478 0.22296803 0.31101757 -0.2062421 0.059656356 0.09555143 0.043116324 0.07591805
-0.20385097 0.34647015 0.221885 0.2740901 0.23005284 -0.2437649 -0.007884343 -0.2701824
0.35421544 -0.23922001 -0.066576235 0.17976227 0.21435536 -0.023295008 0.10672398 0.24154316
-0.08861324 -0.008451028 0.10066128 0.19147535 0.06627603 -0.19489191 0.039456364 -0.069915876
0.309187 0.19492486 0.17498887 0.32976478 0.13205191 -0.07529098 0.27516696 -0.18896079
0.07944748 0.18638998 -0.15304938 -0.14781052 -0.060266905 0.2502996 -0.23191024 0.08070029
-0.32842213 -0.08714652 0.09668908 0.046783138 -0.021342956 0.07321013 -0.29938102 0.143067
0.33597982 0.02961145 0.14602928 0.14203142 -0.14593303 -0.13297778 0.28619462 0.06770441
-0.20006011 -0.16792972 -0.028092444 0.21893384 0.11393761 0.023586864 -0.23556362 -0.2060156
-0.018632872 -0.13604474 0.28836852 0.39821148 0.34715807 -0.21580073 -0.07789673 -0.08785494
-0.014489915 -0.2601792 0.06392875 0.21760653 0.052493278 -0.2460723 -0.01689436 -0.066186786
-0.13257094 -0.029158486 -0.011736082 0.26285326 0.005754563 0.12927854 -0.2705826 -0.2217093
-0.043827076 0.32298723 0.30928263 -0.20455252 0.038017754 0.09969834 0.0015099042 0.14038938
0.083761446 -0.09241831 -0.2845959 0.07292842 0.21289471 0.20524198 -0.049415458 -0.123886205
-0.20380616 0.19432086 0.3059878 -0.26246825 0.09289666 0.18898845 0.049632866 0.2342828
0.016296731 0.06626081 -0.16642655 0.04180579 0.23033361 -0.21887499 -0.10027781 -0.18082152
0.20128354 0.07172093 0.08267945 -0.06308518 0.030069536 -0.31713283 -0.15666427 -0.16448967
0.24215071 0.039567914 0.021770054 0.018414347 0.29692027 -0.19442669 -0.12899555 -0.011703328
0.13500066 0.07920277 0.087839104 0.2655772 0.07693773 -0.0801311 0.14540568 0.27994964
0.23385729 0.11795209 -0.11369582 -0.057432264 0.19955392 -0.15447527 0.106987245 0.38811085
0.2397782 -0.29169878 0.42473868 0.15881178 0.35491246 -0.07368471 0.03309909 -0.030582732
-0.076236114 -0.32063138 0.049593244 0.048736315 0.00530932 0.14353968 -0.24457233 0.011730425
0.16692515 -0.024756731 0.027486784 -0.07305852 -0.010211901 -0.24643825 -0.024757253 -0.0549562
0.070340686 -0.13501927 -0.08924182 -0.11266413 -0.04625525 0.13818501 -0.24696057 0.089353606
0.24478772 0.004557334 -0.21426332 0.2076794 0.15826084 0.2527399 0.24275818 -0.12387813
-0.3197508 0.120408975 -0.2044268 0.10899771 0.10269286 0.31581 0.00647982 0.29138952
-0.07259886 -0.17954747 0.05681779 -0.0912222 -0.072846845 0.06617497 0.15298079 -0.13731101
-0.21505892 -0.27426055 -0.083762154 0.04172425 -0.16722131 -0.25506347 0.32376862 0.18525088
0.1467293 0.19438656 -0.16110142 -0.07585239 0.22213748 -0.3136513 0.16006605 0.27861345
-0.11808725 -0.025073849 -0.111991085 -0.22333601 -0.103696056 0.42731768 -0.15785675 0.26725066
-0.11244166 0.3101094 0.27583647 0.42836666 -0.1100782 0.19220293 0.32826996 0.18924432
0.10442281 0.0076802033 0.2744049 0.12500063 0.03573266 0.0760854 0.3200391 -0.022078933

linear2.weight f4 [3, 256]
00000000: 4c94 bfbd 04c5 23bd ad08 eabd 1ea7 be3c
00000010: de4b 02bd de54 e7bd 18a7 9ebd d227 7fbd
00000020: acb5 b73a 79d5 debd fe3b f0bc 1bf4 41bd
00000030: 0cfc 00be af03 383c 81ef 933b 6287 92bd
00000040: be4b bdbc 60f4 f53c c79e 36bd 0f83 87bd
00000050: a107 7fbd d1d5 e9bc cf25 bdbc bbb7 48bd
00000060: 0b8f 5abd 7437 bbbb 23bb e1bb 3fe4 503c
00000070: 03e4 2bbd 7c1b f5bd 7871 20bd 1193 0bbe
00000080: c4fc e5bd 4d45 eebc 12c9 79bb 8482 c2bd
00000090: bc7c d9bd 057f 8e3d 7c1a 6bbd 0cb0 bdbc
000000a0: a8c5 18bc c3ef b4bd 5793 a1bb ad71 483d
000000b0: be4a 3c3c b582 bebd 1fff b9bc 5f88 69bc
000000c0: 3922 d2bc bfd4 48bd 883b 313d a059 7dbc
000000d0: cc8c 32bd 5b6f 9bbd 6020 e13b 42c5 96bd
000000e0: 0e02 93bd d4ba 8ebd d27c e9bd f7a9 69bc
000000f0: 4b18 2e3c 71d9 6bbb ecf9 92bd 0c42 11bd
00000100: ea4b 863d 5f9f 863c 809d 25bd b002 1fbd
00000110: 1f23 46bc f146 9dbc 4a84 b1bd 93f2 5b3c
00000120: c9e0 c33d 69ff 393c 31dd 06bc 59a1 06be
00000130: 8559 bdbd 1ec0 c7bb 62eb 11bd 4cc4 c7bd
00000140: 92cb 92bd fb03 5b3d 949c f3bd 4876 a8bd
00000150: e989 a8bd 8f70 b2bd 3564 e13c ddcb adba
00000160: 95d7 75bb b958 96bb 3f4a dcbc 2b85 f8bc
00000170: 1043 973c 0e58 18bd 7548 a1bc 3126 7c3d
00000180: 0f51 9ebd 89c7 81bd 45ad 06be a83d 29bb
00000190: 6f9a 2dbd c7ed 84bd f16b 8ebd 4728 d2bc
000001a0: 60d3 83bd ded0 b23b 1a6c ebbc 8283 9bbb
000001b0: 0ead 9ebd 8e88 71bd 194f 5ebd 5073 e1bd
000001c0: a0da 0a3d c8f0 b6bb aed5 d6bd a591 0bbd
000001d0: 33e9 b3bd cd87 81bd 99b3 9c3c 52c4 15bc
000001e0: 299b b1bd 5138 c03c 2066 45bd 4b1c 37bc
000001f0: f344 c8bd ed2b a33c 8d12 9f3d 25e1 06bb
00000200: d74b 0e3c 661d 8bbd 3605 b8bd d991 c7bd
00000210: c1d9 3a3d d364 ee3c e05c 50bd dd23 63bd
00000220: 157f 83bd 9e41 99bc 9b7f ecbb 6d65 cebc
00000230: 8f71 d8bd 407e 6a3c 085f 093d 74dd 82bd
00000240: 3767 efbb 5472 5a3d 3098 92bc 0b23 55bd
00000250: 9425 b8bd ed44 aebd 8979 e2bc dbe2 11bd
00000260: 47ae e4bb 8148 97bd d357 2e3c 1a0c 5dbd
00000270: 82ed 0dbd 4e03 84bc 1737 46bd 69c7 abbd
00000280: 5030 efbd 18b1 f6bc 2f42 ecbd 9ded c2bd
00000290: 9c81 aabc 44bc bbbc 77d4 d0bd 221d 543c
000002a0: 3926 fbbb adf0 1abd 896d 93bd 74f0 2ebd
000002b0: a2a0 0cb9 a457 c9bd 8d36 333d 9790 eebd
000002c0: cdeb fabb 6ff8 86bd 7e90 83bd e060 e7bd
000002d0: b249 92bd 45a2 1a3d e0ac 91bd 9369 d9bd
000002e0: b0f2 08bd 2f2a 533d 3888 00be e90b dfb8
000002f0: 99e7 9abd 5b90 2bbb b122 17bd c4c4 113d
00000300: a4db e4bc 7cbb 56bd 6262 49bc 96d3 02be
00000310: 611d c8bd da8f f1bd 2904 7bba 4c61 3ebd
00000320: fcc2 083c fbd7 5ebd ece3 57bd 2d86 ddbd
00000330: 10ed b0bc ba8d b4bd c14b 25bd 1ca5 63bd
00000340: 52a4 d83c 67ab 843c 28b8 85bd 3ba8 033b
00000350: 52e7 73bd e4e5 babd d7cf fabd 7842 7bbb
00000360: d96c 73bd 06b7 033d 00fb 8abd f6b4 c53c
00000370: 4088 cbbc 3530 57bd c643 9abd ad5c e6bd
00000380: ca85 3ebc e187 bbbd 9020 8b3c f307 debd
00000390: fdb9 f1bd c718 03bd a090 02be 9d4a aabd
000003a0: fb1d d8bc df94 98bd 2443 8d3c db8b f93c
000003b0: dc20 e9bd 1ebd b5bd 0d3e d7bb 6923 87bd
000003c0: f8a5 babc 9fd5 4bbd 6202 edbd 22f3 c0bd
000003d0: 6e7e 7bbd 6254 6f3b d468 cdbd 08fb 7e3b
000003e0: 119b 6fbd 30bd 7bbd 2eee a8bc a855 e1bc
000003f0: 253e dcbd 09fe 8dbd 7f42 7abd 5f2c bd3c
-0.09354457 -0.03998281 -0.11427436 0.023273047 -0.031810634 -0.11295484 -0.07746714 -0.062293835
0.0014015934 -0.108805604 -0.029325482 -0.047351938 -0.12596148 0.011231347 0.004514635 -0.071547285
-0.023107406 0.030023754 -0.044585016 -0.06616794 -0.062263135 -0.028544338 -0.023089318 -0.049003344
-0.053359073 -0.0057133976 -0.0068887635 0.012749731 -0.041965496 -0.11968133 -0.039170712 -0.1363032
-0.11229852 -0.02908578 -0.0038114232 -0.0949755 -0.10619494 0.06957821 -0.057398304 -0.023155235
-0.009324469 -0.088347934 -0.0049308944 0.048936535 0.011492429 -0.09302274 -0.022704659 -0.014253705
-0.025651084 -0.049031015 0.043269664 -0.015463263 -0.043591306 -0.07589599 0.0068703145 -0.07361843
-0.07178126 -0.069692284 -0.11400761 -0.014261714 0.010625909 -0.003598776 -0.07176575 -0.035463378
0.06557448 0.016433416 -0.040433407 -0.038820922 -0.012093334 -0.019198867 -0.0866781 0.013424533
0.09564359 0.011352398 -0.008231447 -0.13147487 -0.0924559 -0.0060959 -0.03562487 -0.097542375
-0.07167734 0.053470593 -0.11895099 -0.08225685 -0.08229429 -0.08712875 0.027513603 -0.0013259609
-0.003751253 -0.0045882133 -0.026890872 -0.030336937 0.018464595 -0.03719335 -0.01968787 0.06155986
-0.077303044 -0.063368864 -0.13152035 -0.0025824104 -0.042383607 -0.06490665 -0.06954182 -0.025653971
-0.06436801 0.005457028 -0.02873807 -0.0047459016 -0.07747851 -0.05896812 -0.054274652 -0.11008322
0.033899903 -0.0055829026 -0.10489975 -0.034074444 -0.087847136 -0.0632473 0.019128608 -0.009141045
-0.086721726 0.023464354 -0.048193097 -0.011176179 -0.09778776 0.019918406 0.0776721 -0.0020580974
0.008685074 -0.06792717 -0.08985369 -0.09744615 0.045617823 0.029100811 -0.050869823 -0.055454124
-0.06420723 -0.018708047 -0.00721736 -0.025194848 -0.105685346 0.014312327 0.033537894 -0.06389895
-0.0073060053 0.053331688 -0.017894834 -0.052035373 -0.089915425 -0.0850924 -0.027645843 -0.035616737
-0.0069787833 -0.07386876 0.010641056 -0.05396662 -0.034650333 -0.016114857 -0.04839238 -0.08387644
-0.11679137 -0.030113742 -0.11536061 -0.095179774 -0.020813756 -0.02291692 -0.101967745 0.012946399
-0.0076644686 -0.037827183 -0.071986265 -0.042709783 -0.00013411281 -0.09831169 0.043753196 -0.11648672
-0.007657504 -0.06590354 -0.06424044 -0.11297774 -0.071429625 0.03775241 -0.071130514 -0.1061584
-0.03343457 0.0515539 -0.12551963 -0.00010635687 -0.07563705 -0.0026178572 -0.03689832 0.03558804
-0.027936764 -0.052424893 -0.012291523 -0.12776026 -0.097712286 -0.11795016 -0.000957551 -0.04647951
0.008347269 -0.054405194 -0.052707598 -0.108166076 -0.021597415 -0.08816095 -0.040355448 -0.055577382
0.026445542 0.016195012 -0.06529266 0.0020089287 -0.059546776 -0.091258794 -0.122466736 -0.003833918
-0.059429977 0.032156967 -0.06786156 0.02413414 -0.024845243 -0.05253621 -0.07532458 -0.11248145
-0.0116285775 -0.09156776 0.0169833 -0.1084136 -0.118030526 -0.03200605 -0.12750483 -0.083150126
-0.026381483 -0.0745027 0.01724393 0.030462196 -0.113832206 -0.08873962 -0.0065686763 -0.06598551
-0.022784218 -0.04976427 -0.1157272 -0.09421374 -0.06139987 0.0036518802 -0.1002976 0.003890695
-0.058497492 -0.06145972 -0.020621385 -0.027506664 -0.10754041 -0.06933219 -0.061098572 0.023092447

linear2.bias f4 [3]
00000000: 2026 d5bd 6e69 5abd 30dd 46bd
-0.104076624 -0.0533232 -0.048550785
