Snake/model/model.pth (torch, 17609 bytes, 4 tensors)

linear1.weight f4 [256, 11]
0	0xbde0b58d	-0.10972128
1	0xbe82908f	-0.25500914
2	0x3e6555ac	0.22395962
3	0x3e307f6a	0.17236105
4	0x3e331430	0.1748817
5	0xbe873a0b	-0.2641147
6	0x3d0573a4	0.032580987
7	0xbdc49551	-0.09598792
8	0x3d174862	0.036934264
9	0x3e49d182	0.19708827
10	0xbd04c974	-0.032418683
11	0x3dd1024c	0.10205516
12	0x3e68ad05	0.22722252
13	0x3d6f9289	0.058489356
14	0xbe847c1b	-0.25875935
15	0xbe8c5f7f	-0.27416608
16	0xbe993727	-0.2992489
17	0xbe048ecb	-0.12945096
18	0x3d38d284	0.04512264
19	0x3d630923	0.055428635
20	0xbe138060	-0.1440444
21	0xbe19b3da	-0.15010014
22	0xbcbc24f0	-0.022966832
23	0xbb7245ea	-0.0036967942
24	0x3eae1706	0.3400194
25	0x3e8dd859	0.27704123
26	0x3e06f76a	0.13180318
27	0xbdd39c64	-0.103325635
28	0xbe144ccc	-0.1448242
29	0xbe30f55e	-0.172811
30	0x3e8ef6d2	0.27922684
31	0x3e50a538	0.20375526
32	0xbe0a77c3	-0.13522248
33	0xbe287932	-0.16452482
34	0x3e8308e6	0.25592726
35	0x3e308b43	0.17240624
36	0xbe970f2d	-0.29503766
37	0xbe5315e4	-0.2061382
38	0x3e97368a	0.29533798
39	0xbe104eca	-0.14092556
40	0xbdc90338	-0.09815067
41	0xbe0f0ff2	-0.13970926
42	0xbc43111e	-0.0119059365
43	0x3e221fde	0.15832469
44	0xbe0f8835	-0.14016803
45	0x3cb95aa5	0.02262623
46	0xbe8b3e67	-0.27196047
47	0x3d9cd700	0.076581955
48	0xbd8062be	-0.062688336
49	0xbe2cdf51	-0.16882063
50	0x3d86255f	0.06550097
51	0x3dc0a312	0.09406103
52	0xbe66f156	-0.22553
53	0x3d9db5d2	0.07700695
54	0xbe003744	-0.12521082
55	0xbdc96416	-0.09833543
56	0x3d6acb31	0.057322685
57	0x3e7bf3d5	0.24604733
58	0xbe88e087	-0.267338
59	0xbe94dbf4	-0.2907406
60	0xbe9926a7	-0.29912302
61	0x3c6ee5db	0.014581169
62	0xbcc2bef3	-0.023772692
63	0xbe5c89e1	-0.21536972
64	0xbd0a99a1	-0.03383792
65	0xbd24c9bc	-0.04023145
66	0xbe36c294	-0.17847663
67	0x3e17801e	0.14794967
68	0xbe41f83e	-0.18942353
69	0x3d88293e	0.06648491
70	0xbe6f3a32	-0.23362043
71	0x3e473e89	0.19457449
72	0x3e5e43df	0.21705578
73	0x3e3c2ae8	0.18375742
74	0x3e539842	0.2066355
75	0xbd615e5a	-0.05502162
76	0xbd9e418e	-0.07727347
77	0xbe4cb39e	-0.19990394
78	0xbe8230c8	-0.25427842
79	0xbe9472c1	-0.289938
80	0xbe8b11dd	-0.27162066
81	0x3d05e0c3	0.032685053
82	0x3e5b56bf	0.2141981
83	0x3e640a46	0.22269544
84	0x3e1b1db4	0.1514805
85	0x3dc0535c	0.093908995
86	0xbe37c005	-0.17944343
87	0xbe383ae1	-0.1799121
88	0xbdd063bb	-0.10175272
89	0xbdf0f620	-0.117656946
90	0x3e944c9f	0.28964707
91	0xbe908d9a	-0.28233033
92	0x3d808ba8	0.06276637
93	0x3e966414	0.2937323
94	0x3dc03393	0.09384837
95	0x3e9cf45c	0.3065518
96	0xbe808d86	-0.25107974
97	0x3c0cdf4d	0.008598161
98	0x3df682ae	0.12036644
99	0x3e86baa9	0.26314285
100	0x3e8b75e1	0.27238372
101	0xbd8913a5	-0.066932
102	0x3d5c4875	0.053780038
103	0xbd82f4b1	-0.063943274
104	0xbe0a8bd7	-0.13529907
105	0x3e8b48ab	0.2720388
106	0x3e6d935e	0.23200747
107	0xbc518b71	-0.012789593
108	0xbe1b0dda	-0.15142003
109	0x3eb551c7	0.35413954
110	0xbe54acf9	-0.20769109
111	0x3c82e691	0.015979083
112	0xbe2fe6bc	-0.17177862
113	0xbd80fb29	-0.06297905
114	0x3e1e5ad0	0.1546433
115	0xbe520437	-0.2050942
116	0x3dfc12cb	0.12308272
117	0xbe13200b	-0.14367692
118	0x3e56acd0	0.2096436
119	0x3e0f9259	0.14020671
120	0xbc59627a	-0.013268108
121	0x3df813ea	0.12113173
122	0xbe78039e	-0.2422013
123	0xbe5bf8c0	-0.2148161
124	0x3d649477	0.05580565
125	0xbe8f906d	-0.28039876
126	0x3db5fe9b	0.08886453
127	0xbe86dc3a	-0.26339895
128	0xbe5a69e3	-0.21329455
129	0xbcef88bf	-0.02924001
130	0xbe8cbc80	-0.27487564
131	0x3e01d60b	0.12679307
132	0xbe1a3ece	-0.1506302
133	0xbdcf6e63	-0.101284765
134	0x3ebe412c	0.37159097
135	0xbd6afce2	-0.057370074
136	0xbc6c0f4a	-0.014407942
137	0x3e4783b7	0.19483839
138	0xbdb60d59	-0.088892646
139	0x3e884749	0.26616886
140	0x3e40304a	0.18768421
141	0x3e9587fc	0.2920531
142	0xbc806994	-0.015675344
143	0xbe3d9836	-0.18515095
144	0x3e14ef16	0.14544329
145	0xbd0c26f7	-0.034216847
146	0xbdc6e342	-0.09711315
147	0xbe860b68	-0.26180577
148	0xbd0e21c1	-0.03470016
149	0xbe2ef24d	-0.17084618
150	0x3e38453e	0.17995164
151	0xbdd7e544	-0.10541776
152	0xbd5716c5	-0.05251195
153	0x3e96a621	0.2942362
154	0x3e99bdb0	0.30027533
155	0xbd55887b	-0.05213211
156	0xbe067948	-0.13132203
157	0x3e362d82	0.17790797
158	0x3e97c780	0.29644394
159	0xbd984fac	-0.07437071
160	0x3e4f2c50	0.20231748
161	0x3dc1abab	0.09456571
162	0x3e9d1eb5	0.3068749
163	0xbe1f0eec	-0.15533036
164	0x3e6ba2ae	0.23011276
165	0xbe7afc3f	-0.24510287
166	0x3d5fb742	0.054618128
167	0xbe4bab62	-0.19889596
168	0x3e33049c	0.17482227
169	0x3e4f2be0	0.2023158
170	0x3dd4a64f	0.10383283
171	0x3e42f129	0.19037308
172	0x3dc1bb0a	0.09459503
173	0x3dc82796	0.097731754
174	0xbe55e288	-0.20887196
175	0xbdda40df	-0.106569044
176	0x3e49c48c	0.19703883
177	0x3e7aa8bb	0.24478428
178	0x3d73ba53	0.059503864
179	0x3e572e52	0.21013764
180	0x3e140070	0.14453292
181	0x3d8ed11d	0.06973479
182	0xbdff4128	-0.124635994
183	0x3eb5f8a4	0.3554126
184	0x3e8e27f3	0.27764854
185	0x3ec4aaeb	0.3841165
186	0xbd8a6bb9	-0.06758828
187	0x3e12aa21	0.14322712
188	0xbe730772	-0.23733309
189	0x3e562c40	0.20915318
190	0x3dc7a272	0.09747781
191	0xbe27b4bb	-0.16377537
192	0x3e8d0841	0.2754536
193	0xbea38b3e	-0.3194217
194	0xbe58387b	-0.21115296
195	0x3e8c4aba	0.27400762
196	0x3d1c2ab4	0.038126662
197	0x3e7ad071	0.24493577
198	0x3e7b4cfb	0.24541084
199	0x3e21ce07	0.1580125
200	0x3ce141bc	0.027497165
201	0xbe8d76ca	-0.2762969
202	0xbe269066	-0.16266021
203	0xbd666e64	-0.05625762
204	0x3d938c1f	0.0720446
205	0x3e1b417c	0.15161699
206	0x3e5a0590	0.21291184
207	0x3e704a93	0.23465948
208	0xbe30f36f	-0.17280363
209	0x3eace4c6	0.3376829
210	0xbe47dcf7	-0.19517885
211	0xbe0063e7	-0.1253811
212	0xbe666959	-0.22501124
213	0xbe1855d6	-0.14876494
214	0x3d859b25	0.06523732
215	0x3e1ea033	0.15490799
216	0xbe40feeb	-0.18847243
217	0x3de8019c	0.11328432
218	0x3d5170d7	0.051133003
219	0x3d86ca30	0.06581533
220	0xbd490da1	-0.049085263
221	0xbbf829e4	-0.007573353
222	0xbc079ef2	-0.008277642
223	0x3d33799b	0.043817144
224	0xbe5ab3ba	-0.21357623
225	0x3db0d5a7	0.08634501
226	0x3dd9fafe	0.10643576
227	0x3e761577	0.24031626
228	0x3db5b4a8	0.08872348
229	0x3d9de29a	0.077092364
230	0x3e47b3f5	0.19502242
231	0xbdab3336	-0.08359377
232	0x3ea22fba	0.31677037
233	0xbd03fbc1	-0.032222513
234	0xbe311d11	-0.17296244
235	0x3e5b13d2	0.2139428
236	0x3e903a35	0.28169408
237	0xbca0f7ac	-0.01964935
238	0x3d89f89b	0.06736871
239	0x3ca9e1f2	0.020737622
240	0xbe71d81c	-0.23617595
241	0x3e2de1a6	0.1698061
242	0x3e72547d	0.23665042
243	0xbea8e380	-0.3298607
244	0xbe1e534d	-0.15461464
245	0xbe8c2824	-0.27374375
246	0x3e2e2c82	0.17009166
247	0x3d9dd3f7	0.07706445
248	0xbe24293c	-0.16031355
249	0x3d5f2645	0.054479856
250	0xbe780ebd	-0.24224372
251	0x3dd39eee	0.10333048
252	0x3e23b32e	0.1598632
253	0xbe331cc9	-0.1749145
254	0xbc8763d4	-0.016527094
255	0xbda9b5c5	-0.08286623

linear1.bias f4 [256]
0	0xbdd94133	-0.10608139
1	0xbe4f79d3	-0.20261316
2	0x3e8212e5	0.2540504
3	0xbe30a01e	-0.1724858
4	0x3c8afdea	0.016966779
5	0xbe8f5f95	-0.2800261
6	0xbd11e4b0	-0.035618484
7	0x3e1ddc09	0.15415968
8	0x3dccb749	0.09995896
9	0x3dd7ec1d	0.10543082
10	0xbd9aa8ea	-0.07551749
11	0x3e604499	0.21901168
12	0xbdc7051d	-0.09717772
13	0x3e18215e	0.14856479
14	0x3e2618eb	0.16220443
15	0x3e5cbf65	0.21557386
16	0x3ed47f2b	0.4150327
17	0xbe5a9cf0	-0.2134893
18	0xbe8e5e2a	-0.27806216
19	0x3e88aebb	0.2669581
20	0x3e80775b	0.2509106
21	0x3e51fe29	0.2050711
22	0xbd9d73c8	-0.07688099
23	0x3e91aa75	0.2845036
24	0x3bc28e43	0.005937369
25	0xbde35674	-0.11100474
26	0x3ebabd83	0.3647271
27	0xbc6a23ca	-0.014290759
28	0x3e3a559b	0.18196718
29	0x3e96d253	0.2945734
30	0x3d494fb6	0.049148284
31	0x3d31bb1c	0.043391332
32	0x3d3ce1ca	0.046113767
33	0x3e0bd6ca	0.13656154
34	0xbcccb61e	-0.024989184
35	0xbab1f1c1	-0.0013576077
36	0x3e0dd98d	0.1385252
37	0xbda3b847	-0.079941325
38	0xbe5efbad	-0.21775694
39	0xbe4d721a	-0.20063058
40	0x3e9e6890	0.3093915
41	0xbcf1d6a2	-0.02952129
42	0x3def8190	0.11694634
43	0xbc6f1943	-0.014593425
44	0x3deb5e21	0.11492563
45	0x3e146f80	0.14495659
46	0x3e54480c	0.20730609
47	0x3d40c4b7	0.047062602
48	0xbe940a4a	-0.289141
49	0xbd9a5919	-0.07536525
50	0xbe2c0ff3	-0.16802959
51	0xbe33f55c	-0.17574066
52	0x3e0fa117	0.14026295
53	0x3e9729a0	0.29523945
54	0x3e04376e	0.1291177
55	0x3e48df95	0.1961654
56	0x3e95e585	0.29276672
57	0xbe1239ed	-0.1427991
58	0x3e9856eb	0.29753813
59	0x3e283eb3	0.16430168
60	0x3e4a22ab	0.19739787
61	0xbe7e67dc	-0.24844307
62	0x3e8bcea6	0.27306098
63	0x3e17a00b	0.14807145
64	0xbe9f830e	-0.31154674
65	0xbe5f120b	-0.21784227
66	0xbd8eadca	-0.069667414
67	0x3e9cda5a	0.3063534
68	0xbd93fcd0	-0.072259545
69	0x3dc0b1ee	0.094089374
70	0xbd5d7507	-0.054066684
71	0xbda08385	-0.07837585
72	0x3e42a63a	0.19008723
73	0x3e7dd0e0	0.2478671
74	0xbdcbcbf0	-0.09951007
75	0xbe068b1d	-0.13139005
76	0xbe0c1afb	-0.13682167
77	0x3d3cf023	0.04612745
78	0xbd17b893	-0.037041258
79	0x3e5524b2	0.2081478
80	0xbe1571ad	-0.14594145
81	0x3ea5e42f	0.32400653
82	0x3eabd395	0.33559862
83	0x3e93787a	0.28802854
84	0xbe2df844	-0.16989237
85	0xbe84768e	-0.258717
86	0x3dde3d56	0.10851543
87	0x3e00c1b3	0.1257389
88	0x3eb7ca73	0.35896644
89	0xbd90fcb9	-0.07079453
90	0xbb8ddd83	-0.004329385
91	0xbdd6302b	-0.10458406
92	0xbe0ab7aa	-0.13546625
93	0x3e9aadb2	0.30210644
94	0x3e974743	0.29546556
95	0x3e998408	0.29983544
96	0xbd5e2ae0	-0.054240108
97	0xbe24ecb8	-0.16105926
98	0x3e537be2	0.20652726
99	0x3e67840d	0.22608967
100	0xbd94bee8	-0.07262975
101	0x3d39a605	0.045324344
102	0x3e16c9f4	0.14725477
103	0x3b3ed0c9	0.0029116145
104	0xbd964b51	-0.07338584
105	0x3dbaec50	0.09127104
106	0xbe1be4e1	-0.15224029
107	0x3e4dbbcd	0.20091172
108	0x3ddd5e64	0.10809019
109	0x3eb90ba3	0.3614169
110	0xbd43b0e8	-0.047776133
111	0x3e3efad3	0.1865037
112	0x3db4f499	0.08835716
113	0x3de0b356	0.109717056
114	0x3e8ce810	0.275208
115	0xbe7d04ff	-0.24708937
116	0xbe886d76	-0.26646012
117	0x3e205756	0.15658316
118	0xbe3fa2d4	-0.18714458
119	0xbe957b25	-0.29195514
120	0xbe902b61	-0.28158095
121	0x3c6d7743	0.014493766
122	0xbe22a881	-0.15884592
123	0xbde83256	-0.11337726
124	0x3dad0800	0.084487915
125	0xbe367c5e	-0.1782088
126	0xbdbe3e0c	-0.09289178
127	0x3d9b3d7f	0.07580089
128	0xbdd11bdd	-0.102103926
129	0x3cc528e8	0.024067357
130	0x3e25e134	0.1619919
131	0xbe02c9ff	-0.12772368
132	0x3e02a6b9	0.12758912
133	0x3ea4a9b7	0.32160732
134	0xbe83d00b	-0.25744662
135	0xbd8b916f	-0.06814849
136	0x3d8a3036	0.06747477
137	0xbe2e0745	-0.1699496
138	0xbd7c50ca	-0.061600484
139	0x3ca53473	0.020166611
140	0xbde2f43a	-0.11081739
141	0x3e1ef605	0.15523537
142	0xba823614	-0.000993433
143	0xbde19030	-0.1101383
144	0x3e324a28	0.17411101
145	0xbe7babc6	-0.24577245
146	0xbe610a95	-0.21976693
147	0x3d581ace	0.052759938
148	0x3e257ced	0.16160937
149	0x3a7c38de	0.0009621511
150	0x3cff7c24	0.031187125
151	0xbdae021c	-0.08496496
152	0x3df4a943	0.119463466
153	0x3dbcd86f	0.09220969
154	0xbdc7d61d	-0.09757636
155	0x3e98023c	0.29689205
156	0x3e3fdaa8	0.18735754
157	0x3e08bd30	0.1335342
158	0xbe779fa5	-0.24181993
159	0xbeb69a69	-0.3566468
160	0xbdf204ec	-0.11817345
161	0x3edb63e7	0.42849657
162	0xbcf2a9dd	-0.029622013
163	0x3ea4fe51	0.32225278
164	0x3eb164f7	0.34647343
165	0x3e888c77	0.26669666
166	0x3a86adc9	0.0010275181
167	0xbdd371ee	-0.10324465
168	0xbe97c755	-0.29644266
169	0xba2bff57	-0.0006561181
170	0x3eba089f	0.36334702
171	0x3eb763a3	0.35818204
172	0xbde22cc0	-0.11043692
173	0xbe55f50b	-0.20894258
174	0xbe7eb67f	-0.24874304
175	0x3e88ba24	0.26704514
176	0x3c6a2346	0.014290636
177	0x3e840180	0.25782394
178	0x3eabb839	0.33538988
179	0x3e8a39b7	0.26997158
180	0xbc7a73db	-0.015286411
181	0x3e4162e7	0.18885385
182	0xbe1d7ee2	-0.15380433
183	0x3d4e1e36	0.05032178
184	0xbe193664	-0.14962155
185	0x3de2c9ce	0.110736474
186	0xbd8af993	-0.06785884
187	0x3ecd0841	0.4004536
188	0x3d39f969	0.04540387
189	0x3e6be5f7	0.23036943
190	0x3dbb3277	0.09140485
191	0x3e6c497b	0.23074906
192	0x3db79bd3	0.08965268
193	0xbe421cd0	-0.18956304
194	0xbd19a6c2	-0.03751255
195	0xbd2fb586	-0.042897724
196	0x3dd94892	0.10609545
197	0xbe376542	-0.1790972
198	0xbeabd1b4	-0.33558428
199	0xbde69f99	-0.112609096
200	0x3eac9b7f	0.33712384
201	0xbe53d930	-0.20688319
202	0x3c91fd9a	0.017821122
203	0x3ea8760e	0.3290257
204	0xbd542f37	-0.05180284
205	0xbd8d13fa	-0.06888576
206	0x3dffc6b3	0.12489071
207	0x3dcf726b	0.10129245
208	0xbe9908bb	-0.29889473
209	0x3d81c115	0.063356556
210	0x3e156394	0.14588767
211	0xbd7ce200	-0.061738968
212	0x3d475dd1	0.048673455
213	0x3e530241	0.20606329
214	0x3e811631	0.25212243
215	0xbd5c4246	-0.05377414
216	0xbdede126	-0.11615209
217	0x3e943ace	0.28951114
218	0xbe96835d	-0.29397097
219	0x3e05b53b	0.13057415
220	0x3e5f4755	0.21804555
221	0x3e3346ab	0.17507426
222	0xbe2f2521	-0.17104007
223	0x3d989c7f	0.07451724
224	0x3e9679c2	0.2938977
225	0x3e74bc7f	0.2390003
226	0x3d817ff1	0.06323231
227	0xbe1f1e75	-0.15538962
228	0x3e3b2e38	0.1827935
229	0xbe44104b	-0.1914684
230	0xbc03320b	-0.008007537
231	0x3e85419f	0.26026627
232	0xbd9183d5	-0.07105223
233	0x3ecb7ce4	0.3974372
234	0x3e282de7	0.1642376
235	0x3de3689f	0.11103939
236	0x3d7a67a6	0.061134003
237	0xbe665a47	-0.22495376
238	0xbe786dcd	-0.24260636
239	0xbdf3667d	-0.118847825
240	0x3da0d5e4	0.078532964
241	0x3e8666a2	0.26250178
242	0xbe4193b9	-0.18904008
243	0xbe67cb4e	-0.22636148
244	0x3e2c50e4	0.16827732
245	0x3e927f9d	0.28612986
246	0xbe8f245a	-0.27957422
247	0xbe16ee74	-0.147394
248	0x3d446ab7	0.047953334
249	0xbe8aa006	-0.27075213
250	0xbe7c7981	-0.24655725
251	0x3e78835c	0.2426886
252	0x3bd301d2	0.006439426
253	0xbe81919d	-0.25306407
254	0x3e1cd920	0.15317202
255	0xbe9f3e42	-0.31102186

linear2.weight f4 [3, 256]
0	0x3cf9e00e	0.030502345
1	0xbcfae4d4	-0.030626692
2	0xbc88dff6	-0.016708355
3	0xbd602034	-0.05471821
4	0x3cb40e97	0.021979613
5	0xbd110ee5	-0.035414595
6	0xbcb07e6d	-0.02154466
7	0x3d1c5d77	0.038175073
8	0xbe03557f	-0.12825583
9	0xbdd0f233	-0.10202446
10	0xbd062e6d	-0.03275912
11	0xbb51cae6	-0.0032011806
12	0xbd3fe966	-0.046853445
13	0x3c3620e8	0.011116244
14	0xbd65eea5	-0.056135792
15	0x3cc9783f	0.02459347
16	0xbe0cf192	-0.13764027
17	0xbd3b4f91	-0.045730177
18	0xbdc191ca	-0.09451635
19	0xbd48af97	-0.04899558
20	0xbc635eec	-0.013877612
21	0xbdbb1b8a	-0.09136112
22	0xbd5a426a	-0.053285994
23	0xbcf47cc1	-0.029844644
24	0xbd865031	-0.06558264
25	0xbbf4eda3	-0.0074746176
26	0xbde476a1	-0.11155439
27	0xbce9ece3	-0.02855534
28	0xbd7439f8	-0.059625596
29	0x3a718ca3	0.0009214377
30	0xbcc3b0e6	-0.023888063
31	0xbd91be19	-0.071163364
32	0x3c2c5fc9	0.010520884
33	0xbd71f58b	-0.05907206
34	0x3c4a04d5	0.012330254
35	0xbdac824b	-0.08423289
36	0xbcdda234	-0.027054884
37	0x3e14ad79	0.145193
38	0xbd3e44ad	-0.046452213
39	0xbd82d6c9	-0.06388623
40	0xbcdc5a56	-0.026898544
41	0x3adf96bd	0.0017058473
42	0xbc1ac38c	-0.009446036
43	0x3d9f56f4	0.07780257
44	0xbcaaef21	-0.020865979
45	0xbd38e3e5	-0.045139212
46	0xbb8fcd6e	-0.004388503
47	0x3ced5b42	0.02897418
48	0xbc4c3862	-0.012464615
49	0x3d1ba809	0.038002048
50	0xbd21885b	-0.03943668
51	0x3d388aee	0.04505437
52	0xbd269063	-0.04066504
53	0xbdf65640	-0.1202817
54	0xbd8358f7	-0.06413453
55	0xbd801126	-0.06253271
56	0xbd403dca	-0.046933927
57	0x3d67d14a	0.056596078
58	0xbd02539d	-0.03181802
59	0xbddeea31	-0.10884512
60	0xbd20b114	-0.039231375
61	0xbcec85d6	-0.028872412
62	0xbdf3b914	-0.11900535
63	0x3bbae3f0	0.005703442
64	0x3cb273a7	0.021783663
65	0xbd577e88	-0.052610904
66	0x3c39f8ab	0.011350791
67	0xbded9aad	-0.11601768
68	0x3d8cd354	0.06876245
69	0xbd897e7b	-0.06713577
70	0xbd9f734a	-0.077856615
71	0xbd3446e8	-0.044012934
72	0xbdaac20c	-0.08337793
73	0xbd7b9b58	-0.061427444
74	0x3d84524b	0.06461009
75	0x3bec05fe	0.0072028628
76	0xbc549438	-0.012974791
77	0x3e5f5cd7	0.2181276
78	0x3ccc97c3	0.02497471
79	0x3c7f22de	0.015572278
80	0x3ca00e4b	0.019538065
81	0xbc288dee	-0.010287745
82	0xbd67547c	-0.056477055
83	0xb7588ca0	-1.2907345e-05
84	0xbbd1ff37	-0.006408598
85	0xbd682eb5	-0.05668517
86	0xbde3afd4	-0.11117521
87	0xbdacefd2	-0.084441796
88	0xbd0a5136	-0.033768855
89	0xbd4b49f4	-0.049631074
90	0xbdb1a94e	-0.086748704
91	0xbb374653	-0.00279655
92	0x3c507bdf	0.012724846
93	0xbd844ecd	-0.064603426
94	0xbdb1b45c	-0.08676979
95	0xbd6e8591	-0.058232848
96	0xbb0d723b	-0.002158298
97	0xbc4f89ad	-0.012667102
98	0xbdb23049	-0.08700616
99	0xbcb414cc	-0.021982573
100	0xbc69e340	-0.014275372
101	0x3cdaa3df	0.026689468
102	0x3d05895f	0.03260171
103	0xbc5caa35	-0.013468315
104	0x3bdf3e20	0.006812826
105	0xbb4969b8	-0.003073318
106	0x3d002098	0.031281084
107	0x3c3de180	0.011589408
108	0x3c000abf	0.007815062
109	0xbda03506	-0.078226134
110	0xbe195be4	-0.1497646
111	0xbdba2627	-0.09089308
112	0x3bbf733e	0.0058425954
113	0xb9019aeb	-0.0001236011
114	0xbdb52136	-0.08844225
115	0xbd751061	-0.059830073
116	0x3d624054	0.05523713
117	0xbcd2fbf0	-0.025754899
118	0xbd23e12e	-0.04000967
119	0x3d0cab58	0.034343094
120	0x3d252c1a	0.04032526
121	0xbe088e5e	-0.13335559
122	0xbce3ba5e	-0.027798828
123	0xbcc885b7	-0.024477823
124	0x3d069f81	0.03286696
125	0x3c284a10	0.010271564
126	0xbd573676	-0.052542172
127	0xbdf82b4d	-0.12117634
128	0xbd6387bf	-0.05554938
129	0xbd2a7626	-0.04161658
130	0xbd98648e	-0.07441054
131	0xbd192875	-0.0373921
132	0x3d4c2d87	0.049848106
133	0xbcd7c49e	-0.026338872
134	0x3d6974fc	0.05699633
135	0xbd0d2a72	-0.034464307
136	0xbd48c353	-0.0490144
137	0x3dd2f35b	0.103003226
138	0xbda8ca50	-0.08241713
139	0x3a7173d0	0.0009210678
140	0x3d2cf0ec	0.04222195
141	0xbc743292	-0.014904635
142	0xbd3bbde5	-0.045835394
143	0x3d1fb0fa	0.038987137
144	0x3cefbd0c	0.02926495
145	0x3caeb00c	0.02132418
146	0xbb203b76	-0.0024449504
147	0xbd9759bb	-0.073901616
148	0xbd75addc	-0.05998026
149	0xbd4212c9	-0.047381196
150	0xbd7bfc7b	-0.06152008
151	0xbdca05de	-0.098644
152	0xbd7085dc	-0.05872141
153	0xbd6949dc	-0.056955203
154	0x3d73822e	0.05945032
155	0xbd3463e8	-0.04404059
156	0xbd11efdd	-0.035629142
157	0xbe01349e	-0.12617728
158	0x3ccb87df	0.024845062
159	0x3c9f8a99	0.019475268
160	0x3d33345c	0.043751106
161	0xbd01df50	-0.031707108
162	0x3c100616	0.0087905135
163	0x3b94c377	0.004539903
164	0xbcd72662	-0.02626342
165	0xbd0c3603	-0.034231197
166	0x3d1fb50f	0.03899103
167	0x3d6e7b5c	0.058223113
168	0xbd34e18a	-0.044160403
169	0xbbf193d7	-0.00737236
170	0xbd567e70	-0.052366674
171	0xbd82a68e	-0.06379424
172	0xbd2c8810	-0.042121947
173	0x3d95a5a3	0.07306983
174	0xbcf71bbc	-0.030164592
175	0xbdb1cc0e	-0.086814985
176	0x3c8ccdbf	0.017187951
177	0xbdd7cfa9	-0.10537655
178	0xbd82a71b	-0.06379529
179	0xbdc4ccf3	-0.096094035
180	0x38940020	7.057213e-05
181	0xbd9b7768	-0.07591134
182	0x3d19ab76	0.037517034
183	0xbd1d06b3	-0.038336467
184	0x3cc01164	0.023445792
185	0x3b17fd52	0.0023191762
186	0xbdbe3d17	-0.09288996
187	0xbda04bf4	-0.07826987
188	0xbd8b0576	-0.06788151
189	0xbd96473d	-0.073378064
190	0xbdc08897	-0.094010524
191	0xbe2b3301	-0.16718675
192	0xbd7da53b	-0.061925154
193	0xbbff66c8	-0.007794235
194	0xbd3b91b7	-0.04579326
195	0xbd64d46a	-0.055866636
196	0xbd9e885c	-0.07740852
197	0xbd8502d2	-0.064946786
198	0x3c63d4c0	0.013905704
199	0x3c8033ce	0.015649702
200	0x3cbdcb80	0.023168325
201	0xbd121b3a	-0.035670497
202	0xbbbf19c0	-0.005831927
203	0xbd5bbe0a	-0.053648032
204	0xbdef85e5	-0.1169546
205	0x3c35103a	0.011051232
206	0x3bdb62be	0.0066951206
207	0x3dbea3e4	0.093086034
208	0x3c572feb	0.013133983
209	0xbc9f3dbf	-0.019438623
210	0xbba07877	-0.004897173
211	0xbdb99785	-0.09062103
212	0xbd164ccc	-0.036694333
213	0x3c76dd0d	0.015067351
214	0xbce55983	-0.027996784
215	0xbdb6a50f	-0.08918201
216	0xbd8374b3	-0.06418743
217	0xbdcb1274	-0.09915629
218	0xbd7a2258	-0.06106791
219	0xbd8d96ff	-0.06913566
220	0xbdec806b	-0.11547931
221	0xbd542a29	-0.05179802
222	0xbd521679	-0.051290963
223	0x3db61682	0.08891012
224	0xbdba2b0a	-0.0909024
225	0xbda79c18	-0.081840694
226	0xbc5ca33e	-0.013466654
227	0xbd7556d9	-0.059897278
228	0xbbf1944e	-0.0073724156
229	0xbd5ee15b	-0.054414134
230	0xbc6210e5	-0.013797973
231	0xbdf0096a	-0.117205456
232	0x3d76464e	0.06012564
233	0xbdb4b272	-0.08823098
234	0xbdd72a02	-0.10506059
235	0xbd0f3e12	-0.034971304
236	0x3d3a651f	0.045506593
237	0xbd8fb726	-0.07017355
238	0xb982e831	-0.00024968528
239	0xbc83d022	-0.016090456
240	0xbd5ea6a3	-0.054358136
241	0xbdb3ab78	-0.087729394
242	0xbd93f89c	-0.07225153
243	0x3c3117a3	0.010808858
244	0xbdaf52bf	-0.085607044
245	0x3b240f1b	0.0025033418
246	0x3c04d81e	0.008108167
247	0xbd5de934	-0.054177478
248	0xbd1d681a	-0.038429357
249	0xbd98f253	-0.07468095
250	0xbd02986c	-0.031883642
251	0xbcf3216f	-0.029679028
252	0xbd2f9036	-0.04286214
253	0x3cc0130c	0.023446582
254	0xbdbb50e9	-0.09146292
255	0x3c2145b3	0.009843278

linear2.bias f4 [3]
0	0xbd30ec5a	-0.043194152
1	0xbd348e9b	-0.04408131
2	0xbd81fba2	-0.06346823
