Snake/model/model.pth (torch, 17609 bytes, 4 tensors)

linear1.weight f4 [256, 11]
00000000: d138 023f 06f5 edbe e1c7 96ba bb7e 31be
00000010: cdbb d93d ce66 8d3d ac38 a33d a883 d93e
00000020: 7940 173e 8b46 f93d 5484 4e3e 9f31 f53d
00000030: 04f4 05be 4c25 f53e 9ea3 afbd b827 993e
00000040: 90b1 80bd 85a0 7e3e f9bf e4bd 0840 d0be
00000050: cb02 b1be 2f98 ef3d 8cb3 d33e 7bd7 ff3e
00000060: f0db 963d 7e08 14be e73d 553e 9830 d1be
00000070: 698b ab3c ae14 02bd 143d acbe c027 a83e
00000080: 86ad 07be 4690 103f 92d5 8bbe 23c0 2b3d
00000090: a629 bd3d d17d 38be c265 eb3c 5aba 47be
000000a0: 5bff acbc 9746 953e 19d2 2e3e a490 953e
000000b0: 0048 6e3d b379 c43e fc27 e63d 1e49 213e
000000c0: 52d2 95be 8cbe 4cbe 1d51 0c3e 88f6 d5bc
000000d0: ce52 f93e 1fa3 ca3e 1cfb a93e a3bc 083f
000000e0: 710e 2d3d 845c 8cbc 8d5c c2be d7fc 663e
000000f0: 4031 943c e66b a1be 3d59 9f3e b7a1 9abe
00000100: f52c 2dbe 0691 a63e b28d 14be d40e 7c3b
00000110: a4ea 1b3c 3163 613e 0a09 8bbd ae96 8abe
00000120: 9403 0a3f 841f f5bd d3c2 973e 4bff e43e
00000130: dbd0 9ebe 1225 153f 4f91 23bf f237 cf3e
00000140: 9178 043e 2cd3 3dbe fd5b a33d f0d7 6f3e
00000150: 904c 91bd ac4f f53d 40f2 703e 83e1 37be
00000160: 5e3a 60bd 5126 34bc 1e80 3fbc b8de 633e
00000170: 78d7 e43e d742 fbbd 093e b7be 635c 09be
00000180: 4042 9cbe ab11 a43e d6a9 0b3f f648 883d
00000190: 0db5 cebd bdf1 d7bd 9542 aebe 970a 74be
000001a0: da14 153f ce60 a6be 0691 fcbe 39ae 2fbe
000001b0: f79a ab3e 0dc8 14bf 18a2 3bbe 9401 303e
000001c0: f729 91be 2eb6 2b3e 7c3b c33d 0091 15bd
000001d0: 0021 c7ba d87d 72be 2226 40be 9f3b 87be
000001e0: 3da2 abbd eb3e 503e 6051 13bf 33e8 b3bd
000001f0: 49fe b4bd 1e75 003f a9f2 c73d d193 1a3e
00000200: e4de b33d dda1 e1be 84f2 21be 1dc1 04be
00000210: f5ce 273d c3a1 8d3e 7ee6 00bf b95d 163e
00000220: 0543 eb3d f91c eabe 6cef 9e3d 7604 633d
00000230: c238 c53d 4df1 013f f915 a93d 44fb a0bd
00000240: c3bc 8b3e aa40 e6b9 1907 b1be 0bc5 a13e
00000250: df46 c7bd 8fe4 8dbc 40e1 5c3e 4522 05be
00000260: 3deb 8b3e e344 02be 5bda 1abe 02a1 073e
00000270: 6593 9b3e a648 24bd b843 2bbe b4c0 5a3d
00000280: f316 df3d 3eea 13be 8e39 61bd 4621 af3e
00000290: 7c29 383e fb7f 26bd 4880 20bf bef6 f63d
000002a0: 2e51 8dbe 3b5d 9bbb 0fe5 103d 9bef 60be
000002b0: 0dc8 5c3e 33f7 f83c f447 0bbe 59f7 9a3e
000002c0: 46e5 e7be c486 b83e a6d5 0b3e 8191 8ebe
000002d0: 6cf5 a9be 81bc ab3e 424d 7cbe 45cc 4ebe
000002e0: 9e78 78bd 8ba0 013f ac1c 813e 6140 7dbd
000002f0: 54d6 f93e b68b 0bbe 92e3 253d dc28 473c
00000300: 23e2 81be 6e1b c33e 62d5 0bbf ce92 263d
00000310: c236 a5be 0268 3cbe a8bf bf3e 7c81 2a3d
00000320: 4ae4 adbc f71b ed3d 8958 32bd e728 82bd
00000330: a03e 60be da44 a33e 8cd3 fc3e eecb f13e
00000340: 88cb 233f 2523 c93c 3cd8 81be 7e70 1dbe
00000350: 03f5 ea3e 422a f8be 1775 143d 7bae f43d
00000360: b982 0b3f 174b dabe a5d9 13bf 72a3 d7be
00000370: 7c8e 2c3e 7128 7f3d fbd4 cbbd c628 943e
00000380: 1451 04bf 59e2 8f3d a3e6 d53d a525 d6be
00000390: f9ea e53e da23 8dbe 93a8 06be 0153 8a3d
000003a0: faa0 6dbd f611 753c 0b4a 69be 6f0f 1fbd
000003b0: b66c 46be e340 3abe 9ac7 273e 3f5f 993d
000003c0: 6868 42bc e22a 173e 8769 ef3d d254 0a3d
000003d0: ff6f d1bd fa33 5bbc 20f3 e13d ecf4 f6bc
000003e0: ef2e 8b3d 79b3 553e 56c4 bcbe 13c5 853e
000003f0: 18d3 9dbe de62 ca3e 41b6 c03e 6134 aebd
0.50867945 -0.46476 -0.001150366 -0.173335 0.10631523 0.06904374 0.07969794 0.42483258
0.14770688 0.12171658 0.20167667 0.11972355 -0.13081366 0.47880018 -0.085761294 0.29913116
-0.06283867 0.24865921 -0.111694284 -0.40673852 -0.34572443 0.116989486 0.4134792 0.49969086
0.073661685 -0.14456365 0.20824395 -0.40857387 0.0209405 -0.031758003 -0.3364035 0.32842827
-0.13249788 0.56470144 -0.2731138 0.041931283 0.092364594 -0.18016745 0.028735045 -0.19504681
-0.021117857 0.29155418 0.17072333 0.29211915 0.058174133 0.383741 0.11238095 0.15750548
-0.29262024 -0.19994563 0.13702817 -0.026118532 0.48695987 0.39577577 0.33199394 0.53412837
0.0422501 -0.017133959 -0.37961236 0.22557388 0.01808989 -0.31527632 0.3112277 -0.30201504
-0.16911681 0.3253252 -0.14507177 0.0038460987 0.009516392 0.22010495 -0.067888334 -0.27068084
0.5391171 -0.11968902 0.29640827 0.44726023 -0.3101872 0.5825969 -0.638936 0.4047237
0.12936617 -0.18537587 0.0797653 0.23422217 -0.07094681 0.11978087 0.23529911 -0.1795712
-0.054743163 -0.0109954635 -0.01168826 0.22252929 0.4469564 -0.12268608 -0.35789517 -0.13414149
-0.30519295 0.3204473 0.54556024 0.06654541 -0.100931264 -0.10544155 -0.34035173 -0.23832165
0.5823494 -0.3249573 -0.49329394 -0.17156304 0.33516666 -0.58117753 -0.18323553 0.17188102
-0.2835233 0.16768715 0.0953283 -0.036515236 -0.001519233 -0.23680818 -0.18764547 -0.26412675
-0.08380554 0.20336501 -0.57546043 -0.08784523 -0.088375635 0.50178707 0.097630806 0.1509545
0.087827474 -0.44068804 -0.15815169 -0.12964292 0.040968854 0.27662477 -0.50351703 0.1468419
0.11487392 -0.4572523 0.0776051 0.055424176 0.09629966 0.5075882 0.08256144 -0.07860425
0.2729245 -0.00043917197 -0.34575728 0.31595644 -0.097303145 -0.0173209 0.21570301 -0.13001354
0.2732791 -0.1272159 -0.15122359 0.13245013 0.3038589 -0.040108345 -0.16725051 0.053406432
0.10893049 -0.14444825 -0.05498653 0.34205073 0.17984575 -0.040649395 -0.6269574 0.12058781
-0.27600998 -0.0047413385 0.035374697 -0.21966402 0.21560688 0.030391311 -0.13601667 0.30266836
-0.4529211 0.36040318 0.13655719 -0.27845386 -0.33195055 0.33542255 -0.24638847 -0.2019511
-0.060661905 0.50635594 0.25217187 -0.061828975 0.48796332 -0.13627514 0.04050023 0.012155738
-0.2536784 0.38106865 -0.5462247 0.040667348 -0.3226834 -0.18399051 0.3745091 0.041627392
-0.02122702 0.115775995 -0.043541465 -0.06355458 -0.2189889 0.31888467 0.49380147 0.47225899
0.6398244 0.024552891 -0.25360286 -0.15374944 0.45890054 -0.4846974 0.036244478 0.11947342
0.5449634 -0.42635414 -0.57753974 -0.42116886 0.16851228 0.062294427 -0.09952732 0.28937358
-0.51686215 0.07025594 0.10444381 -0.41825595 0.44905832 -0.27566415 -0.13150243 0.06754113
-0.058014847 0.0149578955 -0.22782151 -0.038833078 -0.19377407 -0.18188815 0.16384736 0.0748887
-0.011865713 0.14762452 0.116900496 0.033772297 -0.1022644 -0.013379091 0.110327005 -0.030146085
0.06796061 0.20869245 -0.36868542 0.26126918 -0.30825114 0.39528555 0.3763905 -0.08506084

linear1.bias f4 [256]
00000000: c854 7ebe 2e37 3c3e 877b c93d fa66 0abe
00000010: b06e 7dbe f9c4 ddbc 0a00 6bbe 4bb4 2bbd
00000020: d24a 29be c960 9d3d 5087 a5be 291a c8bd
00000030: 21d4 47be 5ade 50be 366a d4bd 8e50 32be
00000040: 9ed5 aabe 30ba 223e 7b37 d2be a20f bbbd
00000050: 4653 58bb edb0 c1be 6817 cdbe 100d 70be
00000060: d66e 69be 2461 23be 0da3 51be 70c4 8ebe
00000070: 91f8 2dbe 05e4 0fbd 46dd 53bd f40b 0d3e
00000080: 8c80 fe3d 3fb0 8bbe 304f 17be ca6a cfbc
00000090: d5f4 16be cd7f 48be 6904 6bbe 188c 723e
000000a0: e9a2 093e 7720 913d 6253 92be e68a 0cbe
000000b0: dfb2 8cbe 2978 19be eeac 3d3d 527f 94be
000000c0: b329 74be a65e 463e 5f77 c5bd f46b a53d
000000d0: b417 83be 5952 343e f624 a5be b5ab 4c3e
000000e0: 683c 0d3f c5ca b1be df50 f6be 8670 18bd
000000f0: 620e 56be 4943 483a f793 7cbd fe0e 42bd
00000100: b50b 45be 32ed 993d 38b7 38be 16fb 14be
00000110: b380 ccbe 31b7 903b e247 debd a8dd eebe
00000120: 5778 6dbe 66a9 16bd 4f3b a93e 10e3 b9be
00000130: 1375 3ebe 9944 66be 3780 f9bd 0dc9 46be
00000140: 3de7 c1be eea4 353e bb7f bc3c 9425 653e
00000150: 9a8f 833f 6c34 38bd e074 203e 3797 0abc
00000160: 1267 53be a299 1c3d 5e19 923e 1970 48be
00000170: 16d1 22be e061 debd 4cee 353d 8766 95bd
00000180: 2314 56be 0632 dd3e 06a4 33be be87 413d
00000190: 8442 ee3c 4e7d 1dbe 1b67 93be 594c e73b
000001a0: f8e8 c5bd a553 3f3d 2860 e5bd 67af b1be
000001b0: 7d63 833e 81ba 45be 0604 0dbe 22d1 09bf
000001c0: 77a6 3ebd 0a93 19be e68e c7be a858 c13e
000001d0: 3ae7 47be ba28 c7be e442 c9be a57e 4abe
000001e0: 4d68 253e 6724 4b3e 575d d83d afe4 1fbe
000001f0: fd4b 793e f7bf 08be 76aa 3abd e7e8 56bc
00000200: 5990 d23e 4263 3abe 9baa 79be 68f2 95bc
00000210: 071c 02be a0fc e8bc 1d52 aa3e f035 253f
00000220: 1fab 51be 0437 14bb 4706 8d3d ed54 a9be
00000230: 0448 77be 2fc0 41be e35c 20be 3047 9dbe
00000240: 6484 f73d 91e7 903c 5f22 6cbd 6469 9dbe
00000250: 00b2 c0ba bbf0 2ebe 5795 4ebe 138d 7abe
00000260: 88be 733e b40a 74bd 05d8 1a3e 926d 3ebe
00000270: 8276 7dbd 8083 c2bd f933 3a3d 9f39 1fbd
00000280: 8646 30be 73ea e7bd 8c0e 01be c883 03be
00000290: 5305 8dbd 9a12 143f cf27 54be 80f7 52bd
000002a0: 4518 0cbd 2fd1 01be ce28 76be 3899 623f
000002b0: 43a0 8c3e 774b 23bd dfec 88be 93c4 9e3d
000002c0: 9db4 60be 1029 cebe 4a1e 58be aba3 8fbe
000002d0: a8a4 59be a095 b73e 46cb a83d 33f2 53be
000002e0: 05d1 31be e94e 89be b29c 5fbe 9a03 5bbe
000002f0: 2a79 d53d ec92 36be 5477 70be 13d7 a5be
00000300: aeee 8e3e f948 d3bd 78fe 3bbe 211a c53d
00000310: f565 e1be 18ab 95be fc47 c0bd 440c d13e
00000320: cc33 99bc a0a0 40be f077 3dbd bbf6 17bc
00000330: bada 04be 4d92 17be 097e 6fbd 5a7f 013e
00000340: bf64 c9bd 3d16 88bd 78e7 13be eeb2 34be
00000350: 1382 28be f92d 76be 61db 82be 6f5e f13d
00000360: 6ab7 bebd f2cc 173e febc 64be cae7 053e
00000370: aa0c 503e 803a 823e 38c1 023a 56aa f5bd
00000380: 65da 9f3f 6a43 5fbe 9f0f 63be bbbc 603e
00000390: cf6b 45be fe86 5cbe aba4 c1bd 6117 70be
000003a0: f201 37be 037d 953e 95fb b8bd 5140 4ebe
000003b0: 4630 0c3d afa9 92be 4e0b adbe b3ed 8a3e
000003c0: 0c08 943e 0d4a 043e 3e39 e43d ad8a b1bd
000003d0: 1f22 6e3b 4a3f 30be c959 d53d 4327 abbd
000003e0: 1bfd b3be 0b0d 09bd 5f40 033f fb2c 953c
000003f0: 6b62 f63e 448d f1bd f5ba 26be 8f0c 0bbe
-0.24837029 0.18380424 0.09838014 -0.13515845 -0.24749255 -0.027071463 -0.22949234 -0.041919988
-0.16532448 0.07684476 -0.32329798 -0.09770615 -0.19514515 -0.2039732 -0.10371821 -0.17413542
-0.33366102 0.15891337 -0.41057953 -0.09133841 -0.003300862 -0.37830296 -0.4005692 -0.23442483
-0.22796187 -0.15955025 -0.20472355 -0.27884245 -0.16989352 -0.035129566 -0.051724695 0.13774091
0.12426862 -0.27282903 -0.14776301 -0.025319476 -0.14741834 -0.19580002 -0.22950901 0.23686254
0.13441052 0.0708627 -0.2857924 -0.1372486 -0.27480218 -0.14987244 0.046307497 -0.29003388
-0.23844032 0.19372043 -0.09641909 0.08077231 -0.25604022 0.17609538 -0.3225476 0.19987376
0.551703 -0.34725013 -0.48108575 -0.037216686 -0.20903924 0.0007639421 -0.061664548 -0.04737758
-0.19242747 0.075159445 -0.18038642 -0.14548907 -0.3994194 0.0044163694 -0.10853554 -0.46653485
-0.23190437 -0.036782645 0.3305306 -0.36306047 -0.18599348 -0.22487105 -0.12182658 -0.19412632
-0.37871733 0.17738697 0.023010125 0.22377616 1.0278199 -0.04497187 0.15669584 -0.008458904
-0.20644787 0.038232453 0.2853498 -0.19574012 -0.15900072 -0.10858512 0.04441671 -0.07294946
-0.20906119 0.43202227 -0.17543039 0.047248594 0.029084451 -0.15379831 -0.287896 0.007058662
-0.09663576 0.04671063 -0.11199981 -0.34704134 0.2566184 -0.19309427 -0.13771066 -0.53834736
-0.046545472 -0.14997497 -0.3897621 0.37762952 -0.195218 -0.3889826 -0.39308846 -0.19774874
0.16153069 0.19838105 0.10564678 -0.1561458 0.24345393 -0.13354479 -0.04557272 -0.013117052
0.41125754 -0.18201926 -0.24381487 -0.018304065 -0.12706004 -0.028440773 0.33265772 0.6453543
-0.20475434 -0.00226158 0.06885963 -0.33072606 -0.24148566 -0.18920968 -0.15660433 -0.30718374
0.120857984 0.017688544 -0.057649966 -0.3074447 -0.0014701486 -0.17084019 -0.20174156 -0.24467878
0.2380315 -0.05958052 0.15121467 -0.18596485 -0.061880596 -0.09497738 0.04545972 -0.03887331
-0.17214403 -0.113240145 -0.12603205 -0.1284324 -0.06885781 0.57840884 -0.20718311 -0.051505566
-0.034202833 -0.12677453 -0.24039003 0.88515043 0.2746602 -0.03986689 -0.26743218 0.07752337
-0.21943898 -0.40265703 -0.21105304 -0.28054556 -0.21254218 0.35856342 0.08241896 -0.2069786
-0.17364891 -0.26818016 -0.21837118 -0.21388093 0.10423501 -0.17829484 -0.2348302 -0.3239065
0.27916473 -0.10316653 -0.18358791 0.09624124 -0.440231 -0.29232097 -0.0938873 0.4082967
-0.018701456 -0.18811274 -0.04625696 -0.009275134 -0.12974063 -0.14801903 -0.058469806 0.12646237
-0.09833669 -0.066448666 -0.14443767 -0.17646381 -0.1645587 -0.24040975 -0.25557998 0.1178559
-0.09312327 0.14824274 -0.2233772 0.13076702 0.20317331 0.25435257 0.0004987898 -0.119953796
1.2488524 -0.2180306 -0.22173928 0.21946995 -0.19279407 -0.2153587 -0.09455236 -0.23446418
-0.17871836 0.2919694 -0.090323605 -0.20141722 0.034225725 -0.28645083 -0.33797687 0.27134475
0.2891239 0.12918873 0.111437306 -0.086690284 0.0036336256 -0.17211643 0.10417516 -0.08357098
-0.35154042 -0.033459704 0.512701 0.018209925 0.48121962 -0.117945224 -0.16282256 -0.1357901

linear2.weight f4 [3, 256]
00000000: f3db 77be eb70 aa3d 4c06 c3be e296 28be
00000010: 69ae 98be 2f84 9ebe 78be 08bf c10d 32bc
00000020: 1001 28bf 7e61 d43e 7ad4 60bd dfdd 80be
00000030: 0045 6fbe 0255 2abe b9eb 023c 093b 0ebe
00000040: f9f3 5b3e f443 c03d 66ea edbe c4fc c93e
00000050: 2e24 fcbe aa37 24bb 5ae6 20bc 4fa9 b3be
00000060: 7ab5 a7bd aa86 de3c 5629 96be fb5d 19be
00000070: 0ef3 92be c6a5 583b a907 1b3d fe5e 2bbc
00000080: 0582 773d 2447 43bd 6a5d 9dbd f4cb bc3e
00000090: fcde 50bd 6b67 59bd 3c5a 42bc c8fd 043e
000000a0: b0d9 de3e eb7e 2d3d 82c4 1a3d b93a 06be
000000b0: da34 b53b 3110 b7bd 4a04 3e3e 00fc 6e3a
000000c0: 62d4 1ebe c016 c33e 545f 12be a0c2 b13e
000000d0: 1c73 7ebd 113e aa3d 38ad 2dbe c1f7 433e
000000e0: cef1 943e 86d0 84ba 6762 903e c941 fabd
000000f0: 797f 98bc d51a 013f 311d e5be 59b7 253e
00000100: 8598 a8bc 10df 903e 3fff 40be 7128 d2bd
00000110: 28c8 ebbd db29 673e 33a5 63bf 9bb5 87be
00000120: fe3f bcbe 375a 093e 17cf 903e 6e2f f7bc
00000130: b006 f5bd f7f1 0d3c 2049 81be 3a73 17be
00000140: 96da 34bd 1aec 02be 9783 b1be 233e b43e
00000150: 7a51 e83e 5483 e1be 9ecc 12bf c778 17bf
00000160: b714 ebbc 86fc f13b 0f10 333e 242d bdbe
00000170: 904d 30be cc9a 2cbe 3ecf 0dbe bbe3 1bbf
00000180: 758c 423d 6173 d53e 287e 533d b3a7 a0bd
00000190: 4e05 403c 94bb 02be f390 0cbe a214 79be
000001a0: 1895 5abe d815 c1be d61f 1d3f 13fd a6be
000001b0: 4814 cb3e a1a5 c5be 492c 983e af36 5abe
000001c0: 40ea 1dbe ef5e 8abd c8f7 7cbd 5d91 683e
000001d0: 504c bcbc 96aa 5abe 0e0c 96bc 8395 7cbc
000001e0: fc5c 1f3e 2fcd 9f3d eb62 b6be 5fd2 3ebe
000001f0: 9ed8 0a3e 0acf 4b3d 08ea 1f3d 1670 14be
00000200: 3161 e53e 73b8 173d da83 febe 95ec ae3d
00000210: b56a 90be 70a1 b53c ef9f 023e 6f54 5b3e
00000220: 7182 3f3d 215c 063c 7d50 b23d e478 8fbc
00000230: 41b1 3bbe 03e2 03bf 382c 18bf 9105 c6be
00000240: 2de1 19be 3a4e b23d 3882 033e c04e 09bf
00000250: 99f6 6f3c 3edd b93d 9514 e4bc 8b4c 9ebe
00000260: 93ff 123e 52de 653d b877 983c 9091 b1bd
00000270: a731 41bf 89b0 f3bd 6b3e 53be 21d4 31bd
00000280: 4fba 0fbf d45f 9e3e a00a d93c bba4 a3bd
00000290: 2fc0 553e 90df a83e d49c e23c 3e18 b33e
000002a0: 6a90 afbb e033 c8be 9102 27bd 9265 c23e
000002b0: 85d0 4e3e e478 e1bb edcb 31bd 1445 0b3e
000002c0: 40b8 03be af35 c7be 06f0 c0bd 40eb 073d
000002d0: ccf1 82be 0b3b a03e 84cd c73e defc 043c
000002e0: 1c8f ddbd 0320 57bd a91b 3fbe 83b6 5dbd
000002f0: a449 77be bb8b 963c 6193 83be ce14 aebe
00000300: a8d4 093f 8cb5 f5bd 9407 17bf c7de ab3e
00000310: 5374 5fbe 3c84 f0be 2683 6ebe de84 8b3e
00000320: 4116 a9be 245f 6c3e 3b51 f4be 91c1 653e
00000330: 7276 06bf 9353 debe 86e5 ccbe 3c73 f03d
00000340: ce7a 093e 7c13 f0bd 030d 583c 686e 00bd
00000350: b641 88bd c5df debd 36ba d1bd 1d0d 3d3c
00000360: e69e d4be 3dea a23d e1a2 e6be 26df ac3e
00000370: 52e5 f53e a74b b73d d0e0 913d 300d f53d
00000380: 4510 9b3e b29a edbe 05c7 333e 0be5 c73e
00000390: 5b96 cdbe 11da 853c 2f2c 50bd 446d 7dbe
000003a0: 5cec 1dbd cd64 123e 1a36 4bbf c622 39be
000003b0: 8b6b e53e 057f 01be 9f3c 03be effb bd3d
000003c0: c67e a53e c656 f73d e0c4 a23e acbe 9d3b
000003d0: be17 79be 6bdd 3cbe dae1 4b3d 3eb6 103f
000003e0: e15a 83bb ede6 10be 3dc6 d53e 1ca9 08bd
000003f0: 7b88 463e 4c4f 3d3e fdb5 f0bd c554 8bbe
-0.24204998 0.08322319 -0.38090742 -0.16463807 -0.29820564 -0.30960223 -0.5341563 -0.010867537
-0.6562662 0.4148063 -0.054890133 -0.25169274 -0.23366165 -0.1663399 0.007990771 -0.13889708
0.21479787 0.09387961 -0.46467894 0.39450657 -0.49246353 -0.0025057592 -0.009820545 -0.3509011
-0.08188911 0.027163822 -0.29328412 -0.14977257 -0.2870106 0.0033057793 0.037849102 -0.01045966
0.06042673 -0.047675267 -0.07683833 0.36874354 -0.050993904 -0.053077143 -0.011862334 0.12987435
0.43525457 0.042357367 0.03778506 -0.13108338 0.005529982 -0.08938635 0.18556324 0.00091165304
-0.15510705 0.38103294 -0.14294177 0.347188 -0.062121496 0.083126195 -0.16960609 0.1913748
0.29090732 -0.0010132946 0.28200075 -0.12219579 -0.018615471 0.5043157 -0.44748834 0.16183223
-0.02058054 0.28295183 -0.18847369 -0.1026162 -0.11512786 0.2257456 -0.8892395 -0.2650574
-0.36767572 0.1341332 0.28282997 -0.030173983 -0.11964166 0.008663646 -0.25251102 -0.14790049
-0.044153772 -0.12785378 -0.34670708 0.35203657 0.45374662 -0.44045508 -0.5734347 -0.59168667
-0.028696401 0.0073848395 0.17486595 -0.36948502 -0.17217088 -0.16855925 -0.13848588 -0.60894364
0.04749723 0.4168959 0.051633984 -0.07844486 0.011720015 -0.12766868 -0.13727169 -0.24324277
-0.21345937 -0.37711978 0.613767 -0.32614955 0.3966391 -0.38602927 0.29721287 -0.21309923
-0.1542139 -0.067563884 -0.06175974 0.22711702 -0.022985607 -0.21354136 -0.018316295 -0.015416506
0.15562814 0.078028075 -0.35622343 -0.18634938 0.13559195 0.049757995 0.03904155 -0.14495882
0.44800714 0.03704114 -0.4970997 0.08541218 -0.2820641 0.022171706 0.12756322 0.21418928
0.046755258 0.008200676 0.08706758 -0.0175137 -0.18329336 -0.5151674 -0.5944247 -0.38676122
-0.15027304 0.08706327 0.12842643 -0.5363579 0.014646196 0.09075402 -0.027841846 -0.30917773
0.14355306 0.056120224 0.018611774 -0.08670342 -0.7546639 -0.11898906 -0.2062928 -0.043415193
-0.5614366 0.30932486 0.026494324 -0.07990404 0.20874093 0.32983065 0.027662672 0.34979433
-0.0053577917 -0.39102077 -0.040773932 0.37968117 0.20196731 -0.0068808664 -0.04340737 0.1360057
-0.12863255 -0.38908145 -0.09420781 0.033183336 -0.255751 0.31295046 0.39023983 0.008116929
-0.108183116 -0.052520763 -0.18662895 -0.054129135 -0.24149185 0.018377176 -0.2569838 -0.34000248
0.5384011 -0.11997518 -0.5899594 0.33568403 -0.21821718 -0.46975887 -0.23292217 0.27249807
-0.3302479 0.23083168 -0.47718224 0.22437121 -0.52524483 -0.43423137 -0.40018862 0.11740729
0.13425753 -0.11722466 0.013186696 -0.03135529 -0.06653158 -0.108825244 -0.10240595 0.011538771
-0.4152748 0.07954834 -0.45046142 0.33764 0.4802652 0.089499764 0.07122958 0.11965406
0.3028585 -0.46407086 0.17556389 0.39041933 -0.40153775 0.016339334 -0.050823387 -0.24748713
-0.038555488 0.14296265 -0.7937943 -0.18079671 0.4480861 -0.1264611 -0.12816094 0.09276568
0.32323283 0.120770976 0.3179083 0.0048139896 -0.24325463 -0.18443839 0.049775936 0.5652808
-0.0040086363 -0.14150591 0.41752806 -0.0333644 0.19388 0.1848728 -0.117534615 -0.27213112

linear2.bias f4 [3]
00000000: c5a8 563e cd09 c33d 5779 e63d
0.20962818 0.09523354 0.112536125
