Snake/model/model.pth (torch, 17609 bytes, 4 tensors)

linear1.weight f4 [256, 11]
-0.0249269 0.054214835 0.28475153 0.20964749 0.04348312 0.23479481 -0.12078179 0.23292044
-0.22040229 -0.101418875 -0.6335144 -0.3090326 0.39541578 0.44262242 -0.027472695 -0.36559993
0.07674329 0.14747044 0.026358264 -0.25302607 0.09713419 0.13074788 0.11175107 -0.14843321
-0.5470036 -0.15822767 0.3380293 -0.3745345 0.10259961 -0.36659676 -0.016228413 -0.06517655
0.23225255 0.08209775 0.42410487 0.22214434 -0.06635832 0.06325493 0.0012804485 0.05834392
0.059013043 0.1334448 0.16972826 0.18982491 -0.09227266 -0.209403 0.57578087 0.37218502
0.13975151 0.16906308 -0.16851653 -0.06678809 0.18999848 0.07613573 -0.292743 -0.40664002
0.22581068 -0.32509246 -0.13047773 0.034547523 0.008868767 -0.23822932 0.3069991 0.19202234
0.20873538 0.0737591 0.40971464 0.14170276 0.15282531 0.04823478 -0.2197991 -0.35348898
0.007262873 0.08855108 0.4296693 0.35570735 0.07797628 -0.35045284 0.43173677 -0.038174715
0.23199236 -0.17994319 0.0048729205 0.19207595 0.05456582 0.14205079 -0.04628248 -0.063488714
-0.04949227 -0.13566469 0.11010878 -0.2163092 0.35816947 -0.20885077 -0.31980705 0.37887788
0.31550246 -0.2580963 -0.17442282 0.19593257 -0.2180064 0.5074877 -0.16642989 0.24308532
-0.19142471 0.09493802 0.110069975 -0.34533083 -0.23780306 0.04174295 0.045100354 0.20835592
-0.6095926 -0.05810215 0.01051895 -0.33057097 0.13468505 -0.05919088 0.26139298 0.10726103
-0.2229425 0.038225565 0.08846556 0.5618833 0.21247515 -0.00290393 -0.27874076 0.024651233
0.24185099 0.22997838 0.43237764 0.037427887 0.57007754 -0.17587517 -0.43472674 0.10974414
0.22699244 -0.0011979461 0.050744675 0.2383291 -0.061086047 0.06310011 0.02749491 0.24539511
-0.46422732 0.50098073 -0.068697855 -0.17537625 -0.06141414 0.3222994 0.2953049 0.38132602
0.31663883 -0.11198305 0.37103415 0.46699315 0.12834023 -0.22806011 -0.115733534 -0.0165394
0.12153219 0.25258815 0.018389627 0.1657841 0.14746548 0.08021809 -0.039879292 0.18567301
-0.047092356 -0.124724254 -0.26584682 -0.14795342 -0.16620298 0.02718009 -0.20369372 -0.21434422
-0.26906916 0.3667055 -0.1546118 0.026123513 0.05334498 -0.013250327 0.17223439 0.19271912
0.051557135 0.28819984 0.26227552 0.0064362856 -0.019776182 -0.20392787 -0.21140705 0.27611557
-0.45640308 0.11070342 0.21731704 -0.28870124 0.4643034 -0.13192627 -0.012290191 0.39797392
0.09268735 -0.0046191444 -0.1878148 -0.018987177 0.07941348 0.10482849 0.31198046 0.12981078
0.3475884 0.4962515 -0.0045037437 -0.09424989 0.32123423 0.26812539 -0.4026498 -0.24318257
-0.38392705 -0.2807842 0.34412044 0.23894389 0.046718687 0.5208012 -0.033246502 0.054599043
-0.008228509 -0.009461121 -0.023395127 0.41773984 0.4475274 0.3241449 0.44382113 0.40841672
-0.0904843 0.4354827 0.13674468 -0.09483401 0.043639183 -0.1786073 0.27670965 0.14551179
0.07420554 0.28156823 0.21159238 -0.0337206 -0.08439737 0.1704751 0.3253386 -0.46009198
-0.3234314 -0.31089285 -0.47272852 0.3289115 0.18652442 0.01948814 -0.33492872 0.57736194
00000000: 8033 ccbc 6010 5e3d f4ca 913e d5ad 563e
00000010: 5b1b 323d 0d6e 703e 715c f7bd b282 6e3e
00000020: 23b1 61be b3b4 cfbd 002e 22bf 8539 9ebe
00000030: f073 ca3e 689f e23e 6b0e e1bc ea2f bbbe
00000040: 962b 9d3d 7e02 173e 49ed d73c a28c 81be
00000050: 4aee c63d c6e2 053e bfdd e43d e0fe 17be
00000060: 6e08 0cbf 6f06 22be 2d12 ad3e fcc2 bfbe
00000070: bf1f d23d 92b2 bbbe 73f1 84bc 487b 85bd
00000080: 9dd3 6d3e dd22 a83d 4624 d93e ce79 633e
00000090: dfe6 87bd cd8b 813d b9d4 a73a 09fa 6e3d
000000a0: a9b7 713d c1a5 083e 3fcd 2d3e 7661 423e
000000b0: 73f9 bcbd bd6d 56be 6066 133f 098f be3e
000000c0: 051b 0f3e df1e 2d3e 998f 2cbe 32c8 88bd
000000d0: f68e 423e 0ded 9b3d 69e2 95be 1f33 d0be
000000e0: ea3a 673e 8572 a6be f49b 05be b481 0d3d
000000f0: 4e4e 113c 63f2 73be fc2e 9d3e 81a1 443e
00000100: babe 553e 030f 973d 1ec6 d13e 871a 113e
00000110: 3d7e 1c3e d591 453d 0413 61be 82fc b4be
00000120: 65fd ed3b 455a b53d 9dfd db3e 461f b63e
00000130: 07b2 9f3d 8e6e b3be 9a0c dd3e 175d 1cbd
00000140: 688f 6d3e 0743 38be 05ad 9f3b 8faf 443e
00000150: 6980 5f3d c375 113e b392 3dbd 5f06 82bd
00000160: 68b8 4abd afeb 0abe b680 e13d 2980 5dbe
00000170: fd61 b73e fadc 55be c0bd a3be 48fc c13e
00000180: 8a89 a13e 3325 84be e59b 32be 8ca2 483e
00000190: 123d 5fbe b7ea 013f 996c 2abe 5ceb 783e
000001a0: d704 44be dd6e c23d 5e6c e13d 34cf b0be
000001b0: a582 73be a8fa 2a3d 26bb 383d 415b 553e
000001c0: 430e 1cbf 85fc 6dbd ad57 2c3c 9940 a9be
000001d0: e1ea 093e 2372 72bd 4dd5 853e acab db3d
000001e0: 0a4b 64be 6992 1c3d 6e2d b53d 95d7 0f3f
000001f0: 1693 593e dc4f 3ebb 1cb7 8ebe 62f1 c93c
00000200: c9a7 773e 747f 6b3e 9a60 dd3e fc4d 193d
00000210: 9af0 113f 9f18 34be 8194 debe 89c1 e03d
00000220: b570 683e 6704 9dba a6d9 4f3d 8b0c 743e
00000230: 5d35 7abd a13a 813d 013d e13c db48 7b3e
00000240: 34af edbe 4640 003f 76b1 8cbd d595 33be
00000250: 658d 7bbd 6d04 a53e 3432 973e 2a3d c33e
00000260: 7c1e a23e 5f57 e5bd 30f8 bd3e ba19 ef3e
00000270: 9f6b 033e 9788 69be b405 edbd a37d 87bc
00000280: dee5 f83d 3c53 813e d8a5 963c 4fc3 293e
00000290: 3101 173e 6249 a43d 7858 23bd 1121 3e3e
000002a0: eae3 40bd 6e6f ffbd 131d 88be 1a81 17be
000002b0: 1d31 2abe c8a8 de3c 1695 50be 0d7d 5bbe
000002c0: 6fc3 89be d3c0 bb3e 8e52 1ebe fa00 d63c
000002d0: 4480 5a3d e617 59bc 365e 303e 2958 453e
000002e0: 932d 533d ee8e 933e fa48 863e 7ae7 d23b
000002f0: a901 a2bc 78d2 50be 177b 58be 055f 8d3e
00000300: aaad e9be 7ab8 e23d 5c88 5e3e a6d0 93be
00000310: 2db9 ed3e ae17 07be cc5c 49bc 3dc3 cb3e
00000320: ded2 bd3d 315c 97bb 8652 40be ff8a 9bbc
00000330: 89a3 a23d 52b0 d63d e7bb 9f3e 1eed 043e
00000340: 1bf7 b13e ad14 fe3e 2494 93bb 1606 c1bd
00000350: d078 a43e bb47 893e 1d28 cebe da04 79be
00000360: 1692 c4be f2c2 8fbe 8e30 b03e b5ad 743e
00000370: 185c 3f3d 3a53 053f 7c2d 08bd 3fa3 5f3d
00000380: ded0 06bc d102 1bbc 23a7 bfbc ffe1 d53e
00000390: 5022 e53e 52f6 a53e 863c e33e ff1b d13e
000003a0: d54f b9bd 97f7 de3e cc06 0c3e 5538 c2bd
000003b0: 00bf 323d d5e4 36be e3ac 8d3e 0b01 153e
000003c0: 13f9 973d b629 903e acab 583e 9d1e 0abd
000003d0: 87d8 acbd 0691 2e3e c892 a63e 2d91 ebbe
000003e0: cd98 a5be 592d 9fbe 7909 f2be 1767 a83e
000003f0: 4200 3f3e 97a5 9f3c c77b abbe fecd 133f

linear1.bias f4 [256]
0.33140904 0.23125382 0.075119615 -0.12900008 -0.06735415 -0.109292865 -0.10534899 0.24154544
-0.14802936 0.0831935 0.016185313 -0.20019434 -0.07332795 -0.29111952 -0.062425885 -0.16879484
0.09750329 -0.05620875 -0.17011209 0.04488988 -0.3947016 -0.19679615 0.12867355 0.05345607
-0.1750974 -0.19091177 -0.06225332 -0.2563212 -0.01876516 -0.24356012 -0.16407102 0.4591336
-0.29064763 0.14461732 -0.09283804 -0.056160577 -0.35935286 -0.13314892 -0.17402324 -0.23312783
0.010062738 -0.13488163 -0.33825886 0.8866014 0.542772 0.010041922 -0.18811968 0.21843317
-0.09226905 -0.10360524 0.18647614 0.0404907 0.059836477 0.043139677 -0.15371168 0.045970228
-0.12763478 -0.07967623 0.2831762 -0.29331267 -0.1442665 0.1995639 -0.20924509 0.4866571
0.14676026 0.34273088 -0.1804177 -0.23412064 0.0933616 -0.23594902 -0.05945153 0.18939556
-0.030603707 0.028972713 -0.07860896 -0.21827751 -0.28214285 -0.07775909 -0.091749445 -0.021696152
0.11825611 -0.011578965 0.285538 0.11585191 0.0595754 -0.15667711 -0.20057964 0.061527245
0.01732122 -0.19438396 -0.14845261 0.14564294 -0.0529358 -0.023361633 0.14461379 -0.14739433
-0.26137695 -0.120171845 0.23067367 -0.28887373 -0.037943654 0.123802274 -0.028895786 -0.03591438
-0.16589601 -0.15885611 -0.24323252 0.42310014 0.30873656 0.23307139 -0.13662195 0.053859826
0.24228498 0.13718602 0.0073674615 0.0026348105 0.0019921046 -0.31384876 -0.06999146 -0.16971421
0.011680595 -0.039945 0.14773059 0.014927751 -0.11472729 -0.037100866 0.14244798 -0.22486041
-0.36750597 -0.24735898 0.16197784 -0.07591388 0.22379175 -0.25927234 -0.0013978445 -0.13980617
-0.13458082 -0.079861075 -0.11719597 -0.12842846 -0.17064512 -0.19736476 -0.24319404 -0.29466197
-0.28153887 -0.023539303 0.1173424 -0.25231865 0.16899328 -0.2781912 0.10814355 -0.10905754
-0.20745441 0.16110896 -0.36465055 -0.15979417 -0.18884476 0.18123896 0.048467245 -0.10176566
-0.1385558 -0.1292623 0.045945514 0.1541679 -0.0005584457 0.32479566 -0.20490362 -0.06254464
0.08058609 -0.012798735 -0.04101148 0.64551795 0.22330362 -0.05142077 0.053566355 0.11048363
-0.2244028 -0.21454278 -0.4340036 -0.009612727 -0.24455474 0.11235495 0.009236605 -0.15671559
-0.06413406 -0.22569849 -0.06516634 -0.1803769 -0.16259643 0.28770643 0.343445 0.07236972
0.12530826 0.1463089 -0.2657556 -0.2143906 -0.20741624 0.0068772156 -0.12013848 -0.07194136
0.025063898 0.27487132 0.40263537 -0.22462273 0.18400869 -0.021625016 -0.19162051 0.02805362
-0.15265322 0.43162838 -0.059072 -0.30015942 -0.030580731 0.033816997 -0.15498213 -0.38058174
-0.09269964 -0.2816244 0.13964596 -0.055520218 -0.025235467 0.03012784 -0.06465433 -0.05121294
0.009523778 0.40148485 0.2472054 -0.12630549 -0.048995957 0.08816082 0.30097678 -0.19601645
-0.25253037 0.0035855877 -0.34310323 -0.14415073 0.3249892 0.24017161 -0.07793484 0.25169706
-0.3030071 0.076906495 0.086026326 0.16979295 -0.114067614 0.58749956 -0.08275252 -0.118402734
0.30983055 -0.28457025 -0.19933777 -0.32058796 0.09187237 -0.12310339 0.47234955 -0.27968815
00000000: 72ae a93e cdcd 6c3e 50d8 993d 9918 04be
00000010: f9f0 89bd f0d4 dfbd 36c1 d7bd b057 773e
00000020: 0295 17be 5b61 aa3d 1097 843c bfff 4cbe
00000030: f72c 96bd 9e0d 95be 49b2 7fbd 8ed8 2cbe
00000040: ceaf c73d 253b 66bd dd31 2ebe 73de 373d
00000050: 5416 cabe ee84 49be 00c3 033e c1f4 5a3d
00000060: bc4c 33be 607e 43be 56fd 7ebd 883c 83be
00000070: 65b9 99bc d367 79be 3c02 28be 8f13 eb3e
00000080: c4cf 94be 9016 143e df21 bebd a208 66bd
00000090: 19fd b7be 3158 08be 2633 32be 10b9 6ebe
000000a0: 2fde 243c 691e 0abe 4430 adbe 4ff8 623f
000000b0: 1bf3 0a3f e086 243c 72a2 40be f2ac 5f3e
000000c0: 8ef7 bcbd fc2e d4bd 9af3 3e3e 94d9 253d
000000d0: 1817 753d 3bb3 303d 9866 1dbe 474b 3c3d
000000e0: b1b2 02be 4b2d a3bd 79fc 903e 142d 96be
000000f0: 99ba 13be 7b5a 4c3e 5844 56be 1f2b f93e
00000100: 5248 163e 6c7a af3e 6bbf 38be 52bd 6fbe
00000110: 5e34 bf3d 9f9c 71be 7383 73bd e9f0 413e
00000120: a0b4 fabc 2f58 ed3c bcfd a0bd 2484 5fbe
00000130: 0775 90be 2840 9fbd 22e7 bbbd 21bc b1bc
00000140: 4230 f23d b3b5 3dbc 0932 923e c443 ed3d
00000150: 5605 743d f76f 20be c064 4dbe fe03 7c3d
00000160: 3be5 8d3c 970c 47be f603 18be 6c23 153e
00000170: 36d3 58bd e560 bfbc a315 143e 8aee 16be
00000180: 33d3 85be a81c f6bd b835 6c3e 42e7 93be
00000190: ce6a 1bbd 0c8c fd3d dbb6 ecbc f51a 13bd
000001a0: a5e0 29be 2dab 22be f211 79be 95a0 d83e
000001b0: b812 9e3e 44aa 6e3e a0e6 0bbe 1f9c 5c3d
000001c0: 8e19 783e 7e7a 0c3e bf6a f13b c9ac 2c3b
000001d0: f88d 023b c9b0 a0be af57 8fbd 90c9 2dbe
000001e0: f75f 3f3c 5e9d 23bd b046 173e 8793 743c
000001f0: 24f6 eabd 14f7 17bd e2dd 113e cf41 66be
00000200: be29 bcbe ac4b 7dbe 85dd 253e bc78 9bbd
00000210: aa29 653e 58bf 84be e137 b7ba 5929 0fbe
00000220: 8ecf 09be 348e a3bd 7104 f0bd c082 03be
00000230: 98bd 2ebe fd19 4abe dc07 79be efdd 96be
00000240: dd25 90be 7fd5 c0bc 3651 f03d e92f 81be
00000250: 930c 2d3e 146f 8ebe 5e7a dd3d 8f59 dfbd
00000260: ee6e 54be bff9 243e 7ab3 babe 15a1 23be
00000270: 8560 41be b596 393e 9785 463d 846a d0bd
00000280: 92e1 0dbe 565d 04be 5d31 3c3d 31de 1d3e
00000290: a864 12ba 9e4b a63e 41d2 51be 6717 80bd
000002a0: 520a a53d c9b1 51bc a7fb 27bd aa40 253f
000002b0: b4a9 643e 969e 52bd 6568 5b3d 3e45 e23d
000002c0: d9c9 65be 1ab1 5bbe b835 debe b37e 1dbc
000002d0: 8f6c 7abe 5a1a e63d 2155 173c 0d7a 20be
000002e0: b858 83bd 811d 67be ee75 85bd b9b4 38be
000002f0: ae7f 26be 424e 933e 06d8 af3e 9336 943d
00000300: cf50 003e 00d2 153e 1e11 88be 3689 5bbe
00000310: ec64 54be 445a e13b 2a0b f6bd fe55 93bd
00000320: ce52 cd3c efbb 8c3e 3926 ce3e 8003 66be
00000330: c66c 3c3e f226 b1bc 2b38 44be b5d0 e53c
00000340: 2051 1cbe 65fe dc3e 7bf5 71bd 7fae 99be
00000350: 7184 fabc b183 0a3d a3b3 1ebe 9cdb c2be
00000360: 4fd9 bdbd 1331 90be 5aff 0e3e 2b69 63bd
00000370: 9cba cebc a9ce f63c 7d69 84bd a9c4 51bd
00000380: 9f09 1c3c 6c8f cd3e 6a23 7d3e 3a56 01be
00000390: fcaf 48bd a98d b43d a119 9a3e 89b8 48be
000003a0: a94b 81be 2efc 6a3b 3aab afbe 409c 13be
000003b0: fc64 a63e 8cef 753e 4d9c 9fbd 70de 803e
000003c0: bf23 9bbe 2781 9d3d 922e b03d 34de 2d3e
000003d0: 489c e9bd 5f66 163f 277a a9bd 227d f2bd
000003e0: 1ca2 9e3e 31b3 91be 331f 4cbe 1b24 a4be
000003f0: 9527 bc3d a11d fcbd cdd7 f13e 4933 8fbe

linear2.weight f4 [3, 256]
0.20740528 0.26638466 0.20593214 -0.008089935 0.19086547 0.036759093 -0.18762119 0.14158367
0.23798212 -0.0070815776 -0.017345116 -0.15366863 -0.12774327 -0.40176344 -0.048476037 -0.013879397
0.064697 -0.45881626 -0.11189527 -0.44365346 -0.1663794 -0.11901807 -0.40334335 -0.18587323
-0.13834043 -0.09342076 -0.037601545 -0.21353492 -0.425376 -0.48474023 -0.5736472 0.24728629
-0.06031982 -0.05661906 -0.18728963 0.37792155 0.03694901 0.004008337 0.014020485 0.017945282
0.25681245 0.0016707326 0.020242583 0.45779872 0.26573464 0.00015800577 0.12276569 0.16062726
-0.20991328 -0.32414067 0.2303381 -0.17882074 -0.15695082 -0.33165973 0.3410452 0.27654973
-0.46540102 0.21053103 -0.08188998 -0.45149985 -0.22779107 0.2831427 -0.37263384 0.34789205
-0.44401598 0.32805994 -0.09759428 -0.30945674 0.18738893 -0.047798075 0.23541197 0.27256444
-0.45838487 -0.18951596 0.30723777 -0.11690383 -0.21661592 -0.18005455 -0.5826812 -0.26945886
0.031326015 0.20753282 0.20643553 0.16823013 -0.070985146 0.21544814 -0.022349961 0.4918151
-0.0033715689 -0.19694544 -0.12438337 -0.4014765 -0.087892264 0.30375123 0.22752687 0.1480115
0.006438032 -0.21840438 0.122602545 -0.18111904 -0.18661247 0.12202096 -0.22241825 0.1417823
-0.022443656 -0.00038982852 -0.20678814 0.31762928 0.16200356 0.24300076 -0.10709348 0.0024111317
0.52131784 0.25811827 -0.097585626 0.49807194 -0.120846406 -0.079866916 -0.4614066 0.0069268453
-0.3824532 0.21528633 0.097164676 -0.47704875 -0.22897594 -0.15034524 0.14206848 -0.21708961
-0.2818158 -0.18780752 -0.04030154 -0.44220412 0.32913303 -0.29543748 0.09918239 -0.5097171
-0.13203421 0.039379828 -0.27579618 -0.44589537 0.3353165 0.044949844 -0.01850078 -0.14560895
-0.23452185 -0.13134035 0.07202382 -0.3742997 0.07532838 -0.22543122 0.015973937 -0.33541343
-0.13641903 0.07481551 -0.098073676 -0.018896831 -0.38828897 0.10737053 -0.2277129 0.18547523
0.4848313 -0.003183098 -0.31193185 0.036528427 0.046139635 0.34043872 -0.12410368 0.009764537
0.563627 -0.01962333 -0.20634411 0.5103011 0.36324152 0.07072585 0.054860774 0.13936687
-0.028661605 -0.43456492 -0.15660414 -0.0738821 -0.4621612 0.24645306 0.23237778 -0.23010041
-0.18023492 -0.22546251 -0.56854385 -0.04346068 -0.048221353 0.23230147 0.09163606 0.11423583
0.38941768 -0.07793943 -0.26583084 -0.06981823 -0.48388657 0.14959225 -0.09044732 -0.4451978
-0.15984581 0.47049376 0.16499855 -0.14464755 0.09628735 -0.49380177 0.019593 0.018991286
0.0001767184 0.6040258 -0.65251595 0.022244416 -0.12630214 -0.23807153 -0.21404427 -0.1764913
-0.18729994 -0.3488793 -0.10019927 -0.39925814 0.081705235 -0.07614826 -0.08500081 -0.02273027
-0.5411686 0.34117475 0.21970266 -0.17257161 -0.063378006 0.14433278 0.25114292 -0.3721593
-0.3928546 -0.5725433 -0.2886524 0.059231043 0.12060666 0.34036186 -0.013187108 0.10229342
-0.42435873 -0.0012843466 0.07455364 0.15292501 -0.5599985 0.13478169 -0.16002016 -0.4351239
0.24101679 -0.19842786 0.13006878 -0.100256525 0.04768545 -0.47591057 0.2970462 -0.25549132
00000000: 0d62 543e 9263 883e e0df 523e a68b 04bc
00000010: 3d72 433e b490 163d c51f 40be 4ffb 103e
00000020: 96b1 733e 940c e8bb 5817 8ebc 4f5b 1dbe
00000030: 22cf 02be f0b3 cdbe cf8e 46bd 6966 63bc
00000040: dc7f 843d f7e9 eabe 5929 e5bd 8c26 e3be
00000050: 5d5f 2abe bfbf f3bd 0583 cebe 8d55 3ebe
00000060: 1da9 0dbe 6253 bfbd 1404 1abd e6a8 5abe
00000070: e2ca d9be df2f f8be 8bda 12bf 9e38 7d3e
00000080: ea11 77bd 63e9 67bd dac8 3fbe ef7e c13e
00000090: d857 173d 5e58 833b 2db6 653c fc01 933c
000000a0: ec7c 833e 7cfc da3a c6d3 a53c 9864 ea3e
000000b0: 5f0e 883e 5aae 2539 946c fb3d 797b 243e
000000c0: 82f3 56be c4f5 a5be c0dd 6b3e c91c 37be
000000d0: b7b7 20be 4ecf a9be 7a9d ae3e ed97 8d3e
000000e0: 0b49 eebe 7295 573e efb5 a7bd fd2a e7be
000000f0: 1042 69be 14f8 903e ddc9 bebe e81e b23e
00000100: 1056 e3be 79f7 a73e 83df c7bd 1d71 9ebe
00000110: e2e2 3f3e eac7 43bd d60f 713e 918d 8b3e
00000120: 6cb1 eabe 7910 42be 454e 9d3e 466b efbd
00000130: 90d0 5dbe 3860 38be 982a 15bf 83f6 89be
00000140: b54f 003d 7c83 543e d663 533e 8544 2c3e
00000150: a960 91bd 709e 5c3e 4417 b7bc 30cf fb3e
00000160: 8af5 5cbb 11ac 49be b5bc febd 548e cdbe
00000170: dc00 b4bd 4885 9b3e cefc 683e 5490 173e
00000180: 20f6 d23b 66a5 5fbe 0b17 fb3d 4577 39be
00000190: 5717 3fbe 20e6 f93d 9cc1 63be 612f 113e
000001a0: c2db b7bc e661 ccb9 45c0 53be 4ea0 a23e
000001b0: 43e4 253e 31d5 783e d453 dbbd 1404 1e3b
000001c0: 1675 053f 1428 843e f9da c7bd 4903 ff3e
000001d0: 527e f7bd 4491 a3bd 7c3d ecbe 97fa e23b
000001e0: e8d0 c3be 0574 5c3e 46fe c63d bc3f f4be
000001f0: ab78 6abe 1af4 19be 667a 113e bd4c 5ebe
00000200: 294a 90be 9d50 40be 3a13 25bd 9468 e2be
00000210: 2084 a83e 9543 97be 2320 cb3d d27c 02bf
00000220: fa33 07be be4c 213d 2835 8dbe 664c e4be
00000230: 9bae ab3e 541d 383d f38e 97bc 831a 15be
00000240: 7f26 70be 167e 06be 3981 933d 36a4 bfbe
00000250: c445 9a3d 71d7 66be c6db 823c 4fbb abbe
00000260: 6eb1 0bbe e038 993d dada c8bd 87cd 9abc
00000270: d0cd c6be 15e5 db3d 922d 69be 38ed 3d3e
00000280: cf3b f83e 869b 50bb 88b5 9fbe d59e 153d
00000290: eafc 3c3d fc4d ae3e 122a febd 70fb 1f3c
000002a0: dc49 103f 1bc1 a0bc df4b 53be 18a3 023f
000002b0: cbfa b93e b7d8 903d b1b5 603d 30b6 0e3e
000002c0: becb eabc 4b7f debe d65c 20be 804f 97bd
000002d0: 65a0 ecbe 315e 7c3e 71f4 6d3e 719f 6bbe
000002e0: 818f 38be a5df 66be 178c 11bf d303 32bd
000002f0: c183 45bd 70e0 6d3e b0ab bb3d 7af4 e93d
00000300: c161 c73e b59e 9fbd fb1a 88be dcfc 8ebd
00000310: fbbf f7be b62e 193e 723c b9bd f7f0 e3be
00000320: 9fae 23be 8fe4 f03e 61f5 283e 7d1e 14be
00000330: 4d32 c53d 96d3 fcbe 8081 a03c 9d93 9b3c
00000340: 7c4d 3939 6fa1 1a3f 490b 27bf ec39 b63c
00000350: 5955 01be 06c9 73be 6c2e 5bbe 23ba 34be
00000360: 8ecb 3fbe 4fa0 b2be 4635 cdbd 906b ccbe
00000370: 1355 a73d 9ef3 9bbd e814 aebd d534 babc
00000380: 068a 0abf 75ae ae3e bcf9 603e 9db6 30be
00000390: 54cc 81bd f9cb 133e ce95 803e aa8b bebe
000003a0: 3d24 c9be 3392 12bf 3fca 93be 409c 723d
000003b0: a000 f73d e943 ae3e bd0e 58bc 367f d13d
000003c0: 8c45 d9be 8557 a8ba 94af 983d 6098 1c3e
000003d0: 105c 0fbf 3604 0a3e 53dc 23be 8fc8 debe
000003e0: 1bcd 763e ac30 4bbe c030 053e 4b53 cdbd
000003f0: d251 433d 8daa f3be 7116 983e c2cf 82be

linear2.bias f4 [3]
0.21172936 0.06479152 0.051342975
00000000: 95cf 583e 6bb1 843d 034d 523d
