Snake/model/model.pth (torch, 17609 bytes, 4 tensors)

linear1.weight f4 [256, 11]
00000000: 8aa9 60be 0ae0 a73c 9dff 2f3b 978e 69bd
00000010: 9fb4 abbe 306b 1e3f 09fc 003f 34be 893e
00000020: 5657 073f d1fa d9be d603 9fbe ef4f dbbe
00000030: 88cc 013f 4b7a 7fbd cc8a 8cbb a2ec 9cbe
00000040: e993 143d b9b2 7f3e 7389 91be e2aa f5bc
00000050: 76dc 553e 51f9 b13e 7b0c 0c3e 9a62 a33e
00000060: f0ac c43d 458a d73d dbe4 f33c d39f 19be
00000070: dc8b abbd 0d75 623d efac cd3e 3395 b73e
00000080: 7731 423e 76d8 4abd 7eb1 90be cd07 59be
00000090: 3568 9ebd 1cdd d7bd f90a 963e e2fc 77be
000000a0: 3d4b 943e 1afc 5ebe d5ff 2abe f460 9abe
000000b0: 071e e3bd 8428 1cbd 017c 80be 816b f03d
000000c0: a6f6 86bd 1917 903d 147c 2ebe cf15 773b
000000d0: f883 62bc 248b e73d 1a3f 92be 07e2 033f
000000e0: 9d44 10bd 7e96 163d c42b 2f3e b587 2fbd
000000f0: 511a 4abe d11a 31be 786c 77bd 8d36 693e
00000100: 9038 bd3d 7005 9f3e 9fd1 083f 7825 ecbe
00000110: bff3 9a3e 8c3e 333e 72e0 a4bd 58f3 573e
00000120: f5e9 b03d 9fcd 3cbd e387 463e 3a24 4dbd
00000130: 3194 e53d ba05 febd 8c35 6ebe cd3a 97be
00000140: a4e0 a9be 4661 f8be 6e7c 81be b49a 983e
00000150: bec1 c4be c849 72be d127 d5be ee63 b23e
00000160: 3b09 3f3f dbb3 103e c1da 5fbe 840a 0fbe
00000170: c88b 673e bbcf 173e f214 c9be 85cb 1a3e
00000180: ee56 3cbe 16c8 7e3d f642 bc3e fc3c 6ebe
00000190: b6b5 b9be f15e 7b3e 8360 2cbd 80d6 8c3e
000001a0: d001 d23e 9643 823e 5780 8dbe 4003 413e
000001b0: 44c7 bbbd f810 fbbd b75d bf3b 0282 bdbe
000001c0: 1072 d23e 3b13 653e 48b4 8abe 612c 6abc
000001d0: cd76 bc3d 3b81 9abe 51d7 a03e c4d1 7a3d
000001e0: d834 a6bd 8d29 33bd 8def 8fbd f28e ae3e
000001f0: c06c 01bd 0c5c 55be 09e1 a1bb de6e 0f3e
00000200: bc21 73be 1d2e b2be 3933 fb3d f520 e4bc
00000210: ee3b 473e 414d ab3e d6ad 78bc 83ad 6cbe
00000220: b7e6 953e 2214 b23e ba0c adbe b190 a03e
00000230: 559f 87be 9ba6 31be 9828 56be 6b00 e73e
00000240: 2973 22bf 7ea4 0e3f 48b3 8bbd e70e c7bc
00000250: 7b2b 803d c2a2 64be 9cc6 11bb d0a5 903e
00000260: 9674 e13d eb5f 933e a965 a8bd 0c95 50be
00000270: 1516 d13e 39d7 f73d bd3f 4abe b53f 673e
00000280: 59c5 2f3e 1d72 0b3d 376b f2bd 341d 703e
00000290: d7a5 c8bd 5c18 843d 6edc 4cbd 1372 89be
000002a0: 0b72 163e 88aa 1d3e df0b a93d 4ee9 73bd
000002b0: 8b08 35bc 465c 61be ba81 90be a6ec 89bd
000002c0: 2568 a03e 43df b83d d040 f1be 9798 b83b
000002d0: 0853 efbd 222a 4bbd 0b43 9bbc c280 ebbd
000002e0: 7614 843d 3870 2f3e cd12 883e f834 7d3d
000002f0: 6b6f 99be 75b2 57be 7ef8 14bd 5bb8 99bb
00000300: 8dec 4bbe 3a59 63be 1034 67be dd10 94be
00000310: 21a3 27be 490c 0d3e d685 103e 4384 37bb
00000320: be7e e63b cd39 a4be 27a6 36bd b79e f23e
00000330: 067a 6f3e 2977 b73e cd60 a23d 6de8 d0be
00000340: 8399 0bbf 67a1 5bbe e76e dd3d 3944 0f3e
00000350: b1be 85be 3da1 65be 2d5d 8ebe 6dc4 73be
00000360: cb33 42be f699 983d f82a 32be bae3 6d3d
00000370: 4657 c13d b3b0 5f3d 4463 643d 2d6d 65be
00000380: f885 2e3d 0f6d 603c 7a3d 71bd 82d3 d63e
00000390: 5c14 6a3e 69b3 c63e fcc8 d43e 3239 a5be
000003a0: cb26 a53e b63c b9be 68cc 9cbe e98d 9abe
000003b0: a7ca fc3d 50a7 973e 581a 86be c086 6ebe
000003c0: 5d33 14bf 8e7b b53e e5aa af3d 5d22 6d3c
000003d0: a2f4 86bd a90a bbbe 0ec7 a7be 0b3a d93e
000003e0: 18dd 443e e8a8 d33e d7c6 b83e 3d49 b2be
000003f0: 38e9 0fbe 551a c63e 5e9b 7b3e 85ba b5bd
-0.21939674 0.020492572 0.0026855238 -0.05702075 -0.3353624 0.61882305 0.50384575 0.26902926
0.5286764 -0.4257417 -0.31057614 -0.42834422 0.50702715 -0.062372487 -0.004289007 -0.30649287
0.03627387 0.24970521 -0.28425178 -0.02998871 0.2088488 0.34760526 0.13676636 0.31911165
0.09603298 0.1052442 0.029772213 -0.15002374 -0.083762854 0.05528741 0.40171 0.35856017
0.18964182 -0.04952284 -0.28260416 -0.21194382 -0.0773472 -0.1054022 0.29305246 -0.24217561
0.28963652 -0.21775857 -0.16699155 -0.30152094 -0.11089712 -0.038124576 -0.25094607 0.11739255
-0.06590013 0.070356555 -0.1703952 0.0037702208 -0.013825409 0.11305836 -0.28563768 0.51516765
-0.035221685 0.036764614 0.17106539 -0.04285403 -0.19736601 -0.17295386 -0.06040618 0.22774716
0.09239304 0.31058836 0.53444856 -0.46122336 0.3026409 0.17504328 -0.08050622 0.21088922
0.08638374 -0.046094533 0.19387774 -0.050083376 0.11209906 -0.12403436 -0.23262614 -0.2953705
-0.331792 -0.48511714 -0.25290245 0.2980553 -0.38429064 -0.23660958 -0.4163194 0.34841865
0.7462346 0.1413111 -0.21860792 -0.13968855 0.22611916 0.14825337 -0.39273793 0.15116699
-0.18392536 0.062202536 0.36769837 -0.23265451 -0.36271447 0.24547936 -0.04208423 0.275074
0.41017008 0.2544219 -0.27636978 0.18848896 -0.09168866 -0.12259096 0.005840029 -0.3701325
0.41102648 0.22370617 -0.2709067 -0.014292807 0.09202347 -0.3017672 0.31414273 0.061235204
-0.08115548 -0.043740798 -0.070281126 0.34093434 -0.031597853 -0.20835894 -0.0049401564 0.14007136
-0.23743337 -0.34800807 0.12265629 -0.027847746 0.19456455 0.33457378 -0.0151781645 -0.23113064
0.29277584 0.34780985 -0.33798772 0.3136039 -0.26488748 -0.17348711 -0.20913923 0.45117506
-0.6345697 0.55719745 -0.068213046 -0.024299098 0.06258293 -0.22327712 -0.0022243625 0.28251505
0.11008565 0.28784117 -0.08222515 -0.20369357 0.4083716 0.12101597 -0.19750877 0.22582896
0.17165126 0.034044374 -0.11836856 0.2344864 -0.097972564 0.06449959 -0.050014906 -0.26844844
0.14691941 0.15397084 0.08254217 -0.05954867 -0.0110494 -0.22007856 -0.28223974 -0.0673459
0.31329456 0.09026959 -0.4711976 0.0056334245 -0.11685759 -0.049600728 -0.018952867 -0.11499168
0.06449215 0.17132652 0.26576844 0.061818093 -0.29967818 -0.2106417 -0.036369793 -0.0046911663
-0.19914456 -0.22202006 -0.22578454 -0.28919116 -0.16370822 0.13774218 0.14113554 -0.0028002418
0.007034152 -0.32075348 -0.04459205 0.47386715 0.23386392 0.358331 0.079286195 -0.40802327
-0.54531115 -0.21448289 0.108121686 0.13990869 -0.26122048 -0.22424789 -0.27805462 -0.23805399
-0.1896507 0.07451241 -0.17399204 0.058078505 0.09440474 0.054611873 0.05575873 -0.22404929
0.04260823 0.013697877 -0.05889652 0.41958243 0.22859329 0.38808754 0.4155959 -0.322702
0.3225616 -0.3617913 -0.306247 -0.30186394 0.1234334 0.29619837 -0.26191974 -0.2329359
-0.57890874 0.35445827 0.085775174 0.014473525 -0.06589629 -0.3653157 -0.32769054 0.42427096
0.19224966 0.41339803 0.36089203 -0.348215 -0.1405381 0.38691965 0.24570987 -0.088734664

linear1.bias f4 [256]
00000000: 8cac 5abe 6e29 89bc 3770 9bbe 167b c1bd
00000010: a947 80be de40 42be daef 97be e6f3 c83d
00000020: 518c 183c 6b5c e73e 7e51 a8bd f441 e33d
00000030: db20 55be a0f7 f6bd 7f18 fd3c e75e 6cbe
00000040: 74f5 27bc 4400 8cbe 51c7 a8bd 0647 afbe
00000050: 1727 a4be deb4 8bbd 9770 8abd aa7e e03e
00000060: ddce 6bbe 4518 88bd 3eec a6be 15c0 88be
00000070: 38de 32be 3035 3abe 21e1 4bbe 7619 7cbc
00000080: 192c 73bd 8e61 843e 6c55 ac3e 4404 083d
00000090: 14a1 a3be d169 05be 9b00 06be 5966 5cbe
000000a0: 2982 7b3e d43f b2be 2b19 03be 244a 1e3c
000000b0: 03ff 9e3e fff9 51bd 4f86 1e3e d31a 2f3d
000000c0: 6a86 fc3e bc95 f83c 0dcb 543b 2993 283b
000000d0: 6ca5 bcbe 9491 26be 9ae1 d13e 7cc1 e3bd
000000e0: b572 86be 5f39 80bd 7d5f db3e 74de 073e
000000f0: 18f5 94be 9d58 173d 605f cdbe c775 aabc
00000100: ce05 e6bd 47ab f7bd 0679 823e b2bb debd
00000110: 7126 1dbe dda6 733e 168c 543e 960d 38bd
00000120: 836a 09bd e16b 1fbe f52e e9bd a262 3dbe
00000130: 298c 283e 52ec ec3e 32f3 d1bd 2d6e 0fbe
00000140: 86df ccbb 3a7c dd3d 1639 3e3e 02e0 56be
00000150: b8e9 b6be 8d86 a0bd 31e0 8bbe bb45 ba3d
00000160: 8589 bbbe 9cae 65be 726e bfbe 11e1 dd3e
00000170: 8888 15be 8a76 4dbc fcfb 11be 2601 d23e
00000180: 5aa8 8bbe 171b 833e adfa 11be 352a 0dbe
00000190: 0c1f 82be 7183 73bd 5315 1b3e 3481 c8bd
000001a0: 3874 15be 958f c23c d195 5abd f177 7cbe
000001b0: bde9 0bbe d4fc 35be dc96 fc3c df2f 49be
000001c0: 0572 e13d 3072 2dbe 5503 a23b ed41 97bc
000001d0: 126b e3bd 22eb 89be 7720 74be 46df 3fbe
000001e0: adc6 24be bb8b fbbd 2386 61be 6620 25be
000001f0: 8167 9bbe d891 a03e f8a7 2dbd 4c24 b3be
00000200: b5bf 9cbe 0e27 46bc 7cfe 69be 48e7 563e
00000210: 24ff 74bd 96f4 49be 433d c53e 87ed bdbc
00000220: 5732 003e 70bd 70be 8f46 a7be 5d91 18be
00000230: f22e aa3d 9d83 adbd a433 84be 8604 22be
00000240: 0360 3cbe 6db9 883e bf5f 91be 23c9 aa3e
00000250: 3b83 a8be a609 fa3e d1b4 8dbe 05ab 34be
00000260: 3b1c 8b3e 6faa 10be 5d32 a5be 19af f2bd
00000270: 2fcf 3fbe 8504 b73e b904 b03e 14a6 293e
00000280: 8b88 55be 1a5a 953d 843d 313e 4cdb cbbb
00000290: 175b 2fbd 80db 4ebc 4046 09be 669a 7ebe
000002a0: fc08 aebd 83ef 28bc 8b20 69be acee c7bb
000002b0: d0d2 67be 4de0 bfbd c7f7 52bc 3ad8 92be
000002c0: 6640 d2be f48b 8fbe b081 863e bc2d 1fbd
000002d0: 4918 2abd 9485 67be 2a81 a5be b25e ae3c
000002e0: fffe eebd 6ebf 37be 01fc 34be 9e03 c13d
000002f0: ac18 8fbd ed47 9e3e 4903 2abe 8ec2 4bbd
00000300: 992d 04be 7a3b 843e e2c6 a43d eed9 bbbd
00000310: 8e3d 13be 4ae8 533e e003 633d 3d87 18be
00000320: a73b 1e3e 6258 a93c 3cb2 553e 8238 41bb
00000330: 4c32 d1be 75a0 81be 6e74 de3d 0539 11be
00000340: b165 2cbe da8c b9bc edd3 943d 83c2 40be
00000350: d202 d7be c2ad bebc be2f 7f3e 4b5c 153e
00000360: 4c7d 303e 1c7c 983d 1c72 d3bc 5ee1 03be
00000370: 23f9 aabc 36a0 0e3d 8157 b6ba d83e 2e3e
00000380: ef8a 9ebe 7b5f 2fbd bd1d 9bbd b84f bbbe
00000390: 0f59 05be a263 8bbe 3258 cbbe a5b5 5fbe
000003a0: 474a 63be fd44 a7bd 5055 513e e7f9 eb3e
000003b0: 58e0 07be 8559 4dbe e4b1 123f c2c0 9c3c
000003c0: 4434 ee3e 1a35 99be a69b 41be eb7e cfbd
000003d0: 0bd7 b3bd 9c93 5a3c 57fd 4d3e 13e6 c83e
000003e0: 3eb2 393e 0b80 39be 79fa 623c 55b9 dd3e
000003f0: 7b4b 7cbe 19d3 c13e 80ee 7bbe df97 d2be
-0.21354884 -0.016743388 -0.3035905 -0.09447305 -0.25054672 -0.18970057 -0.2967518 0.09812145
0.009310798 0.45187697 -0.082186684 0.11096564 -0.20813315 -0.120589495 0.03089547 -0.23083077
-0.010251392 -0.27343953 -0.082411416 -0.34233874 -0.32061073 -0.06821607 -0.06759756 0.43846637
-0.23028131 -0.06645254 -0.32602113 -0.26709047 -0.17467582 -0.18184352 -0.19910099 -0.01538693
-0.059368227 0.25855678 0.33658922 0.033207193 -0.3195883 -0.13028647 -0.13086168 -0.21523418
0.24561371 -0.34814322 -0.1280257 0.009661231 0.31053934 -0.051263805 0.15480922 0.04275019
0.493213 0.030344836 0.003246966 0.002572248 -0.36844957 -0.16266471 0.40992433 -0.111208886
-0.2625939 -0.06260943 0.4284629 0.13268453 -0.29093242 0.036949743 -0.40111828 -0.020808114
-0.11231576 -0.120932154 0.2548296 -0.10875644 -0.15346695 0.23794122 0.20756564 -0.04493483
-0.033548843 -0.15568496 -0.113859095 -0.18494657 0.16459717 0.46274048 -0.10251464 -0.14006872
-0.006252232 0.1081471 0.18576464 -0.2098389 -0.35725188 -0.078381635 -0.27319482 0.09095331
-0.36628357 -0.2242989 -0.3738895 0.43335775 -0.14602864 -0.012540469 -0.1425628 0.410165
-0.2727688 0.25606605 -0.14255781 -0.13785632 -0.25414312 -0.059451524 0.15144853 -0.097902685
-0.14595115 0.023750106 -0.053365532 -0.24655129 -0.13663383 -0.17772228 0.030833654 -0.19647168
0.110080756 -0.1693809 0.004944245 -0.018464053 -0.111044064 -0.26937205 -0.2384051 -0.18737516
-0.16091414 -0.12282511 -0.22023825 -0.1612564 -0.30352405 0.3136127 -0.042396516 -0.3498863
-0.3061501 -0.012094272 -0.22850984 0.20986664 -0.059813634 -0.19722208 0.385233 -0.02318455
0.12519203 -0.23509765 -0.3267102 -0.14899202 0.08309735 -0.08472369 -0.2582065 -0.15822038
-0.18396 0.2670397 -0.2839336 0.3335658 -0.3291262 0.48835486 -0.27677014 -0.17643364
0.27169976 -0.14127515 -0.32264987 -0.118498035 -0.18731378 0.35745636 0.34378603 0.1656726
-0.20852868 0.07292576 0.17308623 -0.0062212106 -0.04281148 -0.012625575 -0.13405704 -0.24863586
-0.084978074 -0.01031101 -0.2276632 -0.00610145 -0.22639012 -0.09368954 -0.012876458 -0.28680593
-0.41064757 -0.28036463 0.2627082 -0.038861975 -0.041527066 -0.2260955 -0.32325107 0.021285389
-0.116697304 -0.17944118 -0.17674257 0.09424518 -0.06987128 0.3091425 -0.16602816 -0.04974609
-0.12908019 0.25826627 0.080457464 -0.09172426 -0.1437895 0.2069408 0.055423617 -0.1489534
0.15452443 0.020672027 0.20868772 -0.0029483144 -0.40858686 -0.25317731 0.10862051 -0.14181907
-0.16835667 -0.022650171 0.07266984 -0.188242 -0.4199434 -0.023276214 0.24920556 0.14585988
0.17235297 0.07445547 -0.025811248 -0.1287894 -0.02087075 0.034820758 -0.0013911576 0.1701616
-0.30965373 -0.042815667 -0.075740315 -0.36584258 -0.13022254 -0.2722445 -0.39715725 -0.21846636
-0.22196303 -0.08167455 0.204427 0.46089098 -0.13269174 -0.2005368 0.5730269 0.019134883
0.4652425 -0.29923326 -0.18907031 -0.101316296 -0.087812506 0.013340857 0.20116173 0.39238033
0.181344 -0.18115251 0.013853663 0.4330546 -0.24638169 0.37856367 -0.246027 -0.41131493

linear2.weight f4 [3, 256]
00000000: 993d 39bf b505 193e ef5a b7bd d0c3 4d3b
00000010: 58d9 98ba 57a3 6cbe 0a8b 0ebe b109 cf3e
00000020: 6051 91be ca06 5a3e 8d82 a0be fe69 c93d
00000030: cc75 d0be ac5b 4bbe 4806 8f3d 3dec a9bb
00000040: 0bd8 ebbc b04e 79bc 8fdf 17bf 29cf f73b
00000050: 16b9 34be 4f81 673e 5798 09bf 16ff 023e
00000060: 5afd 9ebe 092e f6bd 0ca8 10be 6b73 cabe
00000070: 4db2 2ebe cb06 363d 7e0c a83c 5249 4abe
00000080: 8a23 99be 347c b33e 993e 303e d220 07bf
00000090: a681 fcbd a1a4 af3e 08c3 bdbe 752d 7dbd
000000a0: f6eb e63e 7bab 35be e921 0bbf 1c05 63bd
000000b0: 4432 b83c d608 d2bd adff 213e 96df 433c
000000c0: 3fd1 cd3e e5b7 a13d 78d3 d4bd 3b55 b6be
000000d0: b653 d1bd 9b2c c93e 59c9 7a3e 40a7 5cbd
000000e0: 050f 753e 506b 74be 95d2 a93e 4c33 123e
000000f0: 4cd5 1bbd 8e95 a53d b065 04be 1cc0 62be
00000100: 4fa2 3a3e 520a 7cbd 9451 ba3d 76e9 c7bd
00000110: 4640 2e39 7258 833e 5f33 443e 84a5 063e
00000120: d67a bbbe 2ef6 19be 0b26 debc bc59 6ebd
00000130: 3fea cf3e 4aaf c23e a950 03be 90b1 983c
00000140: a7dc 853e 7056 c53d f934 aa3d 519a 88be
00000150: c657 5dbd 027a ea3c 67fb 04bf 256f c1bd
00000160: cc6e 1fbe 384f 08be 979c d6bd 1f3b d53e
00000170: b1eb c0be 515d 92bd 6b65 61be df6f c53e
00000180: 5967 84be 18b1 993e c21c 9fbd 603f 41bd
00000190: c97f ccbe bcbf a3bd 8a66 b93e 641c 87bd
000001a0: d923 923e 6237 a13c d459 afbe 0631 a53d
000001b0: 8566 01bf 75db 88be e16c a23d 1e2a ccbd
000001c0: 3f2b 543d a160 29bf cbcc 1cbe ed5f 89be
000001d0: d496 fabc 1588 7fbd f320 acbc b4fb 95be
000001e0: ed8e 00bf 5c40 c8bd 7f71 2ebf 72d5 903e
000001f0: d671 00bf 4c80 3d3e 2876 6bbe b69f 44be
00000200: ad43 8fbe 47ca 923e 5c8c 00bf 79b1 533e
00000210: 78bc 8b3e ca35 01be 477f d33e 3aaa 89be
00000220: 6953 cb3c 636b 23bf c52e 71bd 4d4e e4bc
00000230: 2a19 ec3c 2b57 36bd 3a64 71be 82fc 59be
00000240: 9607 b7bc cb2f b33e 0a7d d6bd 1bd0 353e
00000250: 2b8d 23be ed55 b13e c245 023d c29d 33be
00000260: e16d a43e 69e5 29be e42e 02be b3ab 653e
00000270: e2cb 22bd 7e23 ee3e 7d58 ac3e f7b7 b23e
00000280: 437e cabd 79a4 abbe 4585 553e c298 713e
00000290: 94d5 833e fe99 e8be ccc9 3c3c 4cf5 6e3e
000002a0: c114 963e e602 dcbe c971 3bbe dc58 c23e
000002b0: 0820 01be 88bc 87be 7c35 db3d 5039 e03d
000002c0: 9447 7a3c 5c53 2a3e 2848 e53d 263b ae3e
000002d0: d93e eabd 8838 79bd a777 7bbe da6e 89be
000002e0: e79a 46be 19dc 4bbe 0205 f2be 7ed4 743d
000002f0: 18c2 aebc 3bd8 9e3e 3aa3 d0be 716d 733c
00000300: 0926 9bbe 9ce7 453e 8979 f3bd 5cc4 a7bc
00000310: 6d77 163d 14c2 fb3d 9a83 f9bd 0005 2bbe
00000320: fd9a 953e 7852 babe a962 7e3a bf87 cf3c
00000330: 8e4e b5bd 0078 2238 c442 813e 7477 8fbd
00000340: 54d7 56be 0212 9e3c f96a 183e 8f5b c23e
00000350: c3cd 26be 6503 d53d 0938 633d ffd6 863e
00000360: 64be f23e 93db 7d3e 28aa 1d3e a79a d7bd
00000370: c5cb 46be d951 39bf 734b fdbd ae1a 6e3e
00000380: c94e 8dbc 8ea0 64be 9a79 91bc ea15 36be
00000390: f664 19be e334 1ebe 48f5 adbb 0088 a9bc
000003a0: f80e d1be 31e0 b0bd 24be b43e eae5 a53e
000003b0: 11fd 8cbe 75f9 eebd bc47 6d3e 3248 58be
000003c0: 466d 4f3e 759d 24bd 6fe2 e6bc d9b4 67be
000003d0: ba7e ccbe 30a6 ffbd 2c13 9f3d 3f32 ab3e
000003e0: 5efe d23e f1a7 853e 12c2 e53d 82f1 d33e
000003f0: fbf6 2bbf a8e9 823e e890 abbc a845 4ebe
-0.72359616 0.14943583 -0.08952891 0.003139723 -0.0011661453 -0.23109184 -0.13920227 0.4043708
-0.28382397 0.21291652 -0.31349602 0.098346695 -0.40714872 -0.19859189 0.0698362 -0.0051856325
-0.02878954 -0.0152165145 -0.593255 0.007562537 -0.1764873 0.22607921 -0.5374808 0.1279262
-0.31052667 -0.12020499 -0.14126605 -0.39541182 -0.17060204 0.044440072 0.02051377 -0.19754532
-0.29909927 0.35055697 0.17211379 -0.52784455 -0.12329416 0.3430529 -0.3706286 -0.06181093
0.451019 -0.17741196 -0.5434862 -0.055424795 0.022484906 -0.102555916 0.15820189 0.0119551625
0.40198705 0.07896403 -0.10391897 -0.356119 -0.10221045 0.39291844 0.2449087 -0.05387044
0.23931511 -0.23869061 0.33168474 0.1427738 -0.038045213 0.08085166 -0.12929416 -0.22143596
0.18225978 -0.06153328 0.09097591 -0.09761326 0.00016617877 0.25653416 0.19160222 0.13149077
-0.36617154 -0.15035316 -0.02711775 -0.058191046 0.40608403 0.3802436 -0.12823738 0.018639356
0.26144907 0.09635627 0.08310885 -0.26680234 -0.054038785 0.028622631 -0.5194611 -0.09445027
-0.1556961 -0.1331147 -0.10479086 0.41646668 -0.37679818 -0.07146705 -0.22011344 0.38561913
-0.25860098 0.30017924 -0.07769157 -0.04717958 -0.39941242 -0.07995555 0.36211044 -0.06597212
0.28542975 0.019679729 -0.3424822 0.08065991 -0.5054706 -0.26729932 0.07930923 -0.09968971
0.051799055 -0.6616307 -0.15312497 -0.26830998 -0.030589499 -0.062385637 -0.021011805 -0.29293597
-0.5021809 -0.097779006 -0.6814193 0.28287846 -0.501737 0.18505973 -0.22994292 -0.1920155
-0.2798132 0.2866995 -0.5021417 0.20673169 0.27292228 -0.12618175 0.41308042 -0.26887685
0.024820046 -0.63835734 -0.058882494 -0.027869368 0.028820593 -0.044516724 -0.2357339 -0.2128773
-0.022342484 0.349974 -0.10473068 0.17755167 -0.1597182 0.3463587 0.031804807 -0.17540649
0.3211508 -0.1659142 -0.127132 0.2242878 -0.03974522 0.46511453 0.3366126 0.3490598
-0.09887364 -0.3352392 0.2085162 0.23593429 0.25748885 -0.45429987 0.0115227215 0.23335761
0.2931271 -0.4297096 -0.18305124 0.3795842 -0.12609875 -0.26511025 0.10703561 0.109484315
0.015275855 0.16633362 0.11195403 0.34029502 -0.114377685 -0.060844928 -0.24557362 -0.26842386
-0.19395028 -0.1990818 -0.47269446 0.05977296 -0.021332785 0.31024346 -0.40749532 0.014857636
-0.30302456 0.19326633 -0.11888415 -0.020479374 0.036734987 0.12292877 -0.12183304 -0.16701126
0.2921981 -0.36391044 0.00097040326 0.025333283 -0.08852874 3.873557e-05 0.2524625 -0.07005206
-0.20980579 0.019295696 0.14884557 0.3796048 -0.1628943 0.10401038 0.05547336 0.26335904
0.47410882 0.24790792 0.1539694 -0.105275445 -0.1941367 -0.72390515 -0.123679064 0.23252365
-0.017249482 -0.22326872 -0.01775818 -0.17781797 -0.1497992 -0.15449862 -0.005308781 -0.020694733
-0.40831733 -0.08636511 0.35301316 0.32401973 -0.27536824 -0.11668674 0.23171896 -0.2112129
0.20256528 -0.040189225 -0.028184144 -0.22627582 -0.39940435 -0.124828696 0.077673286 0.33436772
0.41209692 0.26104692 0.112186566 0.41395193 -0.6717374 0.2556889 -0.02094312 -0.20143759

linear2.bias f4 [3]
00000000: 273c 503e 9e51 903d 9399 0a3e
0.20335446 0.07046817 0.13535146
